Vogen.Synth/models/f0.man.onnx (onnx, 27074 bytes, 18 tensors)

j2 f4 [2, 1]
-1.8947825 1.1187159
00000000: 3c88 f2bf 1532 8f3f

9p f8 []
40.0
00000000: 0000 0000 0000 4440

4 f4 [8]
0.0 0.125 0.25 0.375 0.5 0.625 0.75 0.875
00000000: 0000 0000 0000 003e 0000 803e 0000 c03e
00000010: 0000 003f 0000 203f 0000 403f 0000 603f

1p f4 [16]
0.0 0.0625 0.125 0.1875 0.25 0.3125 0.375 0.4375
0.5 0.5625 0.625 0.6875 0.75 0.8125 0.875 0.9375
00000000: 0000 0000 0000 803d 0000 003e 0000 403e
00000010: 0000 803e 0000 a03e 0000 c03e 0000 e03e
00000020: 0000 003f 0000 103f 0000 203f 0000 303f
00000030: 0000 403f 0000 503f 0000 603f 0000 703f

92 f4 [16, 8]
-0.04871242 -0.23170532 -0.07399087 0.17278954 -0.13162509 0.25482544 0.001288898 0.31863984
0.10080171 -0.018385865 -0.0006261626 0.36203435 0.06936185 0.21294409 0.0009809614 0.30258745
-0.23484117 0.6284435 -0.09225376 0.3260262 0.43614247 0.4643965 -0.0006701186 -0.40681693
-0.53436524 -0.466186 -0.23261254 -0.11032595 0.39338908 -0.40339065 0.0015875604 0.21548842
-0.12491461 -0.26928076 -0.066685006 -0.14547525 0.10847264 -0.36893025 0.0012812729 0.14815784
0.110035725 0.59804165 -0.10129146 0.14848621 -0.18210924 0.56970984 -0.000655976 0.18525337
-0.12185835 -0.3508271 -0.06646733 -0.06985914 0.18329608 -0.2990602 0.0013440574 0.14359596
0.19094515 0.21998091 0.018759092 0.31234205 -0.058421563 0.6075499 0.00021440117 -0.14982347
-0.08861955 0.19052477 0.08176792 -0.34767243 0.41848803 -0.2180123 0.0004048664 0.24982314
0.21447267 -0.37920964 0.33820906 -0.11203898 0.10108051 -0.046380814 0.001155416 0.19819161
-0.33130816 0.1396314 -0.21700081 0.18660259 0.016463138 0.24715035 0.00049394363 -0.030155536
0.14562257 -0.12820335 0.29328963 -0.21812737 0.28451037 -0.27761686 0.0024663596 0.22836897
0.070192374 -0.058142498 -0.05712431 0.3481315 -0.0502 0.40827656 0.00047286873 -0.33804557
0.057368156 -0.52885157 0.052196614 -0.2852996 0.13525404 -0.5000404 0.002836312 0.29284668
0.00946223 0.030939883 -0.020250767 0.055287477 0.004128507 0.16441578 -0.00048167276 -0.022337854
-0.17857629 -0.44293904 0.24972889 -0.44831163 0.20715488 -0.5274048 0.0019324564 0.4023472
00000000: ad86 47bd 2944 6dbe 8688 97bd beef 303e
00000010: bac8 06be 7b78 823e 3ef0 a83a c324 a33e
00000020: 2071 ce3d f49d 96bc 1025 24ba 915c b93e
00000030: 960d 8e3d 040e 5a3e 9a93 803a beec 9a3e
00000040: 347a 70be ace1 203f 8aef bcbd e8ec a63e
00000050: 114e df3e 61c5 ed3e e6aa 2fba 4f4a d0be
00000060: 29cc 08bf eeaf eebe fb31 6ebe 92f2 e1bd
00000070: 4b6a c93e 3889 cebe b015 d03a ffa8 5c3e
00000080: 3bd3 ffbd 2bdf 89be 2692 88bd 77f7 14be
00000090: e726 de3d 6de4 bcbe 62f0 a73a b0b6 173e
000000a0: 695a e13d 4219 193f e671 cfbd c50c 183e
000000b0: d87a 3abe 81d8 113f cef5 2bba 0fb3 3d3e
000000c0: df90 f9bd 9c9f b3be 0620 88bd 4f12 8fbd
000000d0: f8b1 3b3e 6b1e 99be 152b b03a d20a 133e
000000e0: 2087 433e ad42 613e abac 993c 4ceb 9f3e
000000f0: 734b 6fbd 6488 1b3f e0d0 6039 536b 19be
00000100: 2b7e b5bd ed18 433e f075 a73d 1f02 b2be
00000110: 1044 d63e 9e3e 5fbe 4044 d439 a3d1 7f3e
00000120: b99e 5b3e c427 c2be bd29 ad3e b174 e5bd
00000130: 4c03 cf3d cff9 3dbd 5471 973a bef2 4a3e
00000140: 39a1 a9be 89fb 0e3e 7635 5ebe c014 3f3e
00000150: b4dd 863c fb14 7d3e ff7b 013a be08 f7bc
00000160: 151e 153e bd47 03be 0f2a 963e c85c 5fbe
00000170: 58ab 913e cc23 8ebe a6a2 213b 8ed9 693e
00000180: 05c1 8f3d d426 6ebd 2efb 69bd 4b3e b23e
00000190: 849e 4dbd a009 d13e 5eeb f739 4f14 adbe
000001a0: dffa 6a3d d162 07bf 1ecc 553d ca12 92be
000001b0: 0980 0a3e a602 00bf 6be1 393b 00f0 953e
000001c0: 7807 1b3c a375 fd3c f0e4 a5bc 1f75 623d
000001d0: 6d48 873b 9c5c 283e 0689 fcb9 e0fd b6bc
000001e0: b4dc 36be e8c8 e2be eeb8 7f3e 1a89 e5be
000001f0: 6920 543e 0004 07bf 7a4a fd3a 7400 ce3e

ea f4 [24]
0.0 0.0 0.0 0.0 0.0 0.0 0.0 0.0
0.0 0.0 0.0 0.0 0.0 0.0 0.0 0.0
1.0 1.0 1.0 1.0 1.0 1.0 1.0 1.0
00000000: 0000 0000 0000 0000 0000 0000 0000 0000
00000010: 0000 0000 0000 0000 0000 0000 0000 0000
00000020: 0000 0000 0000 0000 0000 0000 0000 0000
00000030: 0000 0000 0000 0000 0000 0000 0000 0000
00000040: 0000 803f 0000 803f 0000 803f 0000 803f
00000050: 0000 803f 0000 803f 0000 803f 0000 803f

zq f4 [16, 1]
1.3103421 1.6259015 2.142754 3.3596585 2.1793652 -0.5073679 1.6356322 2.6088448
-0.71870446 -1.153883 -0.4478627 -0.6074172 -1.9476706 -2.289996 -1.8357875 -2.137843
00000000: 4ab9 a73f 8a1d d03f e222 0940 a504 5740
00000010: b87a 0b40 dde2 01bf 655c d13f 50f7 2640
00000020: 04fd 37bf 70b2 93bf 434e e5be b27f 1bbf
00000030: 454d f9bf 4b8f 12c0 16fb eabf 6bd2 08c0

u5 f4 [8]
0.0 1.0 2.0 3.0 4.0 5.0 6.0 7.0
00000000: 0000 0000 0000 803f 0000 0040 0000 4040
00000010: 0000 8040 0000 a040 0000 c040 0000 e040

4l f4 [16]
-0.14584938 0.51334625 0.22050385 -0.07053086 -0.13173826 0.07852269 0.04471343 0.48615873
0.2634319 0.38470635 0.09294726 0.4534304 0.34376973 0.018901369 0.36931282 -0.6466613
00000000: 8a59 15be a96a 033f c3cb 613e 7c72 90bd
00000010: 65e6 06be 81d0 a03d 6e25 373d cce9 f83e
00000020: 8ce0 863e 3bf8 c43e 225b be3d 0828 e83e
00000030: 9602 b03e 0bd7 9a3c 9216 bd3e 988b 25bf

8w f4 [8, 2]
-0.7079169 0.3467223 0.70211196 0.8680099 -0.61929244 0.14246637 0.78094494 0.5130272
-0.22696538 -0.34259936 0.98407555 1.0890102 -0.0074291774 -0.012337385 -0.6301799 -0.4839114
00000000: 0b3a 35bf 9685 b13e 9cbd 333f e635 5e3f
00000010: f389 1ebf b4e2 113e 02ec 473f c055 033f
00000020: 9d69 68be 2f69 afbe 60ec 7b3f b064 8b3f
00000030: 7570 f3bb be22 4abc 7853 21bf 3cc3 f7be

ip f4 [16, 16]
-0.017132465 -0.008001176 -0.122401424 0.0556832 0.04586635 -0.104845256 0.03604251 0.1123013
0.03210817 0.06047395 -0.030330585 0.05510783 0.060107596 0.20313519 0.010731285 -0.040848732
-0.029848345 -0.03962359 -0.24913773 0.12838839 0.09266154 -0.22335495 0.08778363 0.09524978
0.09944968 0.10478133 -0.065947436 0.09154055 0.034567237 0.3612523 0.0026872302 -0.035974137
-0.026095167 -0.02410573 -0.17345455 0.11061809 0.07831251 -0.15460843 0.07186742 0.1185505
0.074536346 0.09247504 -0.037160814 0.079991795 0.05004414 0.25654787 0.007984616 -0.007520999
-0.043948837 -0.07308223 -0.33437803 0.2006728 0.13824727 -0.31575128 0.12985176 0.06262168
0.16775404 0.16301253 -0.089096695 0.13657306 -0.0118059935 0.4574318 -0.008391646 0.0139955
0.0142912455 0.041828595 -0.20950548 0.34253025 -0.017103858 -0.14743833 -0.036276307 0.12920026
0.3124595 0.14781485 0.1950167 0.2526263 -0.16409473 0.035243332 0.024637861 0.30119097
0.03568396 0.09874838 0.37065622 -0.12510237 -0.16282828 -0.025475005 -0.15530363 0.01719422
-0.04580835 0.046299014 0.2126547 0.122824885 -0.059280444 -0.26452854 0.028706456 0.25403523
0.0077809813 0.027673226 0.108760476 0.11982855 0.021713434 -0.17256492 0.036997844 0.03855816
0.07776184 0.0723911 0.09886163 0.07143424 -0.05378769 0.13471521 0.0071046557 0.18292275
0.007826816 0.03942609 0.08104833 0.016194608 0.023354573 -0.022385282 0.050942026 -0.018884853
0.12730919 0.091292575 0.12614733 0.07032132 -0.09261181 0.12470235 0.013727513 0.20996737
-0.049922 0.042242385 0.095639266 -0.20920166 -0.12750565 0.034556545 -0.060353063 -0.08938392
-0.014511976 0.1871441 -0.048777208 0.3534934 0.0044180695 -0.06498288 -0.044136614 0.29221123
-0.2736137 -0.4982538 0.06553866 0.041072994 0.06677452 -0.47107232 0.12773271 0.03950934
-0.309524 0.2901395 0.04255052 0.06137571 0.37562063 -0.4631081 0.08272024 0.2358546
0.044241264 0.12123441 0.5546143 -0.19504072 -0.046866514 0.49450204 -0.07806175 0.36309102
-0.15502518 0.10529603 0.17539105 0.0397972 0.11567125 -0.40796664 0.015532014 0.24748969
-0.033703543 -0.1452715 -0.21504976 0.19827801 0.119572826 -0.33715475 0.14650041 -0.03664131
0.1221542 0.40576267 -0.34613553 0.43893006 -0.16208921 0.02116854 -0.059155397 0.5380875
0.030573037 0.1668908 0.16585578 -0.2656508 -0.24235329 0.22351293 -0.15211809 0.48951927
-0.18048798 -0.27653068 0.28772557 -0.20572183 0.32938236 0.07029536 0.10993625 -0.2505442
0.032182924 0.1610794 0.6997862 -0.8460651 -0.53130597 0.64651126 -0.56133175 0.20003381
-0.3316239 -0.115301 0.08960295 -0.071084484 0.4142632 -0.7055274 0.045607187 -0.33362553
0.008410524 0.047452535 0.17456278 -0.03813362 -0.10714259 0.17369781 -0.0378646 -0.5208296
-0.025438266 -0.18021394 0.052445706 0.14067025 -0.06850231 -0.123689346 -0.07134541 0.22058876
-0.19573359 -0.18966432 -0.4427706 -0.51270914 -0.20484397 -0.23747006 -0.21994635 0.18158059
-0.40453434 -0.07605024 0.0697596 0.13310334 -0.1900987 -0.019923493 0.06666045 -0.03813505
00000000: 6259 8cbc 5d17 03bc 99ad fabd 1114 643d
00000010: 5bde 3b3d 1cb9 d6bd 50a1 133d 39fe e53d
00000020: db83 033d 88b3 773d d977 f8bc bfb8 613d
00000030: 6233 763d ac02 503e 46d2 2f3c 0051 27bd
00000040: 8484 f4bc 584c 22bd f61d 7fbe 3f78 033e
00000050: 55c5 bd3d 29b7 64be e7c7 b33d 5112 c33d
00000060: 46ac cb3d 9897 d63d 730f 87bd 9d79 bb3d
00000070: 6096 0d3d 10f6 b83e 3e1c 303b 9e59 13bd
00000080: 88c5 d5bc 6179 c5bc 129e 31be bd8b e23d
00000090: 4f62 a03d ac51 1ebe 3a2f 933d 9bca f23d
000000a0: 83a6 983d 8e63 bd3d f035 18bd bdd2 a33d
000000b0: 16fb 4c3d 3e5a 833e e8d1 023c b672 f6bb
000000c0: b203 34bd 23ac 95bd 9933 abbe 2c7d 4d3e
000000d0: b190 0d3e 27aa a1be dcf7 043e cc3f 803d
000000e0: b7c7 2b3e c2ec 263e 5478 b6bd cfd9 0b3e
000000f0: ed6d 41bc 8034 ea3e 1d7d 09bc 624d 653c
00000100: d425 6a3c 7654 2b3d 9b88 56be 2060 af3e
00000110: 641d 8cbc 13fa 16be 7796 14bd 134d 043e
00000120: b1fa 9f3e c75c 173e 75b2 473e 3c58 813e
00000130: 7308 28be 505b 103d 57d5 c93c b435 9a3e
00000140: 5829 123d 973c ca3d a7c6 bd3e d61a 00be
00000150: 75bc 26be f5b0 d0bc ea07 1fbe e5da 8c3c
00000160: 89a1 3bbd 09a4 3d3d 27c2 593e 9d8b fb3d
00000170: 0dd0 72bd 4970 87be cd29 eb3c e810 823e
00000180: 9af7 fe3b f6b2 e23c d0bd de3d ac68 f53d
00000190: 5fe0 b13c dcb4 30be 0d8b 173d 29ef 1d3d
000001a0: 9941 9f3d c941 943d f777 ca3d 1d4c 923d
000001b0: 7b50 5cbd c9f2 093e 2cce e83b 1a50 3b3e
000001c0: 0c3c 003c 407d 213d abfc a53d 8eaa 843c
000001d0: 1752 bf3c 5761 b7bc 96a8 503d 68b4 9abc
000001e0: 575d 023e 9af7 ba3d c42c 013e a004 903d
000001f0: 43ab bdbd f263 ff3d 5de9 603c b001 573e
00000200: 037b 4cbd 5a06 2d3d 85de c33d f638 56be
00000210: d790 02be 2a8b 0d3d c634 77bd eb0e b7bd
00000220: a4c3 6dbc b4a2 3f3e 9cca 47bd 16fd b43e
00000230: 74c5 903b bf15 85bd 98c8 34bd b69c 953e
00000240: 1817 8cbe 1f1b ffbe 2239 863d 283c 283d
00000250: 14c1 883d 6430 f1be 5dcc 023e 8cd4 213d
00000260: ee79 9ebe 2a8d 943e 7449 2e3d 1965 7b3d
00000270: 5951 c03e 811c edbe 3b69 a93d de83 713e
00000280: 5436 353d bf49 f83d 34fb 0d3f c1b8 47be
00000290: 1af7 3fbd 5f2f fd3e d7de 9fbd 11e7 b93e
000002a0: ecbe 1ebe 72a5 d73d b699 333e 6402 233d
000002b0: 0ce5 ec3d 01e1 d0be fd79 7e3c f06d 7d3e
000002c0: ba0c 0abd 0dc2 14be 0136 5cbe 6409 4b3e
000002d0: 99e2 f43d 8c9f acbe 3404 163e 3315 16bd
000002e0: fb2b fa3d 20c0 cf3e ad38 b1be 71bb e03e
000002f0: b7fa 25be a569 ad3c ee4c 72bd 1ac0 093f
00000300: 4e74 fa3c 6ce5 2a3e 19d6 293e 6203 88be
00000310: 762b 78be 93e0 643e d8c4 1bbe 45a2 fa3e
00000320: d7d1 38be 6e95 8dbe c450 933e bea8 52be
00000330: cea4 a83e 04f7 8f3d 4226 e13d 5447 80be
00000340: 3ed2 033d 00f2 243e 3025 333f b997 58bf
00000350: ab03 08bf c381 253f 70b3 0fbf aad5 4c3e
00000360: 9cca a9be ee22 ecbd c081 b73d be94 91bd
00000370: 4e1a d43e 729d 34bf 9ace 3a3d f7d0 aabe
00000380: 4bcc 093c 975d 423d 96c0 323e 0032 1cbd
00000390: 936d dbbd d7dd 313e e917 1bbd 1755 05bf
000003a0: e963 d0bc 018a 38be 4fd1 563d dd0b 103e
000003b0: f04a 8cbd d750 fdbd 8b1d 92bd 05e2 613e
000003c0: 636e 48be 5d37 42be d4b2 e2be e840 03bf
000003d0: 9ec2 51be 5a2b 73be 9e39 61be 43f0 393e
000003e0: 201f cfbe 3ac0 9bbd 1fde 8e3d 3e4c 083e
000003f0: 3ca9 42be 9836 a3bc 4685 883d 8033 1cbd

ox f4 [2]
-0.4137309 0.015784074
00000000: 89d4 d3be 9a4d 813c

pt f4 [8, 1]
-2.6734455 -3.2127063 -2.3721604 -2.9803967 3.8124614 3.5287569 3.2098286 3.2101307
00000000: bb19 2bc0 fb9c 4dc0 7ad1 17c0 d2be 3ec0
00000010: 5eff 7340 27d7 6140 d56d 4d40 c872 4d40

12 f4 [14, 8]
0.52379644 0.2716566 0.71464765 0.6933104 0.6529544 0.6513656 1.1629783 0.7586109
0.7159875 0.3035368 0.35661238 0.62881184 0.9312001 0.21515425 0.82120955 0.22358961
0.54219246 0.25832075 0.6123045 0.4149758 0.7701755 0.97859675 0.6612626 0.9748463
0.70791596 0.3272145 0.89206123 0.47740024 0.6205826 0.5282778 0.4993466 0.13796641
0.42816952 0.57089466 0.57355744 0.6801072 0.89886296 0.4543456 0.47500253 0.33375052
0.8971611 0.74332076 0.599732 0.8051339 0.52128446 0.6905185 0.8477296 1.0146593
0.45531166 0.7753989 0.28168175 0.6007549 0.47378275 0.6582259 0.149411 0.8196476
0.78388083 0.6454379 0.56453127 0.8669808 0.6261806 0.62104946 0.75326884 0.50465745
0.46694317 0.491877 0.6541504 0.6714204 0.83654106 0.5073245 0.58611816 0.7015728
0.62732786 0.7613168 0.4689794 0.62384486 0.3877878 0.27447546 0.7088478 0.7640488
0.54280794 0.7645684 0.6998998 0.43656868 0.2806657 0.5823687 0.570744 0.48634169
0.8790004 0.592434 0.85856056 0.750137 0.5333898 0.80740947 0.7078186 0.84021485
0.6558842 0.55887866 0.7758029 0.6832211 0.30317456 0.17040333 0.42867512 0.4188587
0.12059345 0.15856756 0.67375165 0.58588964 0.17223723 0.47976604 0.73328394 0.9655062
00000000: 8617 063f 9316 8b3e 26f3 363f ca7c 313f
00000010: 0528 273f e5bf 263f 79dc 943f 5334 423f
00000020: f54a 373f 2d69 9b3e e695 b63e d0f9 203f
00000030: 2163 6e3f 6551 5c3e ca3a 523f adf4 643e
00000040: 20cd 0a3f 9e42 843e fdbf 1c3f b577 d43e
00000050: 392a 453f 5185 7a3f 8148 293f 878f 793f
00000060: fb39 353f a988 a73e 205e 643f ce6d f43e
00000070: 80de 1e3f 373d 073f 5caa ff3e 1147 0d3e
00000080: 0939 db3e 2726 123f a9d4 123f 811b 2e3f
00000090: e21b 663f fd9f e83e 8833 f33e 59e1 aa3e
000000a0: 5aac 653f 454a 3e3f 0988 193f 411d 4e3f
000000b0: e672 053f d2c5 303f cf04 593f 5be0 813f
000000c0: 9c1e e93e 8b80 463f 9738 903e 13cb 193f
000000d0: a793 f23e 7e81 283f 32ff 183e 6dd4 513f
000000e0: 6aac 483f 6b3b 253f 1f85 103f 74f2 5d3f
000000f0: 5f4d 203f 19fd 1e3f 3ad6 403f 3b31 013f
00000100: 2d13 ef3e 4dd7 fb3e 6776 273f 35e2 2b3f
00000110: 8e27 563f 05e0 013f d70b 163f 469a 333f
00000120: 8f98 203f a8e5 423f 111e f03e 4cb4 1f3f
00000130: 1f8c c63e 0c88 8c3e 0d77 353f b498 433f
00000140: 76f5 0a3f c1ba 433f a22c 333f ee85 df3e
00000150: 6ab3 8f3e 1d16 153f 471c 123f c701 f93e
00000160: 2c06 613f c1a9 173f a0ca 5b3f fa08 403f
00000170: 3c8c 083f 63b2 4e3f 9a33 353f 5218 573f
00000180: 07e8 273f ac12 0f3f 059b 463f 94e7 2e3f
00000190: b239 9b3e 367e 2e3e 4e7b db3e a674 d63e
000001a0: b3f9 f63d 895f 223e fd7a 2c3f ddfc 153f
000001b0: f55e 303e e5a3 f53e 7fb8 3b3f 6a2b 773f

xs f8 []
96.0
00000000: 0000 0000 0000 5840

cc f4 [202, 14]
4.38054 -1.615987 -0.52316725 -3.4306526 0.9039426 3.633796 -0.01704471 -2.3273225
2.4508083 -5.316292 1.0824646 -0.65004474 4.489382 -3.9995604 4.7173815 -1.0375241
-0.23424755 -3.1443396 -0.115298085 2.494677 0.7306766 -2.3637896 3.2631419 -5.0107403
1.2862912 -0.6523803 3.5587378 -4.0552278 0.49864084 -0.06551647 0.18894508 0.07061323
-1.4305769 0.0030578729 0.50634927 0.5006113 2.8921225 -0.92071754 0.49338752 -1.0772908
0.015654707 -0.74669814 1.3089731 -0.7992388 -0.110865034 0.019669784 -1.2236606 -0.07651635
0.63721395 0.45897797 1.835833 -0.66616625 0.022362988 -0.8518397 1.2525218 -1.2940364
-8.647897 2.4933698 1.7028629 6.798442 -1.779225 -6.5740747 0.26096871 5.4859476
-1.7328542 9.394612 -1.9583267 -0.1988577 -7.733594 6.9717965 -5.476107 1.6372039
0.98403794 4.270229 -1.2431598 -4.125071 0.2337421 3.4483962 -0.20876476 5.719993
-1.1470263 -0.085422575 -5.114946 4.301742 0.86372787 -0.36763138 0.020981824 -0.7338817
-0.31281483 0.6778993 0.15470228 -0.105673194 1.3552352 -1.4928405 0.5158689 -0.48654145
1.3952014 -1.0617927 1.5839177 -0.5694722 0.3422754 -1.3686408 0.23028989 0.9888843
-0.00073876476 -0.6381623 1.96438 -1.9506353 0.51705223 -0.33933344 1.2305274 -1.7391957
-2.2664948 0.17421865 0.37920472 2.783632 -2.1504252 -2.9100718 0.6204425 2.8298848
1.0638182 3.3740819 -0.8502907 -0.7289567 -2.00401 1.6283506 0.7123036 0.008025454
0.091854155 -0.6943493 -0.43621203 0.6428346 0.20183066 -0.3022158 2.3600304 -1.6028025
0.68559515 -0.41006804 0.33274412 -0.95081294 3.1573002 -0.6363442 0.33653966 -2.8793538
0.67584884 1.8444813 0.1702653 -1.8032067 2.0520403 -3.8264718 1.0940204 -0.23420292
2.825834 -2.9502163 3.9637928 -0.54718363 0.32037973 -4.502309 1.6197165 3.0582492
-0.18312578 -2.943566 1.8939793 -5.713668 1.8009728 0.19894387 4.076541 -3.7294323
2.5223384 -0.55100465 -0.46742833 -1.7466183 -0.825256 2.293794 0.3063421 -1.2122684
3.8863032 -3.8737948 1.2652336 -0.9018073 1.6544341 -2.4913743 -1.6247239 0.36812013
0.7281135 1.5382805 -1.1920371 -1.6532407 0.3045261 1.7334968 1.5404265 1.7329963
-0.25737414 -0.78103286 -1.6867906 0.9933189 2.8735912 -0.8761513 -0.5666635 -2.4126384
-0.0701985 3.6961908 -0.20849063 -1.8054338 4.011689 -4.9748507 1.4942979 -0.9849307
2.1577349 -2.9655786 -10.705358 3.0731213 1.8421054 7.3619866 -2.0653815 -7.5890794
-0.29650715 6.670589 -1.4996549 10.683707 -1.9763365 0.23050445 -9.066315 8.327265
8.807102 -2.411753 -0.8247288 -7.4993014 0.9318469 5.976154 0.038899865 -4.7733936
4.243534 -10.457996 2.78466 -0.31321812 8.543474 -7.868117 0.8777891 -0.26145652
0.12568246 -0.2897065 -0.45056683 -0.34834465 0.58248544 0.065068595 0.80304825 -0.5509361
0.14310552 -0.24694231 1.1344601 -0.84466505 -2.0652502 0.43488312 0.90675986 2.2847
00000000: 622d 8c40 a9d8 cebf 4aee 05bf d08f 5bc0
00000010: c868 673f 1d90 6840 59a1 8bbc daf2 14c0
00000020: 0bda 1c40 101f aac0 338e 8a3f 5569 26bf
00000030: 04a9 8f40 ccf8 7fc0 caf4 9640 97cd 84bf
00000040: 97de 6fbe dc3c 49c0 6721 ecbd caa8 1f40
00000050: 9f0d 3b3f 5448 17c0 51d7 5040 fc57 a0c0
00000060: 31a5 a43f 6502 27bf 5cc2 6340 6dc4 81c0
00000070: da4d ff3e 802d 86bd d27a 413e ab9d 903d
00000080: 251d b7bf 9866 483b 1ba0 013f 1028 003f
00000090: 8918 3940 25b4 6bbf 4a9d fc3e aae4 89bf
000000a0: 4d3e 803c 9c27 3fbf 6e8c a73f ea9a 4cbf
000000b0: 350d e3bd 8722 a13c e9a0 9cbf 9bb4 9cbd
000000c0: 7420 233f 29ff ea3e 93fc ea3f df89 2abf
000000d0: 9632 b73c 2b12 5abf a252 a03f fca2 a5bf
000000e0: c95d 0ac1 5f93 1f40 69f7 d93f d68c d940
000000f0: a5bd e3bf d25e d2c0 b19d 853e e28c af40
00000100: 2bce ddbf 5550 1641 73aa fabf 5aa1 4bbe
00000110: 9a79 f7c0 f518 df40 453c afc0 e68f d13f
00000120: e9e9 7b3f b7a5 8840 dc1f 9fbf 9500 84c0
00000130: 175a 6f3e 86b2 5c40 6ec6 55be 2f0a b740
00000140: c2d1 92bf 08f2 aebd a3ad a3c0 dfa7 8940
00000150: 451d 5d3f 2e3a bcbe 13e2 ab3c acdf 3bbf
00000160: 4429 a0be cf8a 2d3f 466a 1e3e 306b d8bd
00000170: 5978 ad3f 6615 bfbf fc0f 043f f61b f9be
00000180: f695 b23f d3e8 87bf d1bd ca3f eec8 11bf
00000190: b93e af3e 9f2f afbf 1dd1 6b3e 8627 7d3f
000001a0: aaa9 41ba 9b5e 23bf ce70 fb3f 6bae f9bf
000001b0: 895d 043f 1dbd adbe ec81 9d3f f79d debf
000001c0: 400e 11c0 6066 323e 1f27 c23e 0727 3240
000001d0: 91a0 09c0 9e3e 3ac0 52d5 1e3f d51c 3540
000001e0: 322b 883f f5f0 5740 a7ac 59bf e89c 3abf
000001f0: b341 00c0 cb6d d03f 8759 363f 327d 033c
00000200: 081e bc3d e0c0 31bf 2f57 dfbe cf90 243f
00000210: b2ac 4e3e 08bc 9abe bd0a 1740 a228 cdbf
00000220: 2a83 2f3f 70f4 d1be 705d aa3e 7a68 73bf
00000230: 3511 4a40 74e7 22bf ed4e ac3e 5547 38c0
00000240: 6e04 2d3f f717 ec3f 075a 2e3e 7acf e6bf
00000250: a154 0340 eae4 74c0 dc08 8c3f e4d2 6fbe
00000260: 77da 3440 58d0 3cc0 c8ae 7d40 3a14 0cbf
00000270: d008 a43e ea12 90c0 df52 cf3f 5bba 4340
00000280: 5385 3bbe 6363 3cc0 ea6d f23f 5ed6 b6c0
00000290: 4786 e63f f1b7 4b3e 0673 8240 05af 6ec0
000002a0: fe6d 2140 a40e 0dbf c452 efbe 3091 dfbf
000002b0: fa43 53bf 85cd 1240 dfd8 9c3e 9c2b 9bbf
000002c0: 31b9 7840 41ec 77c0 2df3 a13f d8dc 66bf
000002d0: 7fc4 d33f ad72 1fc0 f4f6 cfbf 3e7a bc3e
000002e0: a565 3a3f 60e6 c43f ac94 98bf 649d d3bf
000002f0: d8ea 9b3e 39e3 dd3f b22c c53f d3d2 dd3f
00000300: 8bc6 83be c5f1 47bf c1e8 d7bf 264a 7e3f
00000310: ebe8 3740 744b 60bf dc10 11bf ab68 1ac0
00000320: 3bc4 8fbd 648e 6c40 917e 55be 7418 e7bf
00000330: c25f 8040 fa31 9fc0 2745 bf3f 6b24 7cbf
00000340: 5418 0a40 0acc 3dc0 2549 2bc1 05ae 4440
00000350: 1cca eb3f 6595 eb40 362f 04c0 bdd9 f2c0
00000360: c9cf 97be 7775 d540 b1f4 bfbf 77f0 2a41
00000370: 98f8 fcbf 5c09 6c3e a00f 11c1 7a3c 0541
00000380: e4e9 0c41 295a 1ac0 6d21 53bf 47fa efc0
00000390: 858d 6e3f a73c bf40 7755 1f3d a4bf 98c0
000003a0: 08cb 8740 f453 27c1 df37 3240 205e a0be
000003b0: 12b2 0841 9dc7 fbc0 c9b6 603f a1dd 85be
000003c0: e7b2 003e 6954 94be b2b0 e6be 3b5a b2be
000003d0: c41d 153f af42 853d 9294 4d3f 260a 0dbf
000003e0: 418a 123e 72de 7cbe fd35 913f f83b 58bf
000003f0: 0f2d 04c0 00a9 de3e 6a21 683f 8638 1240

pf f4 [8]
1.883966 0.208057 1.1416382 0.45350164 0.48842633 0.21421106 -0.66944253 -0.0751506
00000000: cc25 f13f e50c 553e 3321 923f 5e31 e83e
00000010: 0413 fa3e 255a 5b3e 9660 2bbf 8fe8 99bd

9o f4 [16, 1]
-0.8204373 -2.0925922 -1.2787335 -2.731993 -1.0928973 0.58285195 -0.7949782 -0.37161535
-0.44751856 0.3471172 0.6979875 1.5606949 1.7665437 0.75085217 1.7757413 1.7912298
00000000: 2e08 52bf 08ed 05c0 8aad a3bf f9d8 2ec0
00000010: 0fe4 8bbf c935 153f b183 4bbf 5e44 bebe
00000020: 2721 e5be 58b9 b13e 4faf 323f dac4 c73f
00000030: 1b1e e23f d937 403f 7e4b e33f 0547 e53f
