Vogen.Synth/models/f0.yue.onnx (onnx, 27067 bytes, 18 tensors)

as f4 [8, 1]
0	0xc02b19bb	-2.6734455
1	0xc04d9cfb	-3.2127063
2	0xc017d17a	-2.3721604
3	0xc03ebed2	-2.9803967
4	0x4073ff5e	3.8124614
5	0x4061d727	3.5287569
6	0x404d6dd5	3.2098286
7	0x404d72c8	3.2101307

20 f4 [8]
0	0x3ff125cc	1.883966
1	0x3e550ce5	0.208057
2	0x3f922133	1.1416382
3	0x3ee8315e	0.45350164
4	0x3efa1304	0.48842633
5	0x3e5b5a25	0.21421106
6	0xbf2b6096	-0.66944253
7	0xbd99e88f	-0.0751506

az f4 [16, 1]
0	0xbf52082e	-0.8204373
1	0xc005ed08	-2.0925922
2	0xbfa3ad8a	-1.2787335
3	0xc02ed8f9	-2.731993
4	0xbf8be40f	-1.0928973
5	0x3f1535c9	0.58285195
6	0xbf4b83b1	-0.7949782
7	0xbebe445e	-0.37161535
8	0xbee52127	-0.44751856
9	0x3eb1b958	0.3471172
10	0x3f32af4f	0.6979875
11	0x3fc7c4da	1.5606949
12	0x3fe21e1b	1.7665437
13	0x3f4037d9	0.75085217
14	0x3fe34b7e	1.7757413
15	0x3fe54705	1.7912298

z f4 [16]
0	0x00000000	0.0
1	0x3d800000	0.0625
2	0x3e000000	0.125
3	0x3e400000	0.1875
4	0x3e800000	0.25
5	0x3ea00000	0.3125
6	0x3ec00000	0.375
7	0x3ee00000	0.4375
8	0x3f000000	0.5
9	0x3f100000	0.5625
10	0x3f200000	0.625
11	0x3f300000	0.6875
12	0x3f400000	0.75
13	0x3f500000	0.8125
14	0x3f600000	0.875
15	0x3f700000	0.9375

qm f4 [16, 16]
0	0xbc8c5962	-0.017132465
1	0xbc03175d	-0.008001176
2	0xbdfaad99	-0.122401424
3	0x3d641411	0.0556832
4	0x3d3bde5b	0.04586635
5	0xbdd6b91c	-0.104845256
6	0x3d13a150	0.03604251
7	0x3de5fe39	0.1123013
8	0x3d0383db	0.03210817
9	0x3d77b388	0.06047395
10	0xbcf877d9	-0.030330585
11	0x3d61b8bf	0.05510783
12	0x3d763362	0.060107596
13	0x3e5002ac	0.20313519
14	0x3c2fd246	0.010731285
15	0xbd275100	-0.040848732
16	0xbcf48484	-0.029848345
17	0xbd224c58	-0.03962359
18	0xbe7f1df6	-0.24913773
19	0x3e03783f	0.12838839
20	0x3dbdc555	0.09266154
21	0xbe64b729	-0.22335495
22	0x3db3c7e7	0.08778363
23	0x3dc31251	0.09524978
24	0x3dcbac46	0.09944968
25	0x3dd69798	0.10478133
26	0xbd870f73	-0.065947436
27	0x3dbb799d	0.09154055
28	0x3d0d9660	0.034567237
29	0x3eb8f610	0.3612523
30	0x3b301c3e	0.0026872302
31	0xbd13599e	-0.035974137
32	0xbcd5c588	-0.026095167
33	0xbcc57961	-0.02410573
34	0xbe319e12	-0.17345455
35	0x3de28bbd	0.11061809
36	0x3da0624f	0.07831251
37	0xbe1e51ac	-0.15460843
38	0x3d932f3a	0.07186742
39	0x3df2ca9b	0.1185505
40	0x3d98a683	0.074536346
41	0x3dbd638e	0.09247504
42	0xbd1835f0	-0.037160814
43	0x3da3d2bd	0.079991795
44	0x3d4cfb16	0.05004414
45	0x3e835a3e	0.25654787
46	0x3c02d1e8	0.007984616
47	0xbbf672b6	-0.007520999
48	0xbd3403b2	-0.043948837
49	0xbd95ac23	-0.07308223
50	0xbeab3399	-0.33437803
51	0x3e4d7d2c	0.2006728
52	0x3e0d90b1	0.13824727
53	0xbea1aa27	-0.31575128
54	0x3e04f7dc	0.12985176
55	0x3d803fcc	0.06262168
56	0x3e2bc7b7	0.16775404
57	0x3e26ecc2	0.16301253
58	0xbdb67854	-0.089096695
59	0x3e0bd9cf	0.13657306
60	0xbc416ded	-0.0118059935
61	0x3eea3480	0.4574318
62	0xbc097d1d	-0.008391646
63	0x3c654d62	0.0139955
64	0x3c6a25d4	0.0142912455
65	0x3d2b5476	0.041828595
66	0xbe56889b	-0.20950548
67	0x3eaf6020	0.34253025
68	0xbc8c1d64	-0.017103858
69	0xbe16fa13	-0.14743833
70	0xbd149677	-0.036276307
71	0x3e044d13	0.12920026
72	0x3e9ffab1	0.3124595
73	0x3e175cc7	0.14781485
74	0x3e47b275	0.1950167
75	0x3e81583c	0.2526263
76	0xbe280873	-0.16409473
77	0x3d105b50	0.035243332
78	0x3cc9d557	0.024637861
79	0x3e9a35b4	0.30119097
80	0x3d122958	0.03568396
81	0x3dca3c97	0.09874838
82	0x3ebdc6a7	0.37065622
83	0xbe001ad6	-0.12510237
84	0xbe26bc75	-0.16282828
85	0xbcd0b0f5	-0.025475005
86	0xbe1f07ea	-0.15530363
87	0x3c8cdae5	0.01719422
88	0xbd3ba189	-0.04580835
89	0x3d3da409	0.046299014
90	0x3e59c227	0.2126547
91	0x3dfb8b9d	0.122824885
92	0xbd72d00d	-0.059280444
93	0xbe877049	-0.26452854
94	0x3ceb29cd	0.028706456
95	0x3e8210e8	0.25403523
96	0x3bfef79a	0.0077809813
97	0x3ce2b2f6	0.027673226
98	0x3ddebdd0	0.108760476
99	0x3df568ac	0.11982855
100	0x3cb1e05f	0.021713434
101	0xbe30b4dc	-0.17256492
102	0x3d178b0d	0.036997844
103	0x3d1def29	0.03855816
104	0x3d9f4199	0.07776184
105	0x3d9441c9	0.0723911
106	0x3dca77f7	0.09886163
107	0x3d924c1d	0.07143424
108	0xbd5c507b	-0.05378769
109	0x3e09f2c9	0.13471521
110	0x3be8ce2c	0.0071046557
111	0x3e3b501a	0.18292275
112	0x3c003c0c	0.007826816
113	0x3d217d40	0.03942609
114	0x3da5fcab	0.08104833
115	0x3c84aa8e	0.016194608
116	0x3cbf5217	0.023354573
117	0xbcb76157	-0.022385282
118	0x3d50a896	0.050942026
119	0xbc9ab468	-0.018884853
120	0x3e025d57	0.12730919
121	0x3dbaf79a	0.091292575
122	0x3e012cc4	0.12614733
123	0x3d9004a0	0.07032132
124	0xbdbdab43	-0.09261181
125	0x3dff63f2	0.12470235
126	0x3c60e95d	0.013727513
127	0x3e5701b0	0.20996737
128	0xbd4c7b03	-0.049922
129	0x3d2d065a	0.042242385
130	0x3dc3de85	0.095639266
131	0xbe5638f6	-0.20920166
132	0xbe0290d7	-0.12750565
133	0x3d0d8b2a	0.034556545
134	0xbd7734c6	-0.060353063
135	0xbdb70eeb	-0.08938392
136	0xbc6dc3a4	-0.014511976
137	0x3e3fa2b4	0.1871441
138	0xbd47ca9c	-0.048777208
139	0x3eb4fd16	0.3534934
140	0x3b90c574	0.0044180695
141	0xbd8515bf	-0.06498288
142	0xbd34c898	-0.044136614
143	0x3e959cb6	0.29221123
144	0xbe8c1718	-0.2736137
145	0xbeff1b1f	-0.4982538
146	0x3d863922	0.06553866
147	0x3d283c28	0.041072994
148	0x3d88c114	0.06677452
149	0xbef13064	-0.47107232
150	0x3e02cc5d	0.12773271
151	0x3d21d48c	0.03950934
152	0xbe9e79ee	-0.309524
153	0x3e948d2a	0.2901395
154	0x3d2e4974	0.04255052
155	0x3d7b6519	0.06137571
156	0x3ec05159	0.37562063
157	0xbeed1c81	-0.4631081
158	0x3da9693b	0.08272024
159	0x3e7183de	0.2358546
160	0x3d353654	0.044241264
161	0x3df849bf	0.12123441
162	0x3f0dfb34	0.5546143
163	0xbe47b8c1	-0.19504072
164	0xbd3ff71a	-0.046866514
165	0x3efd2f5f	0.49450204
166	0xbd9fded7	-0.07806175
167	0x3eb9e711	0.36309102
168	0xbe1ebeec	-0.15502518
169	0x3dd7a572	0.10529603
170	0x3e3399b6	0.17539105
171	0x3d230264	0.0397972
172	0x3dece50c	0.11567125
173	0xbed0e101	-0.40796664
174	0x3c7e79fd	0.015532014
175	0x3e7d6df0	0.24748969
176	0xbd0a0cba	-0.033703543
177	0xbe14c20d	-0.1452715
178	0xbe5c3601	-0.21504976
179	0x3e4b0964	0.19827801
180	0x3df4e299	0.119572826
181	0xbeac9f8c	-0.33715475
182	0x3e160434	0.14650041
183	0xbd161533	-0.03664131
184	0x3dfa2bfb	0.1221542
185	0x3ecfc020	0.40576267
186	0xbeb138ad	-0.34613553
187	0x3ee0bb71	0.43893006
188	0xbe25fab7	-0.16208921
189	0x3cad69a5	0.02116854
190	0xbd724cee	-0.059155397
191	0x3f09c01a	0.5380875
192	0x3cfa744e	0.030573037
193	0x3e2ae56c	0.1668908
194	0x3e29d619	0.16585578
195	0xbe880362	-0.2656508
196	0xbe782b76	-0.24235329
197	0x3e64e093	0.22351293
198	0xbe1bc4d8	-0.15211809
199	0x3efaa245	0.48951927
200	0xbe38d1d7	-0.18048798
201	0xbe8d956e	-0.27653068
202	0x3e9350c4	0.28772557
203	0xbe52a8be	-0.20572183
204	0x3ea8a4ce	0.32938236
205	0x3d8ff704	0.07029536
206	0x3de12642	0.10993625
207	0xbe804754	-0.2505442
208	0x3d03d23e	0.032182924
209	0x3e24f200	0.1610794
210	0x3f332530	0.6997862
211	0xbf5897b9	-0.8460651
212	0xbf0803ab	-0.53130597
213	0x3f2581c3	0.64651126
214	0xbf0fb370	-0.56133175
215	0x3e4cd5aa	0.20003381
216	0xbea9ca9c	-0.3316239
217	0xbdec22ee	-0.115301
218	0x3db781c0	0.08960295
219	0xbd9194be	-0.071084484
220	0x3ed41a4e	0.4142632
221	0xbf349d72	-0.7055274
222	0x3d3ace9a	0.045607187
223	0xbeaad0f7	-0.33362553
224	0x3c09cc4b	0.008410524
225	0x3d425d97	0.047452535
226	0x3e32c096	0.17456278
227	0xbd1c3200	-0.03813362
228	0xbddb6d93	-0.10714259
229	0x3e31ddd7	0.17369781
230	0xbd1b17e9	-0.0378646
231	0xbf055517	-0.5208296
232	0xbcd063e9	-0.025438266
233	0xbe388a01	-0.18021394
234	0x3d56d14f	0.052445706
235	0x3e100bdd	0.14067025
236	0xbd8c4af0	-0.06850231
237	0xbdfd50d7	-0.123689346
238	0xbd921d8b	-0.07134541
239	0x3e61e205	0.22058876
240	0xbe486e63	-0.19573359
241	0xbe42375d	-0.18966432
242	0xbee2b2d4	-0.4427706
243	0xbf0340e8	-0.51270914
244	0xbe51c29e	-0.20484397
245	0xbe732b5a	-0.23747006
246	0xbe61399e	-0.21994635
247	0x3e39f043	0.18158059
248	0xbecf1f20	-0.40453434
249	0xbd9bc03a	-0.07605024
250	0x3d8ede1f	0.0697596
251	0x3e084c3e	0.13310334
252	0xbe42a93c	-0.1900987
253	0xbca33698	-0.019923493
254	0x3d888546	0.06666045
255	0xbd1c3380	-0.03813505

19 f8 []
0	0x4044000000000000	40.0

2r f4 [24]
0	0x00000000	0.0
1	0x00000000	0.0
2	0x00000000	0.0
3	0x00000000	0.0
4	0x00000000	0.0
5	0x00000000	0.0
6	0x00000000	0.0
7	0x00000000	0.0
8	0x00000000	0.0
9	0x00000000	0.0
10	0x00000000	0.0
11	0x00000000	0.0
12	0x00000000	0.0
13	0x00000000	0.0
14	0x00000000	0.0
15	0x00000000	0.0
16	0x3f800000	1.0
17	0x3f800000	1.0
18	0x3f800000	1.0
19	0x3f800000	1.0
20	0x3f800000	1.0
21	0x3f800000	1.0
22	0x3f800000	1.0
23	0x3f800000	1.0

00 f4 [2]
0	0xbed3d489	-0.4137309
1	0x3c814d9a	0.015784074

x7 f4 [8]
0	0x00000000	0.0
1	0x3e000000	0.125
2	0x3e800000	0.25
3	0x3ec00000	0.375
4	0x3f000000	0.5
5	0x3f200000	0.625
6	0x3f400000	0.75
7	0x3f600000	0.875

go f4 [8, 2]
0	0xbf353a0b	-0.7079169
1	0x3eb18596	0.3467223
2	0x3f33bd9c	0.70211196
3	0x3f5e35e6	0.8680099
4	0xbf1e89f3	-0.61929244
5	0x3e11e2b4	0.14246637
6	0x3f47ec02	0.78094494
7	0x3f0355c0	0.5130272
8	0xbe68699d	-0.22696538
9	0xbeaf692f	-0.34259936
10	0x3f7bec60	0.98407555
11	0x3f8b64b0	1.0890102
12	0xbbf37075	-0.0074291774
13	0xbc4a22be	-0.012337385
14	0xbf215378	-0.6301799
15	0xbef7c33c	-0.4839114

4i f8 []
0	0x4058000000000000	96.0

0g f4 [16, 1]
0	0x3fa7b94a	1.3103421
1	0x3fd01d8a	1.6259015
2	0x400922e2	2.142754
3	0x405704a5	3.3596585
4	0x400b7ab8	2.1793652
5	0xbf01e2dd	-0.5073679
6	0x3fd15c65	1.6356322
7	0x4026f750	2.6088448
8	0xbf37fd04	-0.71870446
9	0xbf93b270	-1.153883
10	0xbee54e43	-0.4478627
11	0xbf1b7fb2	-0.6074172
12	0xbff94d45	-1.9476706
13	0xc0128f4b	-2.289996
14	0xbfeafb16	-1.8357875
15	0xc008d26b	-2.137843

bx f4 [8]
0	0x00000000	0.0
1	0x3f800000	1.0
2	0x40000000	2.0
3	0x40400000	3.0
4	0x40800000	4.0
5	0x40a00000	5.0
6	0x40c00000	6.0
7	0x40e00000	7.0

9n f4 [16]
0	0xbe15598a	-0.14584938
1	0x3f036aa9	0.51334625
2	0x3e61cbc3	0.22050385
3	0xbd90727c	-0.07053086
4	0xbe06e665	-0.13173826
5	0x3da0d081	0.07852269
6	0x3d37256e	0.04471343
7	0x3ef8e9cc	0.48615873
8	0x3e86e08c	0.2634319
9	0x3ec4f83b	0.38470635
10	0x3dbe5b22	0.09294726
11	0x3ee82808	0.4534304
12	0x3eb00296	0.34376973
13	0x3c9ad70b	0.018901369
14	0x3ebd1692	0.36931282
15	0xbf258b98	-0.6466613

g f4 [202, 14]
0	0x3f0ef1e1	0.5583783
1	0xc02f9b8e	-2.7438693
2	0x403da083	2.9629219
3	0xc0e505de	-7.156966
4	0x41097fac	8.59367
5	0x4072b805	3.7924817
6	0xc06cd9cc	-3.7007933
7	0x3ff107d2	1.8830512
8	0xc0106cdc	-2.2566442
9	0x402dc3c4	2.7150736
10	0xc047db35	-3.1227543
11	0x408a721a	4.3264284
12	0x3fb9d287	1.4517373
13	0xc0d64543	-6.695955
14	0xbfaf97b3	-1.371817
15	0x40494281	3.144684
16	0xbeda4ca9	-0.42636612
17	0x4046337c	3.0968924
18	0xc0d825df	-6.754623
19	0xc028df3e	-2.6386256
20	0x406277da	3.5385652
21	0xbf8262ae	-1.0186365
22	0x402b6cc9	2.6785147
23	0xbfbc0a56	-1.4690654
24	0x40129650	2.2904243
25	0xc027201b	-2.6113346
26	0xbfe63c3f	-1.7987136
27	0x4094e457	4.6528735
28	0xbc0cf29e	-0.008602766
29	0xc042b3da	-3.0422273
30	0x3e74b822	0.23898366
31	0xc10f4253	-8.953692
32	0x414da5ae	12.852949
33	0x410292de	8.160856
34	0xc0edee10	-7.4353104
35	0x40780303	3.8751838
36	0xc0ac930d	-5.3929505
37	0x40e16041	7.0429997
38	0xc0b4784c	-5.6396847
39	0x40bee55b	5.9654975
40	0x409fb24d	4.990515
41	0xc14b62df	-12.711638
42	0x3ee1c425	0.4409496
43	0xc04c27d7	-3.1899316
44	0x3f810698	1.0080137
45	0xc0e63ad5	-7.1946816
46	0x41290ea5	10.566075
47	0x40bbf6ff	5.873901
48	0xc0a8d6a0	-5.2761993
49	0x405a1a72	3.407864
50	0xc08dacbe	-4.4273367
51	0x40bf2096	5.972728
52	0xc097bae2	-4.741563
53	0x40a07cfa	5.015256
54	0x407344b5	3.8010685
55	0xc12e0c89	-10.87806
56	0x3d9fe3f8	0.078071535
57	0xc0257658	-2.5853481
58	0x3fc7ccb6	1.5609348
59	0xc11cc3a1	-9.797761
60	0x4137993c	11.474911
61	0x40dc281c	6.879896
62	0xc0bc709c	-5.8887463
63	0x40701f8e	3.751926
64	0xc07be9e8	-3.9361515
65	0x40c0117a	6.0021334
66	0xc0a7ab4d	-5.2396607
67	0x40b31271	5.596001
68	0x4080aad3	4.0208526
69	0xc1355de3	-11.335422
70	0x3e7c0150	0.24609876
71	0xc059d241	-3.4034579
72	0x3e849355	0.25893655
73	0xc1338a13	-11.22121
74	0x416777a6	14.466711
75	0x411635f1	9.388169
76	0xc1046275	-8.274037
77	0x40a2b0ce	5.0840826
78	0xc0af3c69	-5.4761243
79	0x4105cbc8	8.362251
80	0xc0e055e1	-7.0104833
81	0x40d84d26	6.7594175
82	0x40c1e521	6.05922
83	0xc16d517a	-14.832392
84	0xbe3016c2	-0.17196181
85	0xc044706e	-3.0693622
86	0x3f9dd8ab	1.2331747
87	0xc13a3a55	-11.639241
88	0x4169e6d6	14.618856
89	0x4112f42a	9.18461
90	0xc1005d06	-8.022711
91	0x40976cb4	4.7320194
92	0xc0ba95a7	-5.830768
93	0x4105daf2	8.365953
94	0xc0d55119	-6.6661496
95	0x40e19387	7.0492587
96	0x40b363e4	5.6059437
97	0xc1726189	-15.148812
98	0xbf75824b	-0.95901936
99	0x3fb0f6ae	1.3825281
100	0xbe92e9a0	-0.28693867
101	0xc039f2c5	-2.9054425
102	0x3e145d8c	0.1448881
103	0x4023fcb2	2.5622983
104	0xbf9bda70	-1.2176037
105	0x3f995418	1.1978788
106	0x3f463ebc	0.77439475
107	0x3fd8f536	1.6949832
108	0xbf902ebe	-1.1264265
109	0x3f6af108	0.91774035
110	0x3f91333d	1.1343762
111	0xc015ae1f	-2.3387525
112	0x3e7b9dde	0.2457194
113	0xc02c5127	-2.6924531
114	0x3f853e1e	1.0409582
115	0xc1040170	-8.250351
116	0x4139c237	11.609916
117	0x40eae53e	7.3404837
118	0xc0e697af	-7.206016
119	0x40628846	3.5395675
120	0xc0999e4d	-4.800574
121	0x40bff7b9	5.9989896
122	0xc09f5ab8	-4.979824
123	0x40b1b143	5.5528884
124	0x4082cfde	4.0878744
125	0xc1381d99	-11.507226
126	0xbf66dfcb	-0.9018523
127	0xbf4a75f7	-0.7908625
128	0x3f4bbb66	0.7958282
129	0xc1095052	-8.582109
130	0x41054a1d	8.330594
131	0x40d5d91f	6.682754
132	0xc0a13032	-5.037133
133	0x4043e888	3.0610676
134	0xc032700d	-2.788089
135	0x40b0fb7b	5.5306983
136	0xc087b305	-4.240603
137	0x4094ef66	4.6542234
138	0x406b2515	3.6741383
139	0xc11e6812	-9.900408
140	0xbeec3024	-0.46130478
141	0x3e778d02	0.24174884
142	0x3ee10e62	0.43956286
143	0xc01c5dda	-2.4432282
144	0x3fc4f54e	1.5387361
145	0x3ff823a9	1.9385883
146	0xbf962476	-1.1729877
147	0x3fa5ad25	1.2943465
148	0xbed2e43d	-0.41189757
149	0x400eebe4	2.2331476
150	0xbfa84682	-1.3146517
151	0x3fa3d140	1.2798233
152	0x3f814301	1.0098573
153	0xc04e35f3	-3.2220428
154	0x3f3016b3	0.68784636
155	0xc06480f6	-3.5703712
156	0x3f5ed726	0.8704704
157	0xc0e22365	-7.0668206
158	0x41313c37	11.077201
159	0x40a443f4	5.133295
160	0xc09ce56e	-4.9030066
161	0x40427ffd	3.0390618
162	0xc087d5ac	-4.244833
163	0x409a9c60	4.8315887
164	0xc08e640f	-4.449714
165	0x40938b86	4.6107817
166	0x4056c361	3.355675
167	0xc10f04bb	-8.938655
168	0xbf0041ac	-0.5010021
169	0xbd2666d0	-0.040625393
170	0x3e98e689	0.29863384
171	0xc0351cf3	-2.829892
172	0x402c0c7e	2.6882625
173	0x400cc204	2.1993418
174	0xbfb4d1e4	-1.4126554
175	0x3fb54221	1.4160806
176	0xbf8c24ea	-1.0948765
177	0x401c36c4	2.4408426
178	0xbfc3e10b	-1.5303053
179	0x3fc47e13	1.5350975
180	0x3fa35349	1.2759792
181	0xc06b464e	-3.676166
182	0xbdb1c609	-0.0868035
183	0xbffcec93	-1.9759697
184	0x3f8fcfac	1.1235251
185	0xc0f29472	-7.580621
186	0x410a28b8	8.634941
187	0x40af9b8b	5.487737
188	0xc08c927f	-4.392883
189	0x403e611b	2.9746768
190	0xc039ec99	-2.9050658
191	0x40a1453b	5.039701
192	0xc084e25a	-4.152631
193	0x408dd01c	4.431654
194	0x404f2249	3.2364676
195	0xc112a4d4	-9.165241
196	0x3f86cd03	1.0531315
197	0xc01fc68f	-2.496494
198	0x3edc6295	0.43043962
199	0xc09cb80b	-4.897466
200	0x40e1caf9	7.056027
201	0x408b4ef3	4.3533874
202	0xc09252d0	-4.572609
203	0x401ebbd7	2.4802148
204	0xbffa4f5f	-1.9555472
205	0x4036da41	2.8570712
206	0xc054ef91	-3.327122
207	0x4050b80d	3.2612336
208	0x40183009	2.3779318
209	0xc0c1f9ae	-6.0617285
210	0x3eca08ca	0.3945983
211	0xc03ea30e	-2.978702
212	0x3e36a75f	0.17837285
213	0xc0fe2503	-7.942018
214	0x413d93d2	11.848589
215	0x40df3284	6.9749165
216	0xc0d7cf56	-6.7440596
217	0x406d2f5f	3.7060163
218	0xc09a5117	-4.8223987
219	0x40bdc237	5.929958
220	0xc0a43aa2	-5.1321573
221	0x40a39e1e	5.1130514
222	0x408ba427	4.363788
223	0xc12b7a49	-10.717355
224	0xbe8694de	-0.26285452
225	0x3e31711f	0.17328309
226	0x3e6f253b	0.23354046
227	0xc0419576	-3.0247474
228	0x3fe7ce0d	1.8109757
229	0x400c93ce	2.1965213
230	0xbfb68a83	-1.426102
231	0x3fc0f091	1.5073415
232	0xbd1c7b89	-0.03820375
233	0x3ff29d5b	1.8954271
234	0xbfc5ab5b	-1.5442919
235	0x3fa3ca21	1.279606
236	0x3f92dd89	1.1473857
237	0xc0393978	-2.8941326
238	0x3bfc60ee	0.0077019846
239	0xc02679df	-2.6011884
240	0x3fbb16b1	1.46163
241	0xc10c20e8	-8.758034
242	0x41375e8d	11.460584
243	0x40d31d9e	6.5973654
244	0xc0c203de	-6.062972
245	0x40488e8f	3.133701
246	0xc08aeab5	-4.3411508
247	0x40a9430c	5.2894344
248	0xc094215a	-4.629071
249	0x40ac820b	5.3908744
250	0x40659eb8	3.5878124
251	0xc1269e0b	-10.413585
252	0xbf182000	-0.5942383
253	0xbe1a6933	-0.15079193
254	0x3f07f10e	0.53102195
255	0xc0715ea2	-3.771401

pi f4 [16, 8]
0	0xbd4786ad	-0.04871242
1	0xbe6d4429	-0.23170532
2	0xbd978886	-0.07399087
3	0x3e30efbe	0.17278954
4	0xbe06c8ba	-0.13162509
5	0x3e82787b	0.25482544
6	0x3aa8f03e	0.001288898
7	0x3ea324c3	0.31863984
8	0x3dce7120	0.10080171
9	0xbc969df4	-0.018385865
10	0xba242510	-0.0006261626
11	0x3eb95c91	0.36203435
12	0x3d8e0d96	0.06936185
13	0x3e5a0e04	0.21294409
14	0x3a80939a	0.0009809614
15	0x3e9aecbe	0.30258745
16	0xbe707a34	-0.23484117
17	0x3f20e1ac	0.6284435
18	0xbdbcef8a	-0.09225376
19	0x3ea6ece8	0.3260262
20	0x3edf4e11	0.43614247
21	0x3eedc561	0.4643965
22	0xba2faae6	-0.0006701186
23	0xbed04a4f	-0.40681693
24	0xbf08cc29	-0.53436524
25	0xbeeeafee	-0.466186
26	0xbe6e31fb	-0.23261254
27	0xbde1f292	-0.11032595
28	0x3ec96a4b	0.39338908
29	0xbece8938	-0.40339065
30	0x3ad015b0	0.0015875604
31	0x3e5ca8ff	0.21548842
32	0xbdffd33b	-0.12491461
33	0xbe89df2b	-0.26928076
34	0xbd889226	-0.066685006
35	0xbe14f777	-0.14547525
36	0x3dde26e7	0.10847264
37	0xbebce46d	-0.36893025
38	0x3aa7f062	0.0012812729
39	0x3e17b6b0	0.14815784
40	0x3de15a69	0.110035725
41	0x3f191942	0.59804165
42	0xbdcf71e6	-0.10129146
43	0x3e180cc5	0.14848621
44	0xbe3a7ad8	-0.18210924
45	0x3f11d881	0.56970984
46	0xba2bf5ce	-0.000655976
47	0x3e3db30f	0.18525337
48	0xbdf990df	-0.12185835
49	0xbeb39f9c	-0.3508271
50	0xbd882006	-0.06646733
51	0xbd8f124f	-0.06985914
52	0x3e3bb1f8	0.18329608
53	0xbe991e6b	-0.2990602
54	0x3ab02b15	0.0013440574
55	0x3e130ad2	0.14359596
56	0x3e438720	0.19094515
57	0x3e6142ad	0.21998091
58	0x3c99acab	0.018759092
59	0x3e9feb4c	0.31234205
60	0xbd6f4b73	-0.058421563
61	0x3f1b8864	0.6075499
62	0x3960d0e0	0.00021440117
63	0xbe196b53	-0.14982347
64	0xbdb57e2b	-0.08861955
65	0x3e4318ed	0.19052477
66	0x3da775f0	0.08176792
67	0xbeb2021f	-0.34767243
68	0x3ed64410	0.41848803
69	0xbe5f3e9e	-0.2180123
70	0x39d44440	0.0004048664
71	0x3e7fd1a3	0.24982314
72	0x3e5b9eb9	0.21447267
73	0xbec227c4	-0.37920964
74	0x3ead29bd	0.33820906
75	0xbde574b1	-0.11203898
76	0x3dcf034c	0.10108051
77	0xbd3df9cf	-0.046380814
78	0x3a977154	0.001155416
79	0x3e4af2be	0.19819161
80	0xbea9a139	-0.33130816
81	0x3e0efb89	0.1396314
82	0xbe5e3576	-0.21700081
83	0x3e3f14c0	0.18660259
84	0x3c86ddb4	0.016463138
85	0x3e7d14fb	0.24715035
86	0x3a017bff	0.00049394363
87	0xbcf708be	-0.030155536
88	0x3e151e15	0.14562257
89	0xbe0347bd	-0.12820335
90	0x3e962a0f	0.29328963
91	0xbe5f5cc8	-0.21812737
92	0x3e91ab58	0.28451037
93	0xbe8e23cc	-0.27761686
94	0x3b21a2a6	0.0024663596
95	0x3e69d98e	0.22836897
96	0x3d8fc105	0.070192374
97	0xbd6e26d4	-0.058142498
98	0xbd69fb2e	-0.05712431
99	0x3eb23e4b	0.3481315
100	0xbd4d9e84	-0.0502
101	0x3ed109a0	0.40827656
102	0x39f7eb5e	0.00047286873
103	0xbead144f	-0.33804557
104	0x3d6afadf	0.057368156
105	0xbf0762d1	-0.52885157
106	0x3d55cc1e	0.052196614
107	0xbe9212ca	-0.2852996
108	0x3e0a8009	0.13525404
109	0xbf0002a6	-0.5000404
110	0x3b39e16b	0.002836312
111	0x3e95f000	0.29284668
112	0x3c1b0778	0.00946223
113	0x3cfd75a3	0.030939883
114	0xbca5e4f0	-0.020250767
115	0x3d62751f	0.055287477
116	0x3b87486d	0.004128507
117	0x3e285c9c	0.16441578
118	0xb9fc8906	-0.00048167276
119	0xbcb6fde0	-0.022337854
120	0xbe36dcb4	-0.17857629
121	0xbee2c8e8	-0.44293904
122	0x3e7fb8ee	0.24972889
123	0xbee5891a	-0.44831163
124	0x3e542069	0.20715488
125	0xbf070400	-0.5274048
126	0x3afd4a7a	0.0019324564
127	0x3ece0074	0.4023472

o f4 [2, 1]
0	0xbff2883c	-1.8947825
1	0x3f8f3215	1.1187159

ne f4 [14, 8]
0	0x3ecf000a	0.40429717
1	0x3f2e1e41	0.68014914
2	0x3e8b7643	0.27238664
3	0x3e1aaae7	0.15104257
4	0x3ed18f66	0.40929717
5	0x3ea87c0c	0.3290714
6	0x3f256470	0.6460638
7	0x3f45315f	0.7702846
8	0x3e80f567	0.25187227
9	0x3f796fc3	0.9743616
10	0x3f663490	0.89923954
11	0x3f29e156	0.6635946
12	0x3f0ed57f	0.5579452
13	0x3f3768a0	0.7164402
14	0x3f3673c2	0.7127038
15	0x3f6bcfe5	0.92114097
16	0x3f18ed1d	0.59736806
17	0x3e8f144a	0.27945167
18	0x3f3eabe2	0.7448102
19	0x3f53a653	0.82675666
20	0x3f53c808	0.827271
21	0x3f335e0b	0.70065373
22	0x3f698bf5	0.9122918
23	0x3f3b2f54	0.7311909
24	0x3f065908	0.524796
25	0x3f4fdf2a	0.81199896
26	0x3f872054	1.0556741
27	0x3f61172d	0.8792599
28	0x3f046868	0.5172181
29	0x3f354ac6	0.7081722
30	0x3f214cb3	0.6300766
31	0x3f2b369e	0.66880214
32	0x3ecf21d7	0.40455505
33	0x3f8433e1	1.0328332
34	0x3f5a4259	0.8525749
35	0x3f4e89c4	0.80678964
36	0x3ef7cbe6	0.4839775
37	0x3eb9776c	0.36223924
38	0x3f0985e7	0.53719944
39	0x3ef118bc	0.47089183
40	0x3f6f9bb2	0.9359695
41	0x3f000032	0.500003
42	0x3f2ab86d	0.6668766
43	0x3ebf301a	0.37341386
44	0x3f009626	0.5022911
45	0x3edc47f3	0.43023643
46	0x3f18a619	0.59628445
47	0x3f01a19f	0.5063724
48	0x3f0450e6	0.5168594
49	0x3ee51c76	0.44748276
50	0x3f0c7dfc	0.54879737
51	0x3e7060a6	0.23474368
52	0x3f049d80	0.51802826
53	0x3f32000e	0.69531333
54	0x3f1660a2	0.587412
55	0x3f23c706	0.6397556
56	0x3f0d895b	0.5528771
57	0x3e5e9578	0.21736705
58	0x3ea98a58	0.3311336
59	0x3ead46bf	0.33843037
60	0x3f6d84a3	0.9278051
61	0x3f8164d2	1.0108893
62	0x3e9c0131	0.3046966
63	0x3ee43002	0.44567877
64	0x3e87f090	0.26550722
65	0x3f76c9a6	0.9640144
66	0x3f3d47c0	0.73937607
67	0x3f66b294	0.9011624
68	0x3f264f30	0.6496458
69	0x3ea0efd5	0.31432977
70	0x3ef017cf	0.46893165
71	0x3ece0df6	0.40245026
72	0x3f16cb85	0.58904296
73	0x3f43dd24	0.7650931
74	0x3ef5496f	0.47907588
75	0x3f4f0187	0.80861706
76	0x3f654db4	0.8957169
77	0x3dedbd5c	0.11608383
78	0x3ee16d6d	0.44028798
79	0x3f11722f	0.56814855
80	0x3f4e0c15	0.80487186
81	0x3f1d19c7	0.6136746
82	0xbd8c6de1	-0.06856895
83	0x3edbfeae	0.42967743
84	0x3f0960fa	0.536636
85	0x3eac34d6	0.3363406
86	0x3ef7c84b	0.48395
87	0x3e65e54a	0.22450748
88	0x3f201c21	0.6254292
89	0x3f4a811a	0.79103243
90	0x3f6eba00	0.93252563
91	0x3f651b1f	0.8949451
92	0x3ec303d5	0.3808886
93	0x3f852416	1.0401638
94	0x3ecfca59	0.40584067
95	0x3f7fabe0	0.99871635
96	0x3eef6c11	0.46762136
97	0x3d3cf7fe	0.04613494
98	0x3f0b192f	0.543353
99	0x3f630302	0.88676465
100	0x3f0b6cfd	0.5446318
101	0x3f7055b3	0.93880767
102	0x3f98b097	1.1928891
103	0x3f5e26e8	0.86778116
104	0x3f40f1bc	0.7536886
105	0x3eec1b69	0.46114662
106	0x3f36f398	0.71465445
107	0x3f5beebd	0.8591116
108	0x3f22ca4c	0.6358993
109	0x3efb894d	0.4912819
110	0x3f0bfa58	0.5467887
111	0x3f350693	0.70713156
