Vogen.Synth/models/f0.yue.v20210620-044257.onnx (onnx, 34752 bytes, 17 tensors)

x3 f4 [2]
000000 93 bd 8a 3d f0 fe fa 3d
       0.0677444 0.12255657

5e f4 [15, 8]
000000 2e 51 0f bf 95 69 eb 3e 7f 88 ac 3c 6f 98 82 be
       -0.55983245 0.4597899 0.02106118 -0.25506923
000010 6e c8 8e 3e be 16 57 3e 5a 17 19 3d da 69 cd 3e
       0.2788729 0.21004769 0.037375785 0.4011982
000020 c9 21 ff 3d 72 f1 d2 bd ed 95 a7 bd cd dc dc 3d
       0.12457616 -0.10299958 -0.08182893 0.10784302
000030 d9 45 2b bf 35 8c 82 be 51 cf d9 bd be 34 44 3d
       -0.66903454 -0.25497594 -0.106352456 0.04790186
000040 91 ce fe bd f1 36 95 be 91 a2 e8 be 18 bb cf 3e
       -0.12441743 -0.2914348 -0.45436528 0.4057243
000050 ec fa 4a bf bd 29 34 3f a6 23 7a 3e 87 c3 26 bf
       -0.79289126 0.7037619 0.24427661 -0.651421
000060 45 a9 d5 3e 76 c3 f2 3d bb bb 42 3f 97 a0 27 3e
       0.41730705 0.118536875 0.76067704 0.16369854
000070 ae 5d a4 bf 80 0a 82 3e 80 06 11 3f d8 b6 f7 bd
       -1.2841089 0.25398636 0.56650543 -0.120954216
000080 bb 3b 83 3d 6c 3d 8e be 5c ff d1 3e 36 b5 4d 3e
       0.06407877 -0.27781236 0.41015136 0.20088658
000090 2b 32 21 be e3 c1 83 3e 9f 51 34 bf b9 27 fb be
       -0.15741794 0.2573386 -0.70437044 -0.49053743
0000a0 99 1f d3 3e 7b 20 df 3e 8b 77 4d 3f 62 0e 7e 3e
       0.41235045 0.43579468 0.80260533 0.24810174
0000b0 ab a5 22 3f 22 74 20 3d 74 e1 73 bf 08 29 55 3e
       0.6353404 0.039173253 -0.9526589 0.20816433
0000c0 e9 5b 68 be 54 f2 b8 be a9 b2 13 3f 65 93 14 3e
       -0.22691311 -0.36122382 0.5769449 0.14509352
0000d0 82 99 68 3d e7 c7 0f bf 27 f6 44 3e e7 45 a1 3d
       0.05678702 -0.561644 0.19234525 0.07874661
0000e0 99 b0 79 3e 85 49 f6 bd 9c 13 03 3f bf 22 54 3e
       0.24383773 -0.120257415 0.51201797 0.2071638
0000f0 9e 92 f9 3e 0e a7 e6 3d 2b 9f 23 3f e1 39 d8 be
       0.48744673 0.11262332 0.63914746 -0.42231658
000100 eb 10 d6 be 4c 45 3f bf e9 36 3d 3f a4 29 b7 be
       -0.41809782 -0.74715114 0.7391191 -0.35773957
000110 a4 94 bb be c0 a5 f8 be 32 b8 d0 be 37 a0 c1 bd
       -0.3663684 -0.48563957 -0.4076553 -0.09454387
000120 b4 9b 25 be 22 af ad 3e 84 20 bd be 69 e8 d7 be
       -0.16172677 0.33922678 -0.3693887 -0.42169502
000130 5c db 71 3e 7a 83 9e be 3b a5 52 be 4d de f7 3e
       0.23618835 -0.30959684 -0.20570843 0.4841179
000140 07 04 9f 3e 21 42 02 3f cc f0 1c 3f 18 d9 a1 3e
       0.3105776 0.50882155 0.61304927 0.31610942
000150 22 be 0a 3e 24 fd 94 be 8f b6 59 be ad 03 92 3e
       0.13549092 -0.2909938 -0.21261047 0.2851843
000160 30 82 34 bf 7d e6 72 3e ff f8 24 be 53 d3 26 bd
       -0.7051115 0.23720737 -0.1611061 -0.04072888
000170 f8 de 8b be fe a3 9b be 60 9b 46 bd 1f 10 e8 bc
       -0.2731855 -0.30398554 -0.04848802 -0.028328
000180 8d 55 c5 3e 5b 7a b3 be ba ab 98 be 6e 7c 5a be
       0.38541833 -0.35054287 -0.29818517 -0.21336529
000190 73 76 3d 3f 46 6d 60 be f7 2b 07 3e 02 47 b6 bd
       0.74008864 -0.21916685 0.13200365 -0.089002624
0001a0 6e b5 87 3f fc bb 5a bf 45 ef aa bd 95 8a 11 3f
       1.0602243 -0.8544309 -0.08346418 0.56852084
0001b0 4c 35 26 3f 65 38 94 bc 24 05 cf be 95 49 17 3e
       0.64925075 -0.018093297 -0.4043361 0.14774163
0001c0 ee d9 3c 3e da b0 5f 3e 4b 11 a1 be 30 bb fe bd
       0.18442509 0.21844807 -0.31458506 -0.12438047
0001d0 59 b5 e9 3e 46 4d a7 3d de ed 86 3e 5e 64 2f bf
       0.4564617 0.081690356 0.26353353 -0.68512523

6m f4 [32, 16]
000000 0a f6 06 bd a0 7d dc 3e b2 8f 03 be b0 6c aa be
       -0.032949485 0.43064594 -0.12847784 -0.33286047
000010 c2 f6 d8 be 56 d1 3e bd 7e c5 19 3f da b7 8f 3e
       -0.4237576 -0.046586357 0.60066974 0.28069955
000020 69 23 a9 3e 26 42 5d 3e a6 66 65 3e 4e 64 b4 be
       0.33034828 0.21607265 0.22402439 -0.35232776
000030 fa ab 59 3e 29 4a 2c be 10 0d 81 3c fe d3 15 3e
       0.2125701 -0.16825165 0.015753299 0.1463165
000040 af 85 60 be 90 52 2e be 64 3e 5f be 1b cf 34 3e
       -0.21925996 -0.17023683 -0.21801144 0.1765713
000050 5b 48 06 3f 6c 33 e9 3d 9d d6 66 bc a0 76 a8 3d
       0.52454156 0.11386761 -0.014089254 0.08225751
000060 06 94 47 be 6b b4 b3 3e cb bf 88 3e e6 71 87 be
       -0.1949006 0.35098585 0.26708826 -0.26454085
000070 67 62 8c 3e 07 b7 a9 be f1 c4 80 3e 50 5e 9e bd
       0.27418825 -0.3314745 0.25150254 -0.077328324
000080 6b d7 8a 3e 47 22 af 3d 60 81 ef 3e c6 ef bc be
       0.27117476 0.0855146 0.46778393 -0.36901683
000090 8c 28 70 bd 6d 8f 61 be 09 4c 49 3e 8c ec ec 3e
       -0.05863242 -0.22027369 0.19657911 0.4627422
0000a0 5e 8e 50 3e fe 7a 63 3e 7a 5e 84 be 99 a4 53 be
       0.20366809 0.22214887 -0.2585333 -0.20668258
0000b0 b4 ff 64 be c2 a6 08 be db c0 82 3e 2e 46 5e 3e
       -0.22363168 -0.13344863 0.25537762 0.21706459
0000c0 23 ac 01 bf 79 df 97 be f9 a0 89 be 67 7f 15 3e
       -0.50653285 -0.29662684 -0.26880625 0.14599381
0000d0 29 0e aa be 30 11 d6 3d 50 0e 12 bf a9 f6 f3 be
       -0.33213928 0.10452497 -0.5705309 -0.47649124
0000e0 7e 80 4a 3e 78 06 b1 bd 58 b3 55 bd 00 bd dc ba
       0.19775578 -0.08643812 -0.05217299 -0.0016840994
0000f0 e1 e0 9c be c4 ad 93 bd d8 26 33 3d 80 bc a9 3d
       -0.3064032 -0.072108775 0.043738216 0.08287907
000100 14 82 28 3e 1a 1a 26 3d f4 6d c2 3e 00 20 f7 3e
       0.16455871 0.040552236 0.37974513 0.48266602
000110 75 00 7d be bd c2 a8 3e 59 1f b2 3e ed 71 4f 3e
       -0.24707206 0.32961074 0.3478954 0.20258303
000120 68 85 41 bd 40 a7 c6 3d 1c 0f 47 be ea 78 1d 3e
       -0.047246367 0.09699869 -0.19439358 0.15378156
000130 2b 2b 86 3e 6b cd 2c be b8 a8 5c bd 3a e8 3c be
       0.2620481 -0.16875236 -0.05387184 -0.18447962
000140 40 e3 4a 3d 99 2b 02 3e 4f d5 56 3e da af 1f 3e
       0.04953313 0.12711944 0.20979808 0.15594426
000150 26 cb a0 3e 17 7e 19 3e 02 fd a3 be 85 e8 ee 3d
       0.3140499 0.14989506 -0.32028967 0.11665443
000160 20 00 97 bc ea f0 a6 be c0 18 ac be b9 d0 8c be
       -0.018432677 -0.32605678 -0.33612633 -0.27502993
000170 f8 38 0e 3e 4d d8 99 be 38 18 04 3d 4f 02 8b 3e
       0.1388892 -0.30047837 0.03224966 0.271502
000180 64 05 27 be 31 25 b7 be 84 38 21 3e fe d4 ef 3d
       -0.1631065 -0.35770562 0.15744215 0.11710547
000190 f4 71 ee bd 5d 5c 57 be 06 d3 6d 3e 20 49 82 bd
       -0.116428286 -0.21031328 0.2322503 -0.06361604
0001a0 1d 31 9b be 44 bf c4 bd 13 3b a9 3e d0 0b 5d 3d
       -0.30310908 -0.096067935 0.33052883 0.053966343
0001b0 d9 5a 8a 3e bc b7 70 be e0 f6 b7 3c 1a 53 e8 bd
       0.27022436 -0.23507589 0.022456586 -0.11343975
0001c0 92 cc dd 3e 6a a8 92 3e 26 ae 39 bf ae 3b 96 be
       0.43320137 0.28644115 -0.72531354 -0.29342407
0001d0 2a b2 10 bf 5b f9 69 bd 1f b3 32 3f dd 53 79 be
       -0.56521857 -0.05712257 0.6980457 -0.24348398
0001e0 bf c5 39 be 76 e8 f4 bd 0c da a5 bd 0b 6a a0 be
       -0.1814184 -0.11958401 -0.0809823 -0.31330904
0001f0 a2 99 aa be 20 d0 5f 3c 10 5c e7 3d 88 d6 86 be
       -0.33320338 0.013660461 0.112968564 -0.2633555
000200 24 ef 33 3f 48 ea 72 3f 86 ab 04 3f cf d5 2d bf
       0.70286775 0.94888735 0.51824224 -0.6790437
000210 cc e5 35 3d b8 35 99 3d bf 44 e8 3d 45 d7 ed 3c
       0.044408605 0.07480949 0.11341237 0.029033313
000220 c0 42 46 bc 0e 9a b4 be 09 2e 83 be 83 56 ae be
       -0.012100875 -0.35273784 -0.2562106 -0.34050378
000230 a3 2e 2a be 3c 69 7f be ee b3 2e be c9 a8 85 be
       -0.16619353 -0.24942487 -0.17060825 -0.26105335
000240 f8 e3 d4 3e 64 b4 7b 3e 3e fd 60 be 2e 34 20 bf
       0.41580176 0.24580532 -0.21971604 -0.6257962
000250 9d b7 ae bd ad d2 05 be 99 57 99 bd 9a f8 cc 3a
       -0.08531115 -0.13068648 -0.07487411 0.0015638054
000260 45 8e 09 be c4 f6 bc 3d ea d5 6c 3e 50 2f 1f be
       -0.13433178 0.09226754 0.23128477 -0.15545392
000270 24 3f 1a be 26 18 5c 3e f0 ff 0f 3d ee d3 8e be
       -0.15063149 0.21493587 0.03515619 -0.27896065
000280 a4 18 ff 3e bd 61 df 3e 3d 25 b2 bd b7 d0 a7 be
       0.49823487 0.43629256 -0.08698509 -0.32776424
000290 28 2b 2b 3d 43 01 0e bd 6d 22 99 bc bd e5 83 bc
       0.041789204 -0.034669172 -0.018693173 -0.016100759
0002a0 d1 28 6b be 26 9d e9 bd e4 b9 b0 3d ea 16 63 be
       -0.22964789 -0.11406927 0.08629206 -0.2217671
0002b0 e8 2a 9f be f4 23 a4 bd d0 95 d4 3d 78 ce 55 bd
       -0.31087422 -0.0801467 0.10380137 -0.052198857
0002c0 86 54 a9 be 6b d1 73 3e 10 f1 03 bd 3f 48 1f be
       -0.330723 0.23810355 -0.032212317 -0.15554903
0002d0 bb e5 19 bf 40 f3 16 3e 11 36 cc bd 1f 9c e1 be
       -0.60116166 0.1474123 -0.0997125 -0.44064423
0002e0 2d 29 89 3e a0 5c 9b bc 78 e0 1c bd 08 97 2d be
       0.26789227 -0.018965065 -0.038300008 -0.16952145
0002f0 a0 38 03 bd 1f 05 3e be 50 16 57 3d 7e be 54 be
       -0.032036424 -0.18556641 0.052511513 -0.20775792
000300 ae 09 82 3e 93 9d 93 3e 16 e8 09 bf 1b 58 97 be
       0.2539801 0.28831157 -0.5386976 -0.29559407
000310 74 d9 b0 bd b2 24 c9 3e 84 46 44 be bc cb 34 bd
       -0.08635226 0.3928581 -0.19167525 -0.04413961
000320 78 b1 a4 3d 9f 20 a3 3e e7 b7 8d 3e d8 31 0e bd
       0.08041662 0.31860825 0.2767937 -0.034715503
000330 08 b9 ae be 5e 29 31 3e 70 f5 26 bd b8 d1 4d 3d
       -0.34125543 0.17300937 -0.04076141 0.05024883
000340 3f 47 55 3d 7b a7 3a 3e 5a 24 9d bd 31 e4 f8 bc
       0.0520699 0.18227951 -0.07672949 -0.030382248
000350 9f e1 3f be 95 62 78 3e 39 35 b9 be c3 2b a4 3e
       -0.18738411 0.24256356 -0.36173418 0.32064638
000360 0c 96 01 be 69 ed 9c 3e be 1a 55 3e c0 73 06 3e
       -0.12654895 0.3064988 0.20810983 0.13130093
000370 c0 ae 18 3c f0 c2 3a bd 08 4e e9 3d 03 fd 81 3e
       0.009319007 -0.045596063 0.113918364 0.25388345
000380 a8 55 ec bd 42 68 29 bd 3a 08 6e bd 76 38 ec bd
       -0.11539775 -0.041359194 -0.058113314 -0.115342066
000390 9f 33 50 bd 31 2a 09 3e 95 6b be 3e 2d 2b 9b 3e
       -0.05083048 0.13395001 0.37191454 0.30306378
0003a0 69 79 a5 3e 95 24 5d be 4d 46 1a be d6 94 76 be
       0.3231919 -0.21595986 -0.1506588 -0.24080214
0003b0 2c c2 0e be f6 11 24 3e 0c 2d c8 3d b0 3d 00 3e
       -0.13941258 0.16022477 0.09774217 0.12523532
0003c0 5e bc 01 bf 75 76 c1 be 62 97 b4 3e 0d 49 15 3e
       -0.5067805 -0.37785688 0.35271746 0.14578648
0003d0 27 4f e3 be 0a 9a 05 3e 7e 6a b5 3a 2b 11 a6 bc
       -0.44396326 0.13047042 0.0013840941 -0.020271858
0003e0 b8 67 10 bd 34 32 57 be 68 4d 22 3d 2f f3 98 3e
       -0.035255164 -0.21015245 0.0396246 0.29873034
0003f0 cb 0f 36 be ed b2 a3 3e 36 d0 86 be ec 65 d5 3d
       -0.17779462 0.31972447 -0.26330727 0.10419831

yg f4 [24, 4]
000000 0e 26 b6 be 1a 50 4c be 73 2c 80 3e 94 24 de be
       -0.35575908 -0.19952431 0.25033912 -0.43387282
000010 02 8d 02 be 16 7e 00 3e f7 67 11 bd ef 69 78 3d
       -0.12749103 0.12548098 -0.03549954 0.0606479
000020 00 77 e7 bd 9a 26 04 3e 35 06 3d 3e 0c 2f 1b be
       -0.11301994 0.1290535 0.18459399 -0.15154666
000030 ed 70 a8 be d6 b0 d4 3e 03 15 f2 bc 3a 20 e1 be
       -0.32898656 0.41541165 -0.029551035 -0.439699
000040 9f 77 33 be 08 22 dd 3e 67 87 ac 3e dc f2 07 bf
       -0.175261 0.43190026 0.33697054 -0.5310495
000050 e5 c4 cd bd 41 c6 81 3a 47 0e cb 3d 8f 36 6a 3c
       -0.1004732 0.0009901003 0.099148326 0.014295234
000060 7d 78 41 3e 52 4b aa 3e a2 33 99 bd ff ec ca be
       0.18893619 0.3326059 -0.07480551 -0.3963394
000070 7a a1 84 3e 5a cf 8e 3e 10 c1 76 3e 83 41 16 bf
       0.25904447 0.27892572 0.24097085 -0.5869371
000080 7f d4 37 3e 64 af fb 3e f2 ac 57 3e 78 6a ff bd
       0.17952155 0.4915725 0.21062067 -0.12471479
000090 df 86 96 3e 75 b5 22 be 7a 75 f5 3e 91 84 f9 bd
       0.29399773 -0.15889533 0.4794119 -0.12183488
0000a0 34 fb 26 bd 95 0e 2f be 3d 6e 79 3d 98 f1 2c 3c
       -0.04076691 -0.17095406 0.060896147 0.010555647
0000b0 40 83 c9 3d c2 cb df 3e 57 45 80 be 36 eb 10 bf
       0.09839487 0.43710142 -0.25052902 -0.56608903
0000c0 29 85 04 3f 13 a8 5d be 1b ae 05 3f d2 79 fa be
       0.51765686 -0.21646146 0.5221879 -0.48921067
0000d0 4a 0e 89 3e 51 d3 17 3e 1c 0d 4c be 98 b7 f2 be
       0.26768714 0.14826705 -0.19926876 -0.47405696
0000e0 d8 ee 16 3f c1 83 24 3e 8f 32 15 3e 2f a9 7d be
       0.58958197 0.16065885 0.14570068 -0.2477157
0000f0 a2 f7 8b bd 7b 4a 1d be b2 fe 61 3e 6d d0 f0 3b
       -0.068343416 -0.15360443 0.22069815 0.007349065
000100 66 39 e7 3e 04 76 9b be ba cd 53 3e eb b2 dd 3e
       0.4516098 -0.30363476 0.20683947 0.43300566
000110 e1 5b 2c 3e 14 80 92 3d 5f e6 93 3e b4 88 46 be
       0.16831924 0.07153335 0.28886697 -0.19388086
000120 53 98 f9 3e 3b 79 f5 be f9 57 fa 3e f1 3b 05 3f
       0.48749027 -0.47944054 0.48895243 0.5204459
000130 45 45 fc 3e 11 f7 9a 3e c6 79 9a 3e 7f ca f9 bd
       0.49271598 0.30266622 0.3017103 -0.12196826
000140 9c bb 3a 3e 78 e3 e0 be e3 10 a9 3e 6c 35 ff 3e
       0.1823563 -0.43923545 0.33020696 0.49845445
000150 3c 6a 59 be 02 89 45 3e 41 a1 b6 3e 6c 54 e0 3e
       -0.21231931 0.19290546 0.35669902 0.4381441
000160 bc 67 b8 3e 5e 59 ed be 13 f1 11 3d 47 ac 0a bd
       0.36016643 -0.46357244 0.035630297 -0.033855703
000170 8f a9 de 3e 4b fd b4 3d f1 18 62 3e 49 55 6c be
       0.43488738 0.08837374 0.22079827 -0.23079409

48 f4 [202, 14]
000000 d9 a6 97 be 51 fd 11 3d 31 84 9e bd 14 bc 8f be
       -0.29619482 0.035641972 -0.07740057 -0.2807318
000010 5c 9a 80 bc d1 7e 8b 3e 33 4d 46 3f e8 1b 20 bc
       -0.015698604 0.2724519 0.77461547 -0.009772278
000020 f5 3b a6 bb 09 7a eb 3c 8f ee 75 be 1f 23 b4 3e
       -0.0050730654 0.028744714 -0.24016784 0.35183045
000030 e6 c2 7a be 94 f6 b0 be 20 4f 23 40 92 aa 8b 3f
       -0.2448841 -0.34563124 2.5517044 1.0911429
000040 22 ce 9a 3d aa 16 dc be af f6 2a 3f 31 a2 c4 be
       0.07558848 -0.4298604 0.6678266 -0.38404992
000050 e1 bc fb bf b7 04 a4 be 3d a5 3c bf 71 f5 06 3f
       -1.9667016 -0.32034847 -0.73689634 0.52718264
000060 7e 71 88 bf 65 55 5b be 2a 83 8d 3e da aa c3 3f
       -1.0659635 -0.21419294 0.27639133 1.5286515
000070 46 a3 5e 40 22 72 cc 3f d8 b1 33 3d 32 12 b0 be
       3.4787154 1.597233 0.043870777 -0.34388882
000080 b8 29 95 3f da cd 95 3e 1c 4c 19 c0 e8 77 82 3e
       1.1653357 0.29258615 -2.3952703 0.25482106
000090 11 46 fd 3d bb c0 6d bf a2 33 3f c0 b2 24 12 bf
       0.1236688 -0.9287221 -2.9875264 -0.5708724
0000a0 3a 16 4a 3f d1 69 d8 3f e7 e2 f2 3f 27 d5 83 3f
       0.78940165 1.6907293 1.8975495 1.0299424
0000b0 78 d0 29 3e d0 60 cd be 9c 4e fe 3e 93 95 03 bf
       0.16583431 -0.40112925 0.4966935 -0.5140011
0000c0 e0 13 d9 bf 54 e0 a3 be 8b f3 fb be e2 22 64 3e
       -1.695919 -0.32007086 -0.49209246 0.22278932
0000d0 d0 27 66 bf ae 97 05 be a3 fa 8f 3e bf 35 b6 3f
       -0.899045 -0.13046142 0.28120908 1.4235152
0000e0 a6 89 e0 3f 51 a8 22 3f 7c 16 e9 3e 87 0d ce bd
       1.7542007 0.6353808 0.45524967 -0.10061174
0000f0 80 4d ed 3e 34 1a 7f be 53 eb 5c bf f2 d8 fa bb
       0.4634819 -0.2491234 -0.86296576 -0.0076552564
000100 18 65 29 bf 93 f0 5c bd 7e e2 97 be 5e 24 1a 3e
       -0.6616988 -0.053940367 -0.29664987 0.15052935
000110 46 b1 e8 bc c9 ef 85 3d b5 85 63 3f 6e 66 54 3f
       -0.028404843 0.06539876 0.88875896 0.82968795
000120 cf 4b a4 3d c2 1e f1 be 70 b3 b4 3e 13 2a 45 be
       0.08022272 -0.4709378 0.3529315 -0.19254331
000130 61 c8 29 bf bd 8e 58 be 70 05 03 bf 43 14 ae 3c
       -0.6632138 -0.211482 -0.5118017 0.021249896
000140 3a f1 d6 be c3 ec 44 3e 95 02 5e 3e e8 dc dc 3e
       -0.41980916 0.19230942 0.21680672 0.43137288
000150 43 62 9e 3f ab a3 15 3f 74 16 27 3f a2 40 cd 3e
       1.2373737 0.5845286 0.65268636 0.40088373
000160 29 16 0f 3f e7 40 ff 3d 1b 57 ba bf c6 8b 58 3e
       0.5589319 0.12463551 -1.4557832 0.2114707
000170 f0 35 8f be 05 ba 39 bf 50 b2 23 bf a3 91 2d bd
       -0.2797084 -0.7254947 -0.6394396 -0.042375218
000180 a4 c6 ee 3e e5 db d1 3e 66 63 01 40 4b 5f 65 3f
       0.46635926 0.4098808 2.0216918 0.8959853
000190 22 43 00 3f 1c e3 db 3c c9 35 29 3f 4b 65 54 3e
       0.50102437 0.026841693 0.66097695 0.20741765
0001a0 5f 72 08 c0 cd 37 1a 3e 26 16 c4 be 0f 48 94 be
       -2.1319807 0.15060349 -0.38298148 -0.28961226
0001b0 89 58 a1 bf 9c 64 11 be 6b 52 28 3f bf d2 6f 3f
       -1.2605144 -0.14198536 0.6575076 0.9368095
0001c0 df 82 b1 3e cd b1 14 3f 33 84 4b 3e 20 4b 86 3e
       0.3467016 0.580838 0.19874649 0.2622919
0001d0 6d cb 5d 3f 9f b8 f8 3e f1 b4 48 bf fc 97 4c 3d
       0.8663853 0.48578355 -0.78401095 0.04994963
0001e0 28 02 3b 3f 1e 33 4d bf a1 d6 8b bf f1 35 3b be
       0.73050165 -0.80156124 -1.0924875 -0.18282296
0001f0 69 ab 8b 3d 2c c5 32 3f 9c ae 61 3f f8 19 a4 3f
       0.06819803 0.6983211 0.8815706 1.2820425
000200 28 74 ae 3d 70 75 9f bf c1 00 88 3e e9 78 a5 be
       0.08518249 -1.2457714 0.26563075 -0.3231881
000210 1d 68 82 bf 79 03 26 bf 0f 82 61 bf 5d f5 0a 3f
       -1.0188023 -0.6484905 -0.8808908 0.54280645
000220 18 44 75 bf a7 a2 ff 3e 93 a9 5a 3e 79 35 dc 3f
       -0.9580703 0.4992878 0.2135375 1.7203819
000230 50 f0 a2 3f 10 8d 86 3f 28 f4 7b 3e 89 e3 13 bf
       1.2729588 1.0511799 0.24604857 -0.57769066
000240 00 ff a0 3e 23 28 6b be 69 fd dd bf 37 64 82 be
       0.3144455 -0.2296453 -1.734296 -0.25467083
000250 ed 15 ae be 28 48 d6 3d 67 e1 8d bf b8 33 f2 3b
       -0.34001103 0.104629815 -1.1084412 0.0073914193
000260 06 1c 08 3f 1a d4 ba 3f d9 fa e9 3f 7b 98 af 3f
       0.5316776 1.4595978 1.8279678 1.3718408
000270 06 6a 36 3e 4f ca 58 bf b5 03 0d 3f 91 15 1d 3f
       0.17813882 -0.846837 0.5508378 0.6136103
000280 40 fd fe bf 59 84 f9 3d af ea c9 bd e5 b7 be be
       -1.9921036 0.121834464 -0.098592155 -0.37249675
000290 a3 0b 1b c0 9b 6d 0c bd 10 4f 70 3f 94 6f b7 3f
       -2.4225852 -0.034284215 0.9387064 1.4330926
0002a0 bc 2f 36 bf 7f cc 40 3e 7f 63 36 3c f1 28 2e be
       -0.71166587 0.18828009 0.01113212 -0.17007805
0002b0 79 2d 9d bc c5 d2 73 bf 84 85 e7 be 01 c9 93 bf
       -0.019186722 -0.95243484 -0.45219052 -1.1545717
0002c0 25 4f 89 bf 46 f6 e0 3f aa c3 b2 3f 6d 83 cd 3e
       -1.0727278 1.7575157 1.3965962 0.40139332
0002d0 1a bb 21 bf 8c 81 be 3f b9 bf 7f bf 66 4d 42 bd
       -0.6317612 1.4883285 -0.9990192 -0.047437094
0002e0 ad c2 68 3e 1f 02 2e 3f 3e ee 09 3f 01 c7 e8 be
       0.22730513 0.67971987 0.53879154 -0.45464328
0002f0 52 fe fc 3d a8 9d a4 be a9 00 8a 3e 68 5b 80 be
       0.12353195 -0.32151532 0.2695363 -0.25069737
000300 70 5d 97 3f 6f 67 0b 3e 9c 8a fb be e6 98 3a be
       1.182539 0.13613676 -0.49129188 -0.18222389
000310 b2 4e 29 40 00 57 b2 3f 1d 44 da 3e 92 46 d5 be
       2.6454282 1.39328 0.4263009 -0.41655403
000320 04 5c 87 3f 75 a6 8c be d7 9a 20 c0 6f 3f af be
       1.0574956 -0.27470747 -2.5094507 -0.34228083
000330 85 c6 11 bf c8 24 c8 bd 4f 79 ce bf 01 e4 18 be
       -0.5694354 -0.097726405 -1.613077 -0.14930727
000340 15 3d 1c 3f 16 93 0a 40 19 cc 84 3f 80 b8 ea 3e
       0.61030704 2.1652274 1.0374786 0.45843887
000350 be f3 20 3f 26 cb 41 3e 56 04 bc 3e d5 44 82 bd
       0.6287192 0.18925151 0.36722058 -0.06360785
000360 f6 2c 91 bf 96 18 8b 3d 22 71 19 bf d8 b5 22 be
       -1.1341846 0.06791799 -0.5993825 -0.1588968
000370 89 fb 0a bb af 55 41 3e 53 7e 83 3e 0a 46 70 bb
       -0.0021207056 0.18880342 0.25682315 -0.003666284
000380 72 9c ee 3f 7c 45 42 3f 8f e2 41 3f bc eb a2 bd
       1.8641493 0.75887275 0.75736326 -0.07955119
000390 4e ef a9 3e 37 b7 aa be 79 1e 09 c0 3d 8c 8a bd
       0.33190387 -0.33342907 -2.142485 -0.067650296
0003a0 71 80 fa be dc a4 9a 3d 9d fd 46 bf 96 cd a2 bc
       -0.48926118 0.07550976 -0.77730733 -0.019873422
0003b0 cd f7 b8 3e f3 dc 96 3f a9 60 94 3f d9 a7 ab 3f
       0.36126557 1.1786178 1.1591998 1.3410598
0003c0 9e 41 fd 3e 0b 5a 33 bf 83 53 be 3e 0e 1c a9 bd
       0.49464124 -0.7005927 0.3717309 -0.08257304
0003d0 1e a1 26 c0 8f d7 b7 be 8b 67 11 bf 05 23 3e 3e
       -2.6035838 -0.35906646 -0.5679862 0.18568046
0003e0 29 9d b9 bf 60 8a 32 3e ab 20 6b 3f 79 fa 0f 40
       -1.4501086 0.17435598 0.9184672 2.2496626
0003f0 0b 6f 82 3f 3d dc 67 3f a0 a5 84 3e 90 c1 40 bf
       1.0190138 0.9057043 0.25907612 -0.7529535

o5 f4 [8]
000000 9d 74 6b 3d f6 98 cf 3b 17 4c 64 3e 4b 12 57 bc
       0.057484258 0.006335373 0.22294651 -0.01312692
000010 7e a3 ea 3d 20 15 60 bd b6 f3 f5 bd 22 31 a2 3d
       0.11456965 -0.054707646 -0.12009375 0.079195276

mp f4 [16, 1]
000000 02 75 2b bf 06 0d ad 3e 31 98 75 3f b8 81 6e 3f
       -0.66975415 0.33799 0.9593535 0.93166685
000010 4c 96 11 3f f9 5a 08 bf 52 f6 17 bf c9 30 92 be
       0.5686996 -0.53263813 -0.5936023 -0.28552845
000020 9c 26 0a 3e a6 43 16 3e 41 dc b5 3f 65 d5 f8 3d
       0.13491291 0.14674243 1.4207841 0.12150077
000030 5e 2a bd 3e 37 01 11 3f 0b 23 73 bf 28 cb 88 bf
       0.36946386 0.5664248 -0.94975346 -1.0686998

go f4 [24]
000000 00 00 00 c2 00 00 f0 c1 00 00 e0 c1 00 00 d0 c1
       -32.0 -30.0 -28.0 -26.0
000010 00 00 c0 c1 00 00 b0 c1 00 00 a0 c1 00 00 90 c1
       -24.0 -22.0 -20.0 -18.0
000020 00 00 80 c1 00 00 60 c1 00 00 40 c1 00 00 20 c1
       -16.0 -14.0 -12.0 -10.0
000030 00 00 00 c1 00 00 c0 c0 00 00 80 c0 00 00 00 c0
       -8.0 -6.0 -4.0 -2.0
000040 00 00 00 00 00 00 00 40 00 00 80 40 00 00 c0 40
       0.0 2.0 4.0 6.0
000050 00 00 00 41 00 00 20 41 00 00 40 41 00 00 60 41
       8.0 10.0 12.0 14.0

t8 f4 [8, 1]
000000 1b 07 84 3f af c0 ef bd be 61 61 3c 3b 95 19 3f
       1.0314668 -0.11706673 0.013756214 0.5999333
000010 f9 00 23 3f 65 80 5c bf 68 e8 96 bf 3b 2c 0f 3f
       0.6367336 -0.86133415 -1.1789675 0.55926865

y7 f4 [14, 8]
000000 c0 3a 50 bf e9 e2 3f be 73 67 c3 3f c8 ab bf 3e
       -0.81339645 -0.18738903 1.5265945 0.37435746
000010 63 6f 9a 3f c5 74 fd 3f 90 44 9a be d9 4f e1 bd
       1.2065243 1.980126 -0.30130434 -0.11001558
000020 4b 5e b7 40 3f 1e 40 3f 52 82 d5 3f a9 56 3c 3f
       5.7302604 0.7504615 1.6680396 0.7356973
000030 38 cb 83 40 ea 8e 14 40 d6 c1 0d bf 4d 33 95 40
       4.118557 2.3212228 -0.55373895 4.6625123
000040 8d 78 4a 40 ec e1 10 3f 29 07 8a 3f 98 f4 05 40
       3.1636078 0.5659473 1.0783435 2.0930538
000050 e2 d8 32 3f de 97 2a 40 0c a6 59 3f 1b bc bf be
       0.69862187 2.6655192 0.8501899 -0.374482
000060 93 31 3e 3f 0b 22 35 3d a6 50 59 40 d2 51 20 bf
       0.74294394 0.04422192 3.3955474 -0.6262485
000070 ce 6d 5b 3f f2 c0 5d 3f e6 33 01 3f bb 80 9d 3f
       0.85714424 0.86622536 0.50469816 1.230491
000080 d2 f7 b5 3f bf 14 99 3f 3e 3f 9c bf 52 37 01 40
       1.4216254 1.1959456 -1.22068 2.0190015
000090 86 57 c5 be ff 3c 89 3c 30 c2 67 40 5a 04 aa bf
       -0.38543338 0.016752718 3.6212273 -1.3282578
0000a0 44 39 36 3e 07 2c 65 bf 5e 4b 12 3f 68 c3 8a bf
       0.17795283 -0.89520305 0.5714625 -1.0840883
0000b0 2a a7 ba 3f 3f 6b 2a 40 e7 e3 ef 3c 71 ed 4b be
       1.4582264 2.6627958 0.029283477 -0.19914795
0000c0 85 8b d4 3f 77 ce 9c 3f a3 cd 1d 40 5c 4a 32 3f
       1.6605078 1.2250508 2.465676 0.69644713
0000d0 d6 d4 a4 3f 36 e2 4e 40 a0 14 55 3f aa 38 a8 be
       1.2877452 3.2325568 0.83234596 -0.3285573
0000e0 a7 5d 6b 40 02 e8 8d 40 58 8a f8 bf 05 35 c5 bf
       3.677591 4.4345713 -1.9417219 -1.5406805
0000f0 4c 8d d7 3f b5 5a 81 bd 52 72 cc 3f 7f 42 43 40
       1.6839995 -0.06316129 1.5972388 3.0509336
000100 87 a0 76 be 71 ee b0 3e 5d 70 19 40 4a f8 4f 3f
       -0.24084674 0.34556916 2.397483 0.81238234
000110 b0 56 c5 3d 59 fa 40 40 3e 23 b7 3f 08 26 ac 3f
       0.09635675 3.01528 1.430763 1.3449106
000120 b7 56 ea 3f ad 46 b6 3f a2 a9 05 40 81 9e 4b 3f
       1.8307713 1.4240319 2.0884786 0.7953873
000130 e1 5d 3d bf 43 38 9e 3f 0b 2f 9e 3f b6 29 d6 3f
       -0.7397137 1.236092 1.2358106 1.6731479
000140 eb 29 8e 3f 21 17 fd 3e 34 b4 ae bd 8f 6e 46 3e
       1.1106542 0.49431708 -0.08530465 0.19378112
000150 ee 9f 35 40 10 4e 3e 40 ec 3e 98 3d 81 5b 62 3f
       2.8378863 2.9735146 0.074338764 0.88420874
000160 b2 cc d4 bf 58 93 81 3e 67 c3 28 40 ae b9 01 3f
       -1.6624968 0.25307727 2.6369264 0.5067395
000170 ce 7c 36 40 5c c4 0f 3f 80 29 4b 40 ef 6e 80 3e
       2.8513675 0.56158996 3.174408 0.25084636
000180 16 e2 26 be 61 3f 4a 3f df 69 3e 40 f7 d6 36 40
       -0.16297182 0.7900296 2.9752119 2.8568704
000190 ee 7f 6e 3f 4d 89 23 40 fc b2 04 bf 1a af 1c bf
       0.93163955 2.5552552 -0.5183561 -0.61204684
0001a0 58 83 77 3f 82 04 a1 3f da 94 25 3f 3f 9e 5b bf
       0.9668479 1.2579501 0.64680254 -0.8578834
0001b0 a5 ae 10 40 bc 98 25 40 66 3a d4 3f ee ee 14 bf
       2.2606595 2.5874472 1.6580322 -0.5817708

fa f4 [32, 2]
000000 37 3e 30 3e 41 77 95 bb 90 a9 c2 be 3c ae c3 be
       0.17211233 -0.0045613353 -0.3801999 -0.38218868
000010 73 8a a8 bc 8f 12 0e 3e be c9 e5 bd 98 c3 a9 3d
       -0.02057383 0.13874267 -0.1122012 0.0828926
000020 9f f3 1b bd 49 52 c4 3e 96 82 cc be 9f b9 04 3f
       -0.038074132 0.3834403 -0.3994338 0.51845735
000030 e8 26 8a 3b f1 d7 e0 3e 07 07 ca bd 69 2e 67 be
       0.004216064 0.4391475 -0.098646216 -0.22576298
000040 19 55 9f bd a1 74 64 bd 82 7a b5 3d 58 b5 04 3f
       -0.07779903 -0.05577529 0.08861257 0.5183921
000050 cc 85 ed 3d ce 4e 61 3d c1 73 60 3e eb 8e 78 3e
       0.11597785 0.055006795 0.21919157 0.24273269
000060 6a 02 cd 3d d0 ed d4 3e f9 64 5c be 53 9f 66 be
       0.10010226 0.41587687 -0.21522893 -0.22521715
000070 e1 26 5e 3e 7f 3d c7 3e 7e 50 80 be 53 87 0c bd
       0.21694519 0.38914105 -0.2506141 -0.034308743
000080 40 87 26 bc e0 dc 8d be 27 3a 1f be c6 cc 98 3d
       -0.010164082 -0.27707577 -0.15549527 0.074609324
000090 e3 ec 9e 3e 12 6a b8 3e 2f db ad be dc 9d 66 3e
       0.31040105 0.36018425 -0.33956286 0.22521156
0000a0 0f 10 67 3e ea f9 03 3f 10 46 68 be 19 82 d1 be
       0.2256472 0.51553214 -0.22682977 -0.4091957
0000b0 48 ed 59 be 6c 67 5a 3e 94 84 12 3e ed 4d e3 3e
       -0.21281922 0.21328515 0.14308387 0.4439539
0000c0 4e 76 24 be 26 d7 34 3e 66 a3 be 3e c5 d5 a5 3e
       -0.16060755 0.17660198 0.37234038 0.32389656
0000d0 5d a7 96 3d 75 3b 8f 3e 19 d7 80 3e 3f ca cf be
       0.07356141 0.2797505 0.25164106 -0.4058399
0000e0 24 7e 17 be 4f c2 85 3e dd 27 4e 3e 18 2b ee 3e
       -0.14794213 0.26124808 0.20132394 0.46517253
0000f0 b0 85 45 3d 68 42 6b bd 24 50 f6 bd 9b d7 8f be
       0.048223197 -0.057436377 -0.12027004 -0.2809418

c7 f4 [16, 1]
000000 0b ac 22 3f a0 93 f2 be d0 00 c4 be 7f ca c6 3e
       0.63543767 -0.47378254 -0.3828187 0.38826367
000010 4f de bc be 49 12 16 3f 10 26 e1 bd 43 6a 4d 3d
       -0.36888358 0.5862165 -0.10993588 0.050150167
000020 b8 d2 43 be 26 0d 15 3f 1c 43 af 3e 05 9e 47 3e
       -0.19123352 0.5822319 0.34230888 0.19493873
000030 8c f7 94 3e cd 44 95 3e de 15 8c be bc e7 e8 be
       0.29095113 0.29154053 -0.27360433 -0.454893

xq f4 [24]
000000 00 00 00 c2 00 00 f0 c1 00 00 e0 c1 00 00 d0 c1
       -32.0 -30.0 -28.0 -26.0
000010 00 00 c0 c1 00 00 b0 c1 00 00 a0 c1 00 00 90 c1
       -24.0 -22.0 -20.0 -18.0
000020 00 00 80 c1 00 00 60 c1 00 00 40 c1 00 00 20 c1
       -16.0 -14.0 -12.0 -10.0
000030 00 00 00 c1 00 00 c0 c0 00 00 80 c0 00 00 00 c0
       -8.0 -6.0 -4.0 -2.0
000040 00 00 00 00 00 00 00 40 00 00 80 40 00 00 c0 40
       0.0 2.0 4.0 6.0
000050 00 00 00 41 00 00 20 41 00 00 40 41 00 00 60 41
       8.0 10.0 12.0 14.0

6l f4 [8]
000000 00 00 80 c0 00 00 40 c0 00 00 00 c0 00 00 80 bf
       -4.0 -3.0 -2.0 -1.0
000010 00 00 00 00 00 00 80 3f 00 00 00 40 00 00 40 40
       0.0 1.0 2.0 3.0

py f4 [16]
000000 e2 86 02 3e 0a ef d2 3d 6b b5 e1 3d b8 e7 5d be
       0.12746766 0.10299499 0.11020931 -0.21670425
000010 7b cc 5c 3d 2f 8a 63 bd d8 99 4b bd 12 0f 3a 3d
       0.053905945 -0.055551704 -0.049707264 0.04542453
000020 00 00 00 00 00 00 00 00 00 00 00 00 00 00 00 00
       0.0 0.0 0.0 0.0
000030 00 00 00 00 00 00 00 00 00 00 00 00 00 00 00 00
       0.0 0.0 0.0 0.0

y8 f4 [4]
000000 b9 eb eb 3d 6f 41 5c 3d cd 37 f9 bc 76 a3 44 3e
       0.1151957 0.05377334 -0.030422116 0.1920298

cl f4 [24]
000000 00 00 00 00 00 00 00 00 00 00 00 00 00 00 00 00
       0.0 0.0 0.0 0.0
000010 00 00 00 00 00 00 00 00 00 00 00 00 00 00 00 00
       0.0 0.0 0.0 0.0
000020 00 00 00 00 00 00 00 00 00 00 00 00 00 00 00 00
       0.0 0.0 0.0 0.0
000030 00 00 00 00 00 00 00 00 00 00 00 00 00 00 00 00
       0.0 0.0 0.0 0.0
000040 00 00 80 3f 00 00 80 3f 00 00 80 3f 00 00 80 3f
       1.0 1.0 1.0 1.0
000050 00 00 80 3f 00 00 80 3f 00 00 80 3f 00 00 80 3f
       1.0 1.0 1.0 1.0
