Vogen.Synth/models/po.yue.v20210619-233544.onnx (onnx, 30157 bytes, 22 tensors)

ac f4 [12]
000000 00 00 80 3f 00 00 80 3f 00 00 80 3f 00 00 80 3f
       1.0 1.0 1.0 1.0
000010 00 00 80 3f 00 00 80 3f 00 00 80 3f 00 00 80 3f
       1.0 1.0 1.0 1.0
000020 00 00 80 3f 00 00 80 3f 00 00 80 3f 00 00 80 3f
       1.0 1.0 1.0 1.0

0v f4 [16]
000000 00 00 00 00 00 00 00 00 00 00 00 00 00 00 00 80
       0.0 0.0 0.0 -0.0
000010 00 00 00 80 00 00 00 80 00 00 00 80 00 00 00 00
       -0.0 -0.0 -0.0 0.0
000020 00 00 00 00 00 00 00 80 00 00 00 80 00 00 00 80
       0.0 -0.0 -0.0 -0.0
000030 00 00 00 80 00 00 00 00 00 00 00 00 00 00 00 80
       -0.0 0.0 0.0 -0.0

56 f4 [12]
000000 00 00 00 00 00 00 00 00 00 00 00 80 00 00 00 00
       0.0 0.0 -0.0 0.0
000010 00 00 00 00 00 00 00 00 00 00 00 80 00 00 00 80
       0.0 0.0 -0.0 -0.0
000020 00 00 00 80 00 00 00 00 00 00 00 00 00 00 00 80
       -0.0 0.0 0.0 -0.0

cp f4 [16]
000000 00 00 80 3f 00 00 80 3f 00 00 80 3f 00 00 80 3f
       1.0 1.0 1.0 1.0
000010 00 00 80 3f 00 00 80 3f 00 00 80 3f 00 00 80 3f
       1.0 1.0 1.0 1.0
000020 00 00 80 3f 00 00 80 3f 00 00 80 3f 00 00 80 3f
       1.0 1.0 1.0 1.0
000030 00 00 80 3f 00 00 80 3f 00 00 80 3f 00 00 80 3f
       1.0 1.0 1.0 1.0

7x f4 [12]
000000 ef d2 aa be 92 6d 82 be d6 d8 16 be a6 7f 47 be
       -0.33364055 -0.2547422 -0.14731154 -0.19482288
000010 93 47 46 be 1a 37 5e be 61 a3 c0 3e 8a 4e b1 be
       -0.19363241 -0.21700707 0.37624648 -0.34630233
000020 2c c2 e1 3d de 7a b6 be 11 20 b6 be dc 43 0d 3f
       0.110233635 -0.35640615 -0.3557134 0.5518167

3t f4 [16]
000000 75 80 02 bf d5 c0 e8 be 10 7c 31 bc f7 07 81 3e
       -0.5097726 -0.4545962 -0.010832801 0.2520139
000010 9f 76 bd 3e f3 5a 51 3f 15 ae c7 bd fa 81 2b bf
       0.37004563 0.817794 -0.097500004 -0.66995203
000020 b9 f0 3b bf 48 75 a4 3c ed 7c bf bc 02 ac b3 3e
       -0.7341419 0.020075455 -0.023374999 0.3509217
000030 01 7f 5e 3f a1 1d 37 bf 48 39 ea be f1 1b 9a be
       0.8691254 -0.71529585 -0.45746827 -0.30099443

q f4 [8, 16]
000000 33 6b 8f 3e d6 e5 a9 3e 40 ea 1d bf 30 a2 2e be
       0.28011474 0.33183163 -0.6168556 -0.17054057
000010 47 60 0a bf d5 d8 c3 3d 80 23 9c 3e 19 c2 de 3e
       -0.5405316 0.09562842 0.30495834 0.4350746
000020 14 9d 97 be 47 31 a2 3e 09 4c eb bd 40 8d cf bd
       -0.2961203 0.3167822 -0.11489112 -0.10134363
000030 e3 f5 75 3e f6 1e cd be 6a ec 97 be 68 c5 2b be
       0.2401958 -0.40062684 -0.29672557 -0.16774523
000040 67 47 e1 bd 50 6c d9 be fa 5e 84 bd 43 ec 06 3e
       -0.10999947 -0.42465448 -0.06463428 0.13176064
000050 e8 2b ad 3e 06 a7 0e 3f 94 88 65 3d bf 6b ca 3e
       0.3382256 0.5572361 0.056038454 0.3953533
000060 2d 31 2b bd c6 1c b4 be 5d 55 ae 3e 60 a5 ca 3e
       -0.041794945 -0.35178202 0.34049502 0.39579296
000070 e9 6a 03 3f 16 8a ce 3e c9 3e 09 bf a8 99 65 be
       0.51335007 0.40339726 -0.5361143 -0.22421896
000080 d7 ee 86 bd c6 05 34 3e 4f 71 93 3e e7 0b 48 bc
       -0.06588524 0.17580327 0.28797385 -0.012209869
000090 66 f7 4d be 8a dd fd 3e 47 be 99 be 6f a3 8f 3e
       -0.20113906 0.49583083 -0.30027983 0.28054377
0000a0 20 cc 06 3f 01 98 43 3f b8 07 fb bd 98 1b 0b 3f
       0.5265522 0.76403815 -0.122573316 0.5433898
0000b0 86 95 a6 bd 9f 27 00 be ba 2a bc be e7 90 d7 be
       -0.08133988 -0.12515114 -0.36751348 -0.4210274
0000c0 7b 56 15 be 28 cb 0d bf 04 aa 05 bf ed 2b 6d 3e
       -0.14583771 -0.55388117 -0.5221255 0.23161288
0000d0 90 2a 72 be f1 55 42 3e 6d 4a f5 3d 1f 87 0e be
       -0.23649049 0.18978097 0.11977086 -0.13918732
0000e0 88 7d e6 3e 6e 6b bf be ec ed a9 3d fe 6b b3 be
       0.45017648 -0.3738665 0.08297333 -0.3504333
0000f0 f1 1f b4 3e 64 74 a0 3e 69 3a 9b be ca b6 0b bf
       0.3518062 0.313388 -0.30318 -0.5457579
000100 eb 27 38 be 63 a5 26 bf da ac 96 3c 5b 32 2b be
       -0.17983977 -0.6509611 0.018392969 -0.16718428
000110 74 37 02 be 42 7a c3 be a1 a8 72 be 9d 72 15 3e
       -0.12716466 -0.38179213 -0.2369714 0.14594503
000120 b9 e1 2b be aa 7a 55 be 5a 3c 28 bf 6f 32 22 be
       -0.16785325 -0.20847574 -0.6571709 -0.15839551
000130 2b b5 69 3d 8f ae 01 3f d7 41 4d 3e a9 46 e1 3e
       0.05705754 0.5065698 0.20044647 0.43999222
000140 74 3d 03 bf 33 44 f5 3e 34 59 4e 3e 75 99 10 3f
       -0.51265645 0.47903594 0.20151216 0.56484157
000150 9d e0 cd be e2 2a 3f bd 89 cd df 3d 73 27 01 bf
       -0.4021043 -0.046671756 0.109278746 -0.5045082
000160 90 fc 70 bd 29 52 17 be 36 53 be 3b 90 93 bb be
       -0.058834612 -0.14777435 0.0058082594 -0.3663602
000170 df e8 57 3e 08 bf 6e 3e 6f f4 97 be 14 e5 e9 be
       0.21084927 0.2331506 -0.29678676 -0.45682585
000180 0e b1 9b be 2f 81 1f 3e 4b eb 80 be a3 79 b2 3e
       -0.3040852 0.15576623 -0.25179514 0.34858426
000190 1d c4 d8 3c 82 85 35 3e 98 9c 05 be 1e 9a 46 bd
       0.026460702 0.1772671 -0.13048017 -0.04848682
0001a0 b0 54 a4 be bc 7d cf 3d 57 d4 31 bf 5c fd 08 3f
       -0.3209586 0.10131404 -0.6946463 0.53511596
0001b0 f7 e1 73 3e ae b0 c7 be 7b 18 a4 3e 79 b7 1f bf
       0.23816667 -0.39001983 0.32049927 -0.6238933
0001c0 d6 ee 77 3e b1 5d 1e bb 81 91 8a be 5a 91 fa 3d
       0.24212202 -0.002416473 -0.27064136 0.12234755
0001d0 ab 9c 8d 3d 9c 02 fa 3e 8c fc d3 3e c4 3e 08 bf
       0.06914648 0.48830116 0.41403615 -0.5322077
0001e0 94 7c 8f be 42 66 ae be 46 b9 b6 be d8 7c 9c 3e
       -0.28024733 -0.34062392 -0.35688227 0.30563998
0001f0 24 8e 98 3e 8f 47 c6 be 1f b6 34 bf 05 00 f6 3e
       0.29795945 -0.3872647 -0.70590395 0.4804689

tk f4 [16, 16]
000000 7b 0b b4 3e ee 66 91 be 40 42 db 3b 9c e7 9b 3e
       0.3516501 -0.28398842 0.006691247 0.3045014
000010 7a 3a a4 be bd 6a c1 bd f1 44 fc 3e 75 79 8b 3e
       -0.32075864 -0.09444187 0.49271348 0.27241102
000020 27 03 c2 bc 15 ae cb 3e d1 e1 20 bf 78 62 0b 3f
       -0.023683144 0.39781252 -0.6284457 0.54447126
000030 61 49 d1 be 8c 78 60 3e 1d 69 a7 3e 36 e6 51 3e
       -0.40876296 0.21920985 0.32697383 0.20497975
000040 79 08 be bc c5 ea 84 be d1 28 69 bf 25 87 be be
       -0.0231974 -0.25960365 -0.91077906 -0.37212482
000050 4c fb a4 3e d6 e3 e4 bd af 2e c8 3d 0c a8 47 bd
       0.32222974 -0.11176269 0.09774529 -0.048744246
000060 e6 1f 9d 3e f7 6b 0a be 08 af 9b 3e b7 b2 43 be
       0.306884 -0.13517748 0.30406976 -0.19111143
000070 a8 57 b0 be b0 d4 56 3e 85 18 81 be 3f dc 32 be
       -0.34441876 0.20979571 -0.2521402 -0.1746683
000080 c6 d4 b0 3d 5b f7 50 be 8f cd 52 3e 7f 43 0c bd
       0.08634333 -0.20406859 0.20586227 -0.034244057
000090 c1 87 61 3e ef 65 e8 be 9e 9b dc bd 5a b5 6f bd
       0.22024442 -0.4539027 -0.10771869 -0.05852256
0000a0 34 95 9a be e6 67 85 be c8 b9 d4 3e d2 e9 e2 bc
       -0.30191958 -0.2605583 0.4154799 -0.027699385
0000b0 ef f7 d8 bd b4 df cd 3e 73 3d 94 be 20 b5 28 be
       -0.105941646 0.40209734 -0.28953132 -0.16475344
0000c0 2a 6f a0 3e cb a7 a4 be fe e8 45 be 0c ca 6d 3d
       0.3133481 -0.32159266 -0.1932716 0.058054015
0000d0 a8 ab 5e be ff 91 ae 3e 23 ab 3b 3e 24 5e 9b 3c
       -0.21745169 0.3409576 0.18327002 0.018965788
0000e0 06 99 17 bb 44 97 d8 3c b9 6f bf be 8e 78 c9 be
       -0.002313198 0.026439317 -0.37389925 -0.39349788
0000f0 63 2c 49 3e 74 35 3c 3e 2b 61 9d 3e 41 cc a0 bd
       0.19645838 0.18379766 0.30738196 -0.07851458
000100 ce 46 c7 3b 60 65 84 be 78 a0 df bb b5 a1 7a be
       0.0060814386 -0.25858593 -0.0068245493 -0.24475749
000110 52 e0 a1 3e 0f 39 25 bf 22 73 9d be e8 2b 43 3e
       0.31616455 -0.6454019 -0.30751902 0.19059718
000120 91 ed f1 bc 73 c3 9d 3e d0 6a 90 be 41 59 d2 3e
       -0.029532226 0.30813178 -0.2820649 0.4108372
000130 16 7f 40 3e 72 25 e4 3e 8a 84 22 bf 18 f6 69 3e
       0.1879848 0.44559819 -0.6348349 0.22847784
000140 a1 ab 65 3f 19 85 ad bd a4 e3 4a 3e cd 7d 4e be
       0.8971501 -0.08472652 0.198134 -0.20165177
000150 89 c4 cb 3e 1a 87 5c bd 20 6c d5 be ff 3e d4 3e
       0.39798382 -0.05383978 -0.41684055 0.41454312
000160 81 9a fe 3e b2 8f d8 be ef df 19 3d ce c7 c9 3d
       0.49727252 -0.4229713 0.037567075 0.09852563
000170 8c 00 16 3e 09 a7 c5 3d 80 8b ca 3e cb 56 3b 3f
       0.14648646 0.09651 0.39559555 0.7317931
000180 ee aa 64 3d ad 9a b7 3e bc 0f 96 be c2 7f fd 3c
       0.055827074 0.35860196 -0.2930888 0.030944709
000190 5e 54 5f be 41 69 fd 3d e1 37 ca bd c9 f1 89 3e
       -0.21809527 0.12373591 -0.09873939 0.2694228
0001a0 10 09 90 3e 70 84 b8 bd a8 c9 de bc 96 f6 cb bd
       0.28131914 -0.090096354 -0.027195767 -0.09959142
0001b0 38 23 6d be 23 f4 46 be 8d 6f c3 bd 01 10 01 3e
       -0.23157966 -0.19429068 -0.09542761 0.12603761
0001c0 2e 85 87 3d 38 77 e3 3e 34 ae 73 3e 75 a3 e6 be
       0.06617199 0.44426894 0.23796922 -0.45046583
0001d0 4f 16 20 be a7 f2 40 bf ec 90 4e 3e 38 d8 e4 be
       -0.1563351 -0.7537026 0.20172471 -0.44696212
0001e0 ee b0 4d 3e 2b 18 9f 3d c1 9c ee be c5 a8 3c be
       0.20087025 0.077682815 -0.4660397 -0.18423755
0001f0 c3 16 1a bf 30 3e 32 be 18 47 b9 bb 45 f4 9c bd
       -0.6019098 -0.17406535 -0.005654227 -0.07663778
000200 31 0b 91 bd e1 07 7c bd 0e 43 00 3f 01 27 a9 3d
       -0.07082213 -0.06153095 0.5010232 0.082593925
000210 e0 c9 02 bf ba 87 39 be 2f 19 70 be 2a f6 11 3e
       -0.51089287 -0.18118182 -0.23447107 0.1425406
000220 b5 5d 95 bd 15 07 79 be 01 04 17 3f 59 85 8c be
       -0.07293264 -0.24319108 0.58990484 -0.27445486
000230 32 29 5a be cf 4e 9c 3d ee 88 31 3e e2 23 8b be
       -0.21304777 0.07632219 0.17337391 -0.27175814
000240 53 60 86 3e 6e e6 c0 be 65 32 d7 be 61 bc 33 3e
       0.26245365 -0.37675804 -0.42030635 0.1755233
000250 79 15 f9 be 96 73 0f be fe 7c 40 be eb d8 90 bd
       -0.48649195 -0.14008936 -0.1879768 -0.07072624
000260 ac 50 97 3e 1f 97 dd 3d 51 9e 44 3e a5 6f 01 be
       0.29553735 0.1081984 0.19201018 -0.12640245
000270 99 ab 15 bf dd b7 30 be 33 61 bd 3e f9 29 bc be
       -0.5846496 -0.17257638 0.3698822 -0.36750773
000280 64 00 3e be f3 2d 0a 3f 00 a0 9c bb fa 35 05 3f
       -0.18554837 0.5397636 -0.0047798157 0.52035487
000290 27 e5 2a be eb ba b2 be 6f 38 e7 3c 53 c6 c2 3c
       -0.16688977 -0.34908232 0.028225152 0.023776209
0002a0 b0 1f 8f bd 64 35 43 3e e3 80 f4 3e 3d ea cb be
       -0.06988466 0.19063336 0.47754583 -0.39827147
0002b0 6f a6 bd bd d2 71 ca be 0d f9 87 be f9 e1 0d bf
       -0.0926026 -0.39539963 -0.26557198 -0.5542293
0002c0 6c 39 83 3e 56 55 fc 3d 1f d7 50 be 79 d0 26 bf
       0.25629747 0.12320964 -0.20394562 -0.65161854
0002d0 e2 1c 18 bf ea 0b 97 3e 43 6f 42 be 83 91 8d 3e
       -0.5941907 0.29501277 -0.18987755 0.2765008
0002e0 5d 68 20 3f 4f 65 10 bf 84 b6 1f 3d 9b b8 1c be
       0.62659246 -0.56404585 0.03899242 -0.15304796
0002f0 1b 20 02 be a7 34 66 be 1f 5f f4 3e ff 8f fc 3e
       -0.1270756 -0.22481023 0.47728822 0.4932861
000300 8b a7 68 bd ed 62 a0 3c de 46 d5 be 70 e5 d0 3e
       -0.056800406 0.019578421 -0.4165563 0.40800047
000310 f4 ae 98 3e 98 9d ad bd ec b1 df be 3f ac 26 3e
       0.2982098 -0.08477324 -0.4369043 0.16276644
000320 25 47 ba 3e 20 3e 17 bd ff 54 3e be f5 17 c7 bd
       0.36382404 -0.03692448 -0.18587111 -0.09721366
000330 84 32 65 3e 81 54 c4 be 7d 36 d8 3c f3 ba 05 be
       0.22382551 -0.3834572 0.02639317 -0.13059597
000340 85 8f b1 be 24 44 06 3f a1 c1 3b be 43 eb 12 bf
       -0.3467981 0.52447724 -0.18335582 -0.5739023
000350 1b 0d 83 3e dc d2 88 3e 4a 78 1f bd 67 c6 a5 3d
       0.25595936 0.26723373 -0.038933076 0.08094483
000360 08 41 6d be 16 c1 75 bd eb 5c 19 bd 72 37 a5 be
       -0.23169339 -0.059998594 -0.03744213 -0.32268864
000370 48 a1 92 3d 52 16 fb 3e a5 b8 c5 3e 71 e4 35 be
       0.07159668 0.49040467 0.38617435 -0.17762925
000380 9a e6 10 be a9 d7 03 be ce d7 7b 3e bc 13 f1 bc
       -0.14150468 -0.12875237 0.24594042 -0.029428355
000390 29 68 b9 3e 58 0e c6 3e b9 7e dd be 4d e5 fd 3e
       0.3621228 0.38682818 -0.43260744 0.49589005
0003a0 f5 7e 91 3e 0f 77 c6 be d8 f8 98 3e f2 65 bf be
       0.28417173 -0.3876271 0.29877353 -0.37382466
0003b0 e2 a6 12 be 7b 89 bf 3e 45 42 bf 3e 77 fa ae 3e
       -0.14321473 0.37409577 0.37355247 0.34175465
0003c0 5f 14 b6 3e 2c 49 15 3d 1e 42 ab 3e c9 61 c8 3e
       0.35562417 0.036446735 0.3344888 0.39137104
0003d0 1a f9 d2 3d 3f 70 bf bd 46 48 f3 3d a2 c5 3f 3f
       0.103014186 -0.09347581 0.118790194 0.7491094
0003e0 81 86 e3 3e 49 cb d1 be 52 c8 3a bd 4b 6e 7c be
       0.44438556 -0.40975407 -0.045601197 -0.24651448
0003f0 85 88 61 be 0a 77 a3 3e 27 4e a6 bd 7d 75 c2 3e
       -0.22024734 0.31926757 -0.08120375 0.3798026

p f4 [12]
000000 3e ee 8e 37 98 fa 20 b8 92 c6 92 b7 a2 ad ce 36
       1.703866e-05 -3.8380356e-05 -1.7497023e-05 6.159492e-06
000010 23 66 e3 b6 90 03 8d 38 7c 54 e4 37 5e 97 24 36
       -6.7770175e-06 6.7240675e-05 2.721906e-05 2.4526012e-06
000020 85 3f d4 b6 6e 5e be 34 32 f2 10 37 2a 33 f9 b5
       -6.325487e-06 3.5458964e-07 8.639459e-06 -1.8566836e-06

i7 f4 [12]
000000 76 f3 26 3f 75 db db 40 0c 90 bf 3f ed a9 b0 3f
       0.6521524 6.870539 1.4965835 1.3801857
000010 fb 72 34 3f eb 93 1e 40 d8 9c ae 3f 3d 9e a8 3f
       0.70487946 2.4777782 1.3641615 1.317329
000020 da 8d 7c 3f f2 70 07 40 46 fc c0 3f 09 5b b7 3f
       0.9865395 2.1162686 1.5076988 1.4324657

o8 f4 [16]
000000 83 30 86 b8 48 22 3b 38 72 fd 34 b8 d9 9d 67 37
       -6.398654e-05 4.46162e-05 -4.3151384e-05 1.3805425e-05
000010 75 ab 22 38 d4 06 8e 37 a4 46 6a 37 10 30 c8 38
       3.878349e-05 1.6930899e-05 1.3963934e-05 9.5456955e-05
000020 6a 0a 86 b8 40 80 e7 38 be 81 f9 38 fa 44 e7 38
       -6.391558e-05 0.00011038827 0.000118974116 0.00011027786
000030 c4 01 63 b7 71 fe a2 b8 96 d1 e7 b7 f8 a8 8a b8
       -1.35306655e-05 -7.7721554e-05 -2.7634942e-05 -6.611826e-05

1c f4 [16]
000000 f3 7c 80 3f 4e 0c dd 3f 0b 17 96 3f cf a0 11 40
       1.0038131 1.726938 1.1725782 2.27544
000010 0e 4d cf 3f 41 87 be 3f 35 13 36 40 bc a5 ca 3f
       1.619539 1.4885026 2.8449223 1.5831828
000020 ab 75 83 3f 48 b6 7d 40 0f 4b 6a 3f 1c 9e a4 3f
       1.0270284 3.9642506 0.9152078 1.2860751
000030 53 63 9a 3f 52 5c ba 3f d6 83 b4 3f b3 97 68 3f
       1.2061561 1.4559424 1.4102733 0.90856475

xe f4 [14, 8]
000000 50 9b 99 3d 71 7d af 3d da 4d 82 3d e1 c9 64 be
       0.07500327 0.08568848 0.06362505 -0.22342636
000010 64 f5 fa 3e 46 c5 fb 3e 35 cf 9d be 92 7b 23 3e
       0.49015343 0.49173945 -0.3082215 0.15965107
000020 3a 2c a6 3d ed 1f 11 3e 61 26 55 3e 45 7c 80 3d
       0.08113904 0.14172335 0.20815422 0.062737025
000030 ec 3e d1 be 1b 71 e1 3e cd 61 94 be 69 b2 2d 3e
       -0.40868318 0.44031605 -0.28980866 0.1696259
000040 e2 37 7b be 3b ce bc be 19 41 8b 3d 8a 6f b6 bd
       -0.24533036 -0.3687609 0.06799526 -0.08907993
000050 08 37 b8 3e ef 74 62 bd a5 0c 0f 3e 53 fb 2e be
       0.35979486 -0.055287298 0.13969667 -0.1708806
000060 58 60 ff 3e 77 dd be 3d d9 e1 53 be 72 7f 07 3f
       0.49878192 0.09319585 -0.20691623 0.5292884
000070 01 26 13 be 3e 9a 54 3d 75 19 3b be ac ce 02 3e
       -0.14369966 0.05190491 -0.1827143 0.12774152
000080 79 14 bf 3d 92 61 04 3f 13 6e c4 3d 99 b6 b9 3d
       0.09330077 0.5171138 0.095913075 0.09068031
000090 99 3f 8d 3e 1b 9c b7 3e 46 c8 d7 3e c8 27 56 bd
       0.27587584 0.35861287 0.42144984 -0.052284032
0000a0 03 35 9c 3e 58 61 45 be 47 24 34 3e 32 30 a9 3d
       0.30509195 -0.19275415 0.17591964 0.08261146
0000b0 f1 4a cb be 12 3d 02 3f 20 5a 92 be 80 75 bc bc
       -0.39705613 0.50874436 -0.28584385 -0.023005247
0000c0 00 ef a5 bd 59 04 88 be 45 be 09 3d e0 88 73 bc
       -0.08102226 -0.26565817 0.03362872 -0.0148641765
0000d0 e8 37 fe 3b c2 89 fc 3e f9 7c 52 3e 6e a3 a1 3e
       0.0077581294 0.4932385 0.20555486 0.3157
0000e0 e4 40 1e 3f 5a 4a bd bd b2 fb 52 be d7 55 9c bd
       0.61817765 -0.09242697 -0.20603827 -0.0763356
0000f0 a8 d2 f9 be 19 3d 6c be ae 96 72 3e 57 d0 63 3c
       -0.4879353 -0.23070182 0.23690292 0.013904653
000100 81 b9 6b be 60 c9 22 be dd ff 16 3e dc 0b 9f 3e
       -0.23019983 -0.15897131 0.14746042 0.31063735
000110 ac 33 95 3e b2 4d 2f bf fe 84 fb 3d 3f 6c d1 be
       0.29140985 -0.6847793 0.122812256 -0.40902898
000120 1a 8f 85 3e a6 e5 49 3d 0a 22 12 be 06 c8 f2 3b
       0.2608574 0.049291275 -0.14270797 0.0074090986
000130 b7 f6 fb be 5e 0a 9b 3d de 43 fb 3e 53 b9 dc bd
       -0.49211666 0.07570337 0.49075216 -0.10777535
000140 53 7d a0 bd 01 1f 98 be 33 7c 11 3d 74 76 66 bd
       -0.07836404 -0.29711154 0.035518836 -0.05626531
000150 50 ca 02 3d 28 14 33 3e 19 7d 06 3f 91 c8 58 be
       0.03193122 0.17488158 0.52534634 -0.2117026
000160 cb f9 89 bd f8 ac eb bd ff e1 67 bd 6b a1 7c be
       -0.06737097 -0.115076005 -0.05661201 -0.24670951
000170 1b 7c bc be 61 f4 f7 3c 98 97 69 3e a5 a6 28 be
       -0.36813435 0.030267896 0.22811735 -0.1646982
000180 9e c3 41 3e 29 fe 50 3e c2 df b7 3e 01 5c 3f 3e
       0.18922278 0.20409454 0.359129 0.1868744
000190 3c b2 5a bd 2e 94 25 bc 48 22 f4 be 73 8d c5 bd
       -0.053392634 -0.01010613 -0.47682405 -0.0964612
0001a0 52 8d 29 bc c4 64 f7 3d ac f7 9d 3e b4 0f ad be
       -0.010348635 0.120797664 0.3085302 -0.33801043
0001b0 65 cf c2 3e 1a 23 3e 3e de 92 d7 3d 72 4d be 3d
       0.38048854 0.18568078 0.105260596 0.09292115

tz f4 [12, 9]
000000 6e f7 e7 bc 90 48 7a 3d 29 45 86 be af a5 fc be
       -0.028316226 0.061104357 -0.2622464 -0.49345157
000010 a5 04 b5 bf 57 f1 0c bf 21 07 2c bf 7a c5 72 3f
       -1.4142042 -0.55055755 -0.6719838 0.94832575
000020 8d 33 44 3f 27 7f 01 bb 2c 68 b7 be 6d a0 b5 3e
       0.7664116 -0.0019759627 -0.35821664 0.35473958
000030 73 a3 99 3b 27 e7 08 41 65 1a 7c 3f 08 91 34 be
       0.004688674 8.556434 0.98477775 -0.1763345
000040 4d 16 5b 3b cd c1 52 3d 60 0b 96 ba 60 20 44 bd
       0.003343004 0.051454354 -0.0011447482 -0.047882438
000050 03 7d 47 3e 55 17 e3 3e d7 e1 d3 3f 83 f2 d0 3c
       0.19481282 0.44353738 1.6553296 0.025506264
000060 15 32 06 bf 1a 59 ea 3e 44 48 e2 3e 4e 75 07 3d
       -0.5242017 0.45771104 0.4419576 0.033070855
000070 af 24 b0 be 00 6e c1 be 2c f9 7a 3d 15 4a 73 40
       -0.34402987 -0.37779236 0.061272785 3.8013966
000080 35 19 36 bf 98 ab df 3e ca 22 0d 3d b2 18 5e 3d
       -0.7113221 0.43685603 0.034457006 0.05422277
000090 7b 03 5f 3e 3a 95 e3 3e 12 36 d3 3d 53 8f 19 3f
       0.21778671 0.44449788 0.103130475 0.5998432
0000a0 41 26 62 bf 3e 37 41 3e 7b 3b 92 be a0 6e 95 be
       -0.8833962 0.1886873 -0.28561005 -0.29185963
0000b0 8c 21 33 bf df f9 16 bb d0 a7 bd bd 04 e7 33 be
       -0.69973063 -0.0023037118 -0.09260523 -0.17568594
0000c0 eb a5 06 3f a7 43 3f c0 67 de 82 be c3 d8 a3 3c
       0.5259692 -2.9885042 -0.25560305 0.020000821
0000d0 d6 fd b3 bf e9 47 35 be f1 5c a4 3e 0e 91 b4 be
       -1.406184 -0.17703213 0.3210216 -0.35266918
0000e0 39 f4 c3 be 2e e4 04 be c2 fa 47 40 28 d6 26 3e
       -0.38272265 -0.12977669 3.12468 0.16292632
0000f0 7a 1b b3 3e 28 2b f0 be 95 ed bb bf d4 0f f7 be
       0.349819 -0.46907926 -1.4681879 -0.48254263
000100 f0 28 ed bd c0 c7 a9 3d 3b e4 08 bf f0 db b8 3e
       -0.11580074 0.082900524 -0.5347325 0.361053
000110 e7 af c9 be 88 cc 83 bf cc 3a 21 3d 12 59 63 3f
       -0.39392015 -1.0296793 0.039362714 0.88807786
000120 94 b4 b9 be fe f8 f3 3e 45 fb 8c 3e d7 f0 96 3e
       -0.36270583 0.47650903 0.27535453 0.2948062
000130 95 18 1c bf 27 66 a2 3e 0d 86 48 3f 7b bc 98 3e
       -0.6097501 0.3171856 0.78329545 0.298313
000140 ab 8a 13 bf fa 7c 46 3b 80 22 84 bb 4c da 99 bd
       -0.57633466 0.0030286894 -0.004032433 -0.0751234
000150 9f 11 70 be f5 5e ff 3f e1 e1 85 3e 5e 70 d7 3f
       -0.23444222 1.9950854 0.26148894 1.6831167
000160 7d 77 75 bd 3d 3a 9b 3e 51 26 d4 be 30 57 db 3e
       -0.059928406 0.3031787 -0.41435483 0.42839956
000170 27 75 1e 3e 04 32 f5 3d 01 6a 30 bf 49 c2 f3 3d
       0.15474378 0.1197243 -0.6891175 0.11902291
000180 03 3c 54 3e 32 c1 55 be be c7 12 c0 b9 58 28 be
       0.20726018 -0.2087448 -2.2934413 -0.16440095
000190 fe dc ea be 4d c5 9f 3e 46 b3 dd 3e 2c 9b 9c be
       -0.4587173 0.31205216 0.43300837 -0.30587137
0001a0 0f 9e 0e 3f f6 35 67 3f 46 a2 f0 3c 4b 63 32 3e
       0.5570993 0.9031671 0.029374253 0.1742069

zl f4 [9]
000000 72 03 8d bc 00 00 00 00 1a b2 17 3e 7c 5a a3 be
       -0.017213557 0.0 0.14814034 -0.31904972
000010 f6 28 9f 3f 17 68 be 3e f4 6d 0e 3f bb 53 8a be
       1.2434375 0.3718879 0.55636525 -0.27017006
000020 5a 40 9f be
       -0.31103784

pw f4 [16, 12]
000000 75 46 c4 3e ec c2 8a 3e 29 e5 00 bd 02 78 66 3e
       0.38335004 0.2710184 -0.031468544 0.22506717
000010 28 1e c7 be 1e 56 6c 3d a2 4f 6f 3e cb fd de 3e
       -0.38890195 0.057699315 0.23370221 0.43553004
000020 9b 10 0c bf 9e 6d ac 3e 57 9a cf bd d0 eb 30 3e
       -0.5471284 0.3367738 -0.1013686 0.17277455
000030 90 bf 6c 3d cc 65 ba bd 17 83 80 be 55 75 34 be
       0.057799876 -0.091014475 -0.25100014 -0.17622884
000040 32 33 18 bf 11 b5 cb 3e 4e 67 8f be 49 b9 cd 3e
       -0.5945312 0.3978658 -0.28008503 0.40180424
000050 83 e0 05 3d ac 91 ec 3e 7d 34 4e be 46 d2 5d 3d
       0.032684814 0.4620489 -0.2013721 0.05415561
000060 af c0 24 3d 9c 16 24 3c d6 2b 43 be e5 a8 04 3e
       0.04022282 0.010015156 -0.19059691 0.12955053
000070 98 a7 b7 be f9 47 88 3e 1d a2 d1 3d 97 f0 8c be
       -0.3587005 0.2661741 0.10235999 -0.27527305
000080 4f 11 3c 3f f1 7c a5 3e 50 c8 ed 3e 04 bf 38 3f
       0.7346391 0.32321885 0.4644189 0.72166467
000090 bc a5 46 be aa b6 f1 be 53 2f 72 3e 27 e0 48 be
       -0.1939916 -0.47209674 0.23650865 -0.19616757
0000a0 a1 6e 9c 3e 08 81 2d 3e ff 68 3a 3e 5b 60 a6 3e
       0.30553153 0.16943753 0.18204115 0.32495388
0000b0 ed cf 65 3e 9e ef 56 be 23 f1 43 3f 51 07 e7 be
       0.22442599 -0.20989844 0.7653982 -0.4512277
0000c0 90 98 02 3f 2f 50 a9 3b ed eb 8a 3e e1 e3 84 be
       0.5101404 0.0051670293 0.27133122 -0.25955108
0000d0 ab 88 79 3e 6f b0 aa be 85 b3 26 bf 9d 59 b2 be
       0.24368541 -0.33337733 -0.65117675 -0.34833995
0000e0 12 2e 9d 3e 61 7b b3 be c6 ed c9 bd 2c 2f 23 bf
       0.3069921 -0.35055068 -0.09859805 -0.63743854
0000f0 ba ea bd 3d be 2d c3 3e 78 ac 9d 3e e2 1c 86 3e
       0.09273286 0.38120836 0.30795646 0.2619391
000100 24 c6 ec 3e c6 e5 09 3e 41 35 db be 26 f9 88 3d
       0.4624492 0.13466558 -0.42814067 0.06688146
000110 e5 34 3f bf b7 62 e3 3d 78 b3 e7 be 76 e8 83 3c
       -0.74690086 0.11102813 -0.4525411 0.016102057
000120 02 8c a0 3e b1 90 b0 be 28 d5 c9 be 57 95 f2 be
       0.31356817 -0.3448539 -0.39420438 -0.47379562
000130 a6 3f cc be 71 64 48 3e 87 50 a1 be c4 4f 98 3e
       -0.3989231 0.19569565 -0.3150675 0.29748356
000140 65 14 6f be 42 93 3a be 16 ad 29 bd e7 1e 20 bf
       -0.23347624 -0.18220237 -0.041424833 -0.62547153
000150 f4 3a 7b 3e 46 76 11 3f 9f 68 99 bd f1 e6 e7 3e
       0.24534208 0.56821096 -0.07490658 0.45293382
000160 14 80 8d bd 49 c2 b3 be b9 9e d5 3e 5e 00 fb 3d
       -0.069091946 -0.35109165 0.41722658 0.122559294
000170 ed bf f1 3e ae b6 a6 3c 6b 43 f6 3e 65 93 79 3e
       0.4721674 0.02035078 0.4809831 0.24372633
000180 4f 66 e6 3c aa 7f bb 3d b0 78 49 3f 01 48 a1 3e
       0.028124956 0.09155209 0.7869978 0.31500247
000190 92 13 95 bd c3 5c 5d bc fa 91 8e 3e 56 56 b0 3d
       -0.07279123 -0.013510886 0.27845746 0.08610217
0001a0 10 28 1d be 91 f4 3d 3e 45 58 ed bd 2b ff 0d 3f
       -0.15347314 0.18550326 -0.11589102 0.5546748
0001b0 c3 a7 29 bf aa 7f 07 3f 94 86 07 be 8f 49 c4 3e
       -0.6627161 0.52929175 -0.13234931 0.3833737
0001c0 5b 17 ba 3d b8 03 03 bf 65 07 84 3d 15 d5 c3 bd
       0.09086486 -0.5117755 0.06446723 -0.095621265
0001d0 a2 02 94 3e bc 70 3a 3f 71 6f f9 3d 18 a0 df 3e
       0.2890826 0.7282827 0.12179459 0.4367683
0001e0 91 be e0 be f8 83 9e 3e ca 7b 51 be 0e d0 8b be
       -0.4389539 0.3096006 -0.20457378 -0.2730717
0001f0 3e 2d ce be f9 b3 df 3e 78 fc 08 3f b0 6d e8 be
       -0.40268892 0.43691996 0.53510237 -0.45396185
000200 29 30 b6 be f6 b7 56 3e 16 b5 4e 3e 1e 59 1e 3e
       -0.35583618 0.20968613 0.20186266 0.15463683
000210 5a 84 ac 3e 70 46 c9 be fa 0d b2 3e 81 83 cb 3e
       0.33694726 -0.39311552 0.34776288 0.39748767
000220 7b 4c b2 be 64 c7 9f 3e cc 4a 5a 3e 73 bd 1e bd
       -0.34823975 0.3120681 0.21317595 -0.03875489
000230 46 cb 80 be 51 46 09 3f 4c 74 79 bd 6d ec ab bd
       -0.25155085 0.5362292 -0.060901925 -0.08394704
000240 a6 a0 2e 3e 13 ad 99 be 9c 93 cd be 2a 66 95 3d
       0.1705347 -0.30014858 -0.4015168 0.07294877
000250 f3 f4 19 3f 04 37 02 be c2 9f 4a be f0 27 cf be
       0.6013939 -0.127163 -0.19787505 -0.40460157
000260 f7 17 6b be 5b eb c3 3e 38 06 7f 3c 70 43 d7 be
       -0.2295836 0.382655 0.0155654475 -0.42043638
000270 13 cf 51 3d 94 ff 8f be ae 56 4d 3e 53 0c bb be
       0.051222872 -0.28124678 0.20052597 -0.3653284
000280 35 28 f1 be 6e 59 07 3e 26 6d 18 3a 50 57 7d 3e
       -0.47100988 0.13217708 0.0005814604 0.24740338
000290 18 2b a8 3e 2c 91 56 bd e7 d3 df be 63 5b 9a be
       0.32845378 -0.05238454 -0.43716356 -0.30147848
0002a0 d4 12 7e be 8a 5d 3a 3e e2 b8 52 be 33 f1 f4 3d
       -0.2481187 0.18199745 -0.2057834 0.119600676
0002b0 bd 25 64 3e 18 6a 03 bf 43 4d 93 3e c2 24 14 3f
       0.22280021 -0.5133376 0.28769884 0.5786859
0002c0 6e a0 af be 6a 2e 5e be b5 6d 90 bb 14 45 24 3e
       -0.34302086 -0.21697393 -0.0044076093 0.16041976
0002d0 c4 17 92 bd 32 f9 b4 3e 1a 39 07 3f fc 4f 22 3f
       -0.07133439 0.3534637 0.52821505 0.63403296
0002e0 20 4c 3b 3e 82 0a 7d 3e 53 a9 b1 bb e5 3c bb 3e
       0.18290758 0.2471104 -0.0054217963 0.36569896
0002f0 93 b3 52 3e f2 0f 63 3d 04 4c e1 bd 1e f8 f7 be
       0.20576315 0.05543513 -0.11000827 -0.48431486

la f4 [16]
000000 75 85 cc b5 12 59 22 b8 71 cd 8b 37 2a c2 39 b7
       -1.5238026e-06 -3.8706763e-05 1.6665757e-05 -1.1072067e-05
000010 fc b4 93 b8 d8 a6 0f 37 ea a9 1f b7 cd 48 b6 b7
       -7.043217e-05 8.5623105e-06 -9.5167e-06 -2.1729991e-05
000020 ee 10 35 b6 08 39 a6 b7 00 88 49 38 18 fa ad 36
       -2.6980956e-06 -1.98153e-05 4.8048794e-05 5.1849165e-06
000030 5d b9 00 36 2d 4e 8a b7 77 f5 74 37 86 ae 23 b7
       1.9181382e-06 -1.6487285e-05 1.4600685e-05 -9.7561915e-06

de f4 [16]
000000 be 40 68 be 01 d1 0a 3e e0 78 b9 3c 50 4d 94 be
       -0.22680947 0.13556291 0.022640646 -0.28965235
000010 c3 f8 28 be e0 c3 58 bf f8 55 53 bf 84 8d 82 3f
       -0.16501145 -0.8467388 -0.8255305 1.0199437
000020 87 2c 1c 3f 26 ae 85 3f 8c 22 0c 3f fe be a8 3e
       0.61005443 1.0443771 0.54740214 0.32958215
000030 a4 b6 4c bf 80 08 77 be f1 b1 97 3f 5b 01 8b bf
       -0.7996619 -0.24124336 1.1851178 -1.0859789

lm f4 [16]
000000 1d 8c b9 40 d0 95 8a 40 a6 fe 67 40 a5 48 6f 40
       5.7983537 4.3307877 3.6249175 3.7388089
000010 6e a1 0c 41 53 5e 04 41 f0 f6 6a 40 c3 af 97 40
       8.789412 8.273028 3.6713219 4.7402053
000020 09 5f b2 40 d8 11 b1 40 da 33 df 40 b1 ba 46 41
       5.574101 5.533428 6.9750795 12.420579
000030 44 fb 96 40 cd ba ab 40 72 0f b4 40 00 a4 61 40
       4.718172 5.366553 5.6268854 3.5256348

ym f4 [16]
000000 00 00 80 3f 00 00 80 3f 00 00 80 3f 00 00 80 3f
       1.0 1.0 1.0 1.0
000010 00 00 80 3f 00 00 80 3f 00 00 80 3f 00 00 80 3f
       1.0 1.0 1.0 1.0
000020 00 00 80 3f 00 00 80 3f 00 00 80 3f 00 00 80 3f
       1.0 1.0 1.0 1.0
000030 00 00 80 3f 00 00 80 3f 00 00 80 3f 00 00 80 3f
       1.0 1.0 1.0 1.0

48 f4 [16]
000000 00 00 00 00 00 00 00 80 00 00 00 80 00 00 00 00
       0.0 -0.0 -0.0 0.0
000010 00 00 00 80 00 00 00 00 00 00 00 00 00 00 00 80
       -0.0 0.0 0.0 -0.0
000020 00 00 00 80 00 00 00 80 00 00 00 80 00 00 00 80
       -0.0 -0.0 -0.0 -0.0
000030 00 00 00 00 00 00 00 00 00 00 00 80 00 00 00 00
       0.0 0.0 -0.0 0.0

yz f4 [202, 14]
000000 95 1a bd 3f 9b cd 12 bf 66 77 ce 3f b4 de 20 40
       1.4773737 -0.5734498 1.6130188 2.5135927
000010 0f 31 b0 bf b0 54 6d c0 a7 47 cc 3f 88 69 bb bf
       -1.3764971 -3.708294 1.5959367 -1.464158
000020 4f d9 32 bf 2a fd 1a 40 b4 b4 30 be cb 2d 76 40
       -0.69862837 2.421702 -0.17256433 3.846545
000030 89 2d 81 40 79 ab 86 3e 0b e8 c8 bf 18 78 28 3f
       4.0368085 0.26302698 -1.5695814 0.6580825
000040 0c d1 3e c0 6a 75 49 c0 67 af d1 3f 38 fe 94 40
       -2.9815092 -3.1477914 1.6381654 4.6560326
000050 44 e6 ec bf 75 53 bb 3f e8 5b a5 3f 7d 3e 5c c0
       -1.8507771 1.4634844 1.2918673 -3.441314
000060 7e 9c 66 3c 8f 10 8e c0 c0 03 aa c0 d0 00 dd bd
       0.014075397 -4.4395213 -5.312958 -0.107911706
000070 f3 90 66 c0 a4 b0 b1 3f 69 3e d8 c0 3e c8 ec c0
       -3.602597 1.3882031 -6.7576184 -7.3994436
000080 23 37 83 40 f8 df 31 41 df a4 a7 c0 52 0d 80 40
       4.1004806 11.11718 -5.238876 4.001626
000090 5d 11 1c 40 3e 1d 00 c1 a2 02 a4 3e 10 8d 31 c1
       2.4385598 -8.007139 0.3203326 -11.096939
0000a0 35 bf 51 c1 6f 7e 1e bf 71 c9 3a c0 92 ff 29 40
       -13.109181 -0.6191167 -2.918545 2.6562238
0000b0 58 f2 ef c0 58 1e 0b c1 c8 a9 83 40 b7 6a 4a 41
       -7.498333 -8.694908 4.1144753 12.651053
0000c0 03 9e a7 c0 d2 6c 9f 40 fb 2f 8f 40 14 a3 ee c0
       -5.2380385 4.9820337 4.474607 -7.457407
0000d0 e4 3a 08 bf 73 49 52 c1 f1 53 74 c1 56 20 e8 be
       -0.5321486 -13.142932 -15.2704935 -0.4533717
0000e0 18 b1 78 c0 46 b9 19 40 da 13 01 c1 a8 cf 1f c1
       -3.885809 2.4019332 -8.067347 -9.988197
0000f0 d2 e4 a0 40 f2 d6 6f 41 55 16 c0 c0 6f af ae 40
       5.027932 14.989977 -6.002726 5.458915
000100 96 db 97 40 61 e0 07 c1 b7 eb 8b bf 68 87 6e c1
       4.745555 -8.49228 -1.093131 -14.908058
000110 0b 93 8a c1 9f 12 05 bf f2 24 cc c0 75 12 4b 40
       -17.321798 -0.5198154 -6.37951 3.1730015
000120 35 a2 1c c1 fd 9a 50 c1 29 22 f2 40 1b 2d 9e 41
       -9.789601 -13.037839 7.56667 19.772024
000130 06 d5 f2 c0 f0 dc de 40 72 4f b2 40 f7 ec 46 c1
       -7.588504 6.96447 5.572198 -12.432853
000140 a7 d9 18 bf 72 e5 98 c1 4f eb b4 c1 ce 06 f7 bf
       -0.5970711 -19.112034 -22.614897 -1.9298952
000150 7e af db bf 45 2e 0c 3f fe 4e 3a c0 ec 52 3a c0
       -1.7162931 0.547581 -2.9110713 -2.9113111
000160 9e d3 17 40 b4 af a4 40 3e b9 fb bf 30 10 a8 3f
       2.372291 5.146448 -1.9665906 1.312994
000170 91 1a 99 3f a6 65 5a c0 b0 4b 20 3f d4 0d 96 c0
       1.1961232 -3.4124541 0.6261549 -4.689188
000180 b0 60 c1 c0 6b f9 52 bf ee 1f 13 c0 3f 47 c6 3f
       -6.0430527 -0.8241183 -2.2988238 1.5490493
000190 d1 95 8a c0 01 8c b2 c0 92 22 2a 40 42 00 fb 40
       -4.330788 -5.5795903 2.65836 7.8437815
0001a0 f9 dc 66 c0 4d fe 22 40 15 ee 0b 40 88 b6 99 c0
       -3.607237 2.5467713 2.1864064 -4.8035316
0001b0 46 36 f2 3d 5c 4a 04 c1 d6 e4 10 c1 a6 05 07 bf
       0.11826758 -8.268154 -9.055868 -0.52742994
0001c0 62 37 b2 bf df 2f d3 3e 3e 4e 24 c0 3a 1f 27 c0
       -1.3923151 0.4124746 -2.5672755 -2.611281
0001d0 07 d2 a3 3f a6 2c 89 40 9c 2a eb bf ee ca e0 3f
       1.279847 4.2867002 -1.8372378 1.7561929
0001e0 d0 44 70 3f 50 68 38 c0 7b 90 45 3b bc 25 94 c0
       0.93855 -2.8813667 0.0030145932 -4.6296062
0001f0 b4 7e 9a c0 25 2c 51 3e ba be 69 c0 90 bf a1 3f
       -4.8279667 0.20426996 -3.652266 1.2636585
000200 2d 87 b0 c0 aa 02 d0 c0 ad 75 44 40 35 08 1b 41
       -5.516501 -6.500325 3.0696824 9.689504
000210 b6 a0 8e c0 b8 56 6b 40 48 e0 e7 3f 9a 27 ce c0
       -4.457118 3.677168 1.811532 -6.442334
000220 7a 6b b5 3e cf da 2d c1 43 5c 32 c1 57 1b 3f bc
       0.3543356 -10.86592 -11.147525 -0.011664233
000230 4a 43 05 40 28 e8 76 bf 2b 0c 6d 40 ec b2 98 40
       2.082232 -0.9644799 3.7038677 4.771841
000240 48 d6 28 c0 94 60 df c0 65 4c 3d 40 ec b5 03 c0
       -2.6380787 -6.9805393 2.9577878 -2.0579786
000250 52 63 d7 bf f0 48 76 40 8e 2b 6c be c2 80 d5 40
       -1.6827185 3.8482018 -0.2306349 6.6719675
000260 0c 99 f5 40 3c a0 85 3f cb f7 12 3e ec 58 59 3d
       7.6749325 1.0439525 0.14352338 0.053063318
000270 50 1a 57 bf a8 c1 09 bf 27 f1 8c 3f a3 82 f2 3f
       -0.84024525 -0.5381112 1.1011094 1.8946117
000280 f7 5b 40 bf 72 e0 ed 3d a0 39 0c 3e cc 75 b4 bf
       -0.7514033 0.11615075 0.13693857 -1.4098449
000290 f0 92 80 3e b7 99 8e bf b8 bc 01 c0 e0 64 64 bf
       0.25112104 -1.114066 -2.0271435 -0.89216423
0002a0 c9 7d 11 40 79 8f 0e bf 18 e6 98 3f 7f 68 15 40
       2.2733023 -0.5568767 1.1945219 2.334503
0002b0 de d4 87 bf 94 44 64 c0 63 4d f1 3f 57 a7 90 bf
       -1.0611837 -3.5666857 1.8851742 -1.1301068
0002c0 f3 6d 0e 3e 8a b2 14 40 6c 81 9d bf b3 38 90 40
       0.1390913 2.3233972 -1.2305121 4.5069213
0002d0 8c 3e 5d 40 79 d5 ce 3c 50 8d 8b bf da 31 d1 3f
       3.4569426 0.025248276 -1.09025 1.6343338
0002e0 a8 80 8b c0 8b 80 ae c0 77 fa 36 40 31 cc f7 40
       -4.359455 -5.4531913 2.8590372 7.7436757
0002f0 e4 26 21 c0 1b b2 23 40 1c fc 43 40 f4 09 71 c0
       -2.5179987 2.5577457 3.0622625 -3.7662325
000300 02 2e 8f bf 1d 71 e8 c0 c0 30 18 c1 71 1c 45 bf
       -1.1185915 -7.263808 -9.511902 -0.76996523
000310 66 74 d8 bf 5b 61 61 3f 2c 84 a1 c0 e9 0d 9a c0
       -1.6910522 0.8803918 -5.0473843 -4.814198
000320 c9 da 05 40 c8 4f e7 40 10 63 50 c0 31 71 0f 40
       2.0914786 7.228489 -3.2560463 2.2412837
000330 80 6a 09 40 7f 11 85 c0 5c 65 c4 be 88 d0 f2 c0
       2.1471252 -4.1583858 -0.3835858 -7.5879555
000340 b2 d2 10 c1 37 7d 6b 3d 3b 62 91 c0 a4 97 2d 40
       -9.051439 0.05749246 -4.543241 2.7123804
000350 ec 2d d1 c0 91 39 15 c1 6e 32 c0 40 ad b2 62 41
       -6.5368557 -9.326554 6.006156 14.168622
000360 b3 ff aa c0 fe d2 9e 40 d9 81 87 40 9b da 0d c1
       -5.3437133 4.963256 4.2346005 -8.86587
000370 b3 9a 4a be 56 6f 59 c1 da 90 82 c1 4c b7 08 c0
       -0.19785576 -13.589682 -16.320728 -2.1361876
000380 e5 e3 2a 40 aa 5a f8 bf 79 c8 43 40 96 16 c6 40
       2.6701596 -1.9402668 3.0591109 6.190257
000390 7a 97 76 c0 1b cf 0e c1 03 8d 44 40 6e f4 5c c0
       -3.8529954 -8.925563 3.0711067 -3.4524188
0003a0 9d 5b 32 c0 45 89 95 40 59 d4 40 3f 0c 13 03 41
       -2.7868416 4.6730065 0.75324017 8.19215
0003b0 99 44 12 41 d6 bb a9 3f 0b 1a 36 c0 2e 26 7d 3f
       9.141747 1.3260448 -2.8453395 0.9888638
0003c0 55 4d 42 c0 0c 11 8e c0 aa 16 39 40 0d 3d e8 40
       -3.03597 -4.439581 2.8920083 7.2574525
0003d0 48 81 30 c0 39 83 12 40 b4 ed 9b 3f 57 66 9d c0
       -2.7578907 2.2892592 1.2181916 -4.9187427
0003e0 f8 8b 8b 3e b0 17 eb c0 a2 7c 02 c1 73 6a 36 bf
       0.27255225 -7.3466415 -8.155428 -0.7125618
0003f0 bc 16 a4 be 2f 74 ae be f7 3a 56 be ea 02 6d 3f
       -0.32048595 -0.34073016 -0.20920931 0.9258257
