Vogen.Synth/models/po/man.v20210617-152623.po.onnx (onnx, 30154 bytes, 22 tensors)

8q f4 [12]
00000000: 0000 0080 0000 0080 0000 0000 0000 0080
00000010: 0000 0000 0000 0080 0000 0000 0000 0080
00000020: 0000 0000 0000 0080 0000 0080 0000 0080
-0.0 -0.0 0.0 -0.0 0.0 -0.0 0.0 -0.0
0.0 -0.0 -0.0 -0.0

nj f4 [16]
00000000: 20a7 a93e e8c3 e33f 3ce1 c9be c04b 133f
00000010: e97a ecbe ec56 a43e 2bfd 923f 782e 2c3f
00000020: 892e 1a3e c095 00bf d96e c03f a27d 593f
00000030: 665c 22bf f193 6dbe 68b1 8d3f 17b2 d33f
0.3313532 1.7794161 -0.39429653 0.5753746 -0.46187523 0.32097566 1.1483511 0.67258406
0.15056814 -0.502285 1.5033828 0.84957325 -0.6342224 -0.23200966 1.1069765 1.6538724

eu f4 [16]
00000000: 9691 083f bce2 c1bf e176 5dbe 4714 85bf
00000010: 05e9 713e 6030 edbd 1a15 60bf 9ae9 893e
00000020: a5d9 3e3f de4d 87be c642 ffbe e6df f0bc
00000030: 65db 1f3f 098d 73bf 8f48 073e 9e9f 05be
0.53347147 -1.5147319 -0.2162738 -1.0396813 0.23624046 -0.115814924 -0.875322 0.26936036
0.7455085 -0.26426595 -0.49855632 -0.029403638 0.62444144 -0.9513708 0.13211273 -0.1304917

zy f4 [12, 9]
00000000: f688 49bd ce08 cebe 89df ac3e 8575 a93e
00000010: 79ef 62be 370f f03e fb29 aebf 32da d83e
00000020: 27d9 58bf c1de 18bd cb66 a3be 1f75 4a3f
00000030: e20f c0be 2382 c33f ed57 d23e 6707 89bf
00000040: c771 0d3e 8852 1c3f ed60 a13d 900f 2ebe
00000050: 248e a4bf 25f9 673d b743 7fbf ebc5 2e3e
00000060: bbe9 2f40 6f89 c73e 6cf1 16bd 152b 4bbe
00000070: 7507 c9be 4621 463f 62b3 20bc 90ea 22bf
00000080: 0ef9 adbd d8bc 30bf cbf1 86be f1d9 743e
00000090: 7eee 21bc cf4c 08bf 06c5 c73e 5458 033f
000000a0: be07 4d40 d0de e13e 3da8 69bf fd4d f93d
000000b0: ab3f 483f a107 fdbe a4f0 e0be 382a 173e
000000c0: 5abe 10bf 6694 a540 1a3f 3bbe 8a37 9cbf
000000d0: b3ba bbbe 6ae9 143e 9508 22be 800e b33c
000000e0: bf3d db3e da49 8dbe fad7 39bf b1aa 19bf
000000f0: 0622 d5be 4094 82bf 16ec a53e c75b c53e
00000100: d252 01be cc8a 39bf d500 e63e 0d89 67bf
00000110: 4dac 87be 176a 6fbf 50c8 253f e8cc 943b
00000120: 1ace 573d 0c05 53be f6e2 11be d522 79be
00000130: 4bce eabe 609b 063f a59e fc3f 0c5e 6dbf
00000140: cf04 dbbe 6ceb 363c 6c1d 06bf 54ef 4cbf
00000150: 5226 27be f8c6 8840 7c7c 94bd 0423 e63f
00000160: f231 a43d 2005 b13e 90d4 57bc 78e1 803e
00000170: 6fb7 35bf e142 e1be fdad 17bf 085a a63e
00000180: 64fd 92bf 35e3 e6bd 083d 26bb 2edc aa3e
00000190: 3ed1 33be 682f e43d 4254 9e3d 080b 01bf
000001a0: 9720 fbbd 0f94 09bf 27e8 223f c3a3 7a3f
-0.04920288 -0.40241092 0.33764294 0.33097473 -0.22161664 0.46886608 -1.3606561 0.4235397
-0.8470635 -0.03732181 -0.31914362 0.7908496 -0.37512118 1.527409 0.41082707 -1.0705384
0.13812934 0.6106343 0.07879815 -0.16998124 -1.2855878 0.056634087 -0.997127 0.17067687
2.7486408 0.3897204 -0.03685133 -0.19840653 -0.39263502 0.7739452 -0.009808393 -0.63639164
-0.08494769 -0.6903815 -0.26356348 0.23911263 -0.009883521 -0.532422 0.39017504 0.51306653
3.2035975 0.44115305 -0.91272336 0.12173078 0.7822215 -0.49419883 -0.43933594 0.14762199
-0.56540453 5.174365 -0.1828579 -1.2204449 -0.36665878 0.14542165 -0.15823586 0.0218575
0.42820546 -0.27595407 -0.7259518 -0.6002608 -0.4162752 -1.0201492 0.32406682 0.38546583
-0.1262925 -0.7247741 0.4492251 -0.904435 -0.26498643 -0.93521255 0.6475878 0.0045410283
0.05268679 -0.20607394 -0.14246735 -0.24329694 -0.45860514 0.52580833 1.9735914 -0.9272163
-0.42777106 0.011164527 -0.52388644 -0.80052686 -0.16323212 4.274288 -0.07250306 1.7979436
0.08017339 0.34574223 -0.013173237 0.2517202 -0.7098302 -0.43996337 -0.5924986 0.32490563
-1.1483579 -0.11273805 -0.0025365967 0.3337111 -0.17560288 0.111418545 0.07730915 -0.5040746
-0.122620754 -0.53741544 0.63635486 0.9790613

w7 f4 [16]
00000000: 0000 0080 0000 0080 0000 0080 0000 0080
00000010: 0000 0000 0000 0080 0000 0080 0000 0080
00000020: 0000 0080 0000 0000 0000 0080 0000 0080
00000030: 0000 0000 0000 0000 0000 0080 0000 0080
-0.0 -0.0 -0.0 -0.0 0.0 -0.0 -0.0 -0.0
-0.0 0.0 -0.0 -0.0 0.0 0.0 -0.0 -0.0

oz f4 [12]
00000000: cf9d 783f 533b 903f f92f 853f 6a4a e23e
00000010: 231e 8340 e492 0f40 087f 503f 78d1 853f
00000020: 376b f03f fd46 7140 6468 273f e7a1 053f
0.97115797 1.1268104 1.0405265 0.44197398 4.097429 2.2433405 0.81443834 1.045455
1.8782719 3.7699578 0.6539366 0.5220017

k0 f4 [16]
00000000: 0000 803f 0000 803f 0000 803f 0000 803f
00000010: 0000 803f 0000 803f 0000 803f 0000 803f
00000020: 0000 803f 0000 803f 0000 803f 0000 803f
00000030: 0000 803f 0000 803f 0000 803f 0000 803f
1.0 1.0 1.0 1.0 1.0 1.0 1.0 1.0
1.0 1.0 1.0 1.0 1.0 1.0 1.0 1.0

g f4 [16]
00000000: 7a07 0737 002a 52b6 e635 3b38 3d26 2938
00000010: 08b4 4bb7 9777 ad37 796c a537 3c96 55b8
00000020: 7218 8fb7 5c36 a7b6 3e84 1638 7541 ddb7
00000030: 841f 97b7 ce68 8c38 9517 2039 7b6f b1b7
8.048368e-06 -3.1316886e-06 4.463447e-05 4.0328352e-05 -1.214166e-05 2.0678895e-05 1.9720044e-05 -5.0923074e-05
-1.7058312e-05 -4.983316e-06 3.5885947e-05 -2.6375734e-05 -1.8015278e-05 6.6952416e-05 0.00015267574 -2.1151956e-05

ci f4 [202, 14]
00000000: 07d8 9041 fa29 5542 a775 1941 4123 3f43
00000010: 06ee b2c1 1288 b742 cf3a 8d41 1c3b 3043
00000020: 93a9 f1c2 6973 2cc2 7500 7ec1 0e05 16c3
00000030: e367 9f42 a33f 46c3 3353 1841 6dd5 d941
00000040: 23ef b140 e7c2 c942 cefb 42c1 6cac 4342
00000050: d68f 1e41 1f6b bc42 40e7 7cc2 ec81 b8c1
00000060: c85e 0bc1 8e1e 9cc2 06b2 2742 fc0a d2c2
00000070: 159c e4c0 3ded 9cc1 62b0 82c0 e499 99c2
00000080: a930 1f41 2a07 0fc2 9d99 0ac1 5f6f 91c2
00000090: bb23 4042 fef8 8b41 bd45 d440 828b 7142
000000a0: 9c75 02c2 8667 a042 d2ca c740 eb03 9f41
000000b0: 9498 6640 d065 8b42 b586 f6c0 056a 0942
000000c0: 8a0f c640 515d 7c42 2fed 31c2 ab56 77c1
000000d0: 42f8 bec0 aa21 58c2 d06f e441 5012 8fc2
000000e0: 1410 ecc1 4801 acc2 0236 79c1 5de7 9fc3
000000f0: 33ed 1642 53a3 19c3 c5c1 f8c1 7eae 93c3
00000100: 383c 4943 97ae 8f42 84b1 cc41 b1d1 7943
00000110: a57a 04c3 5997 a543 1099 16c1 f75e d6c1
00000120: 600a a5c0 1f9e cfc2 02a2 4941 c394 44c2
00000130: c07d 31c1 8285 c1c2 6c22 8242 644e bc41
00000140: 6947 0241 a736 a242 bacc 2cc2 8f85 d742
00000150: 95f1 4f41 1dd6 1542 45e3 ce40 99bc 0943
00000160: 3e06 7ec1 efb9 8242 75e9 5141 a99f fc42
00000170: d191 adc2 fc45 f5c1 d033 31c1 5a7b d7c2
00000180: b973 6542 37ff 0dc3 f77e f1c0 f1d6 acc1
00000190: 5323 64c0 6528 a2c2 ec7b 1141 572b 1ac2
000001a0: 0922 f9c0 2e2c 95c2 754a 4c42 56d9 9041
000001b0: 7bf2 c140 e3e0 8042 9380 07c2 eabc a742
000001c0: b639 86c1 66e9 4ac2 bcbc 18c1 5bc2 33c3
000001d0: fb3b ab41 1ae5 aec2 c749 82c1 80a4 26c3
000001e0: f113 e442 6511 2342 4f4e 7441 8ef2 0c43
000001f0: 3d28 95c2 ed86 3b43 fdce 1ec1 57c6 e3c1
00000200: 4344 b2c0 b938 d0c2 a640 4841 bd65 4bc2
00000210: 90a6 21c1 6587 c2c2 f4dd 8342 d47a be41
00000220: d3fd 1d41 fc25 a442 998c 31c2 0019 d942
00000230: a1ff 28c1 c531 f4c1 e6fc a7c0 0402 e2c2
00000240: 826a 6141 1b57 59c2 93ef 2ac1 290a d2c2
00000250: 9627 8d42 5a54 cb41 7687 1041 9e8c b042
00000260: 8d1a 3bc2 94b9 ea42 acdf 98c1 39fa 5bc2
00000270: e618 2dc1 558d 52c3 40ec ca41 4d90 cac2
00000280: a57b abc1 b42f 43c3 8066 0343 6e3b 3b42
00000290: c7eb 8641 8b33 2443 a320 abc2 32db 5943
000002a0: 38ec 16be 446b a0be e5e0 5fbd 4991 16c1
000002b0: c20d d73f fa01 81c0 635f 03c0 83d6 14c1
000002c0: 428c 9a40 f2e5 fe3f ef00 0abf 297a ce40
000002d0: 97b0 2cc0 b549 1341 c654 3a41 7040 0942
000002e0: 56d4 c640 9a52 f842 71c6 75c1 0b8c 6b42
000002f0: c3a7 4041 69e9 e442 9318 9cc2 5730 dfc1
00000300: c1b5 2cc1 bc63 c1c2 2167 5242 dfe6 00c3
00000310: fa61 8641 4e58 4342 8447 f740 32a1 3343
00000320: 4ccb a3c1 2749 ab42 8459 8641 fc5d 2443
00000330: 1b01 e2c2 11d4 20c2 231d 58c1 4b33 0cc3
00000340: 984c 9642 a195 39c3 ba88 c0c1 7b10 8ac2
00000350: ada3 4bc1 2c65 80c3 3d64 f941 191e f6c2
00000360: 7299 c7c1 394d 6ec3 db1c 2143 2893 6542
00000370: 28f6 aa41 1d1c 4943 ea00 d5c2 4f1a 8543
00000380: 4a2c 70c1 2ea4 29c2 d40d fbc0 3fe2 1fc3
00000390: f418 9841 346c 99c2 d076 7bc1 8e09 14c3
000003a0: f65a c842 8e13 0e42 e4d4 4741 9dc6 fb42
000003b0: 5cbe 81c2 ef2a 2543 c33d b240 da2e 8841
000003c0: ff90 7340 e331 7542 5b1e edc0 1a1f eb41
000003d0: 7397 cd40 6793 6142 ad1d 1ac2 a7d1 5bc1
000003e0: c0e9 b5c0 4b51 3fc2 005f c741 5fb7 7dc2
000003f0: 2e85 3dc1 275a 08c2 6b87 d1c0 b6fb fbc2
18.105482 53.290993 9.591224 191.13771 -22.366222 91.76576 17.653715 176.2309
-120.8312 -43.112705 -15.875112 -150.01974 79.7029 -198.24858 9.520312 27.229212
5.5604415 100.88067 -12.186476 48.91838 9.910116 94.20922 -63.22583 -23.063438
-8.71064 -78.05968 41.92385 -105.021454 -7.144053 -19.615839 -4.084031 -76.80057
9.94938 -35.756996 -8.662503 -72.71752 48.034893 17.496578 6.633513 60.38624
-32.614853 80.202194 6.2435083 19.876913 3.6030626 69.69885 -7.7039437 34.353535
6.189397 63.09113 -44.481625 -15.458659 -5.967805 -54.032875 28.554596 -71.53577
-29.50785 -86.0025 -15.5756855 -319.80753 37.73164 -153.63799 -31.094614 -295.36322
201.23523 71.840996 25.586678 249.8191 -132.47908 331.1824 -9.412369 -26.79637
-5.1575165 -103.80883 12.602053 -49.145275 -11.093201 -96.76076 65.06723 23.538277
8.142434 81.10674 -43.19993 107.76086 12.99648 37.459095 6.465243 137.73671
-15.876524 65.36315 13.119496 126.31184 -86.7848 -30.659172 -11.07515 -107.74092
57.36301 -141.99693 -7.5467486 -21.604952 -3.564656 -81.078896 9.092754 -38.542324
-7.7854047 -74.58629 51.072712 18.106121 6.0608497 64.43923 -33.87556 83.86897
-16.77818 -50.72793 -9.546078 -179.7592 21.404287 -87.447464 -16.286024 -166.64258
114.03895 40.766987 15.269118 140.94748 -74.57859 187.52705 -9.925534 -28.471846
-5.5708327 -104.11079 12.515783 -50.849354 -10.103165 -97.26444 65.9335 23.809975
9.874469 82.07419 -44.387302 108.54883 -10.562409 -30.524302 -5.2496214 -113.00394
14.088503 -54.335064 -10.68349 -105.019844 70.57732 25.416187 9.0330715 88.27464
-46.77593 117.36246 -19.109215 -54.994358 -10.818579 -210.55208 25.365356 -101.28184
-21.435373 -195.18634 131.40039 46.808037 16.865126 164.20134 -85.56374 217.85623
-0.14738548 -0.31331837 -0.054657836 -9.41047 1.6801074 -4.0314913 -2.052697 -9.302371
4.8296213 1.9913924 -0.53907675 6.452412 -2.6982782 9.205495 11.645697 34.312927
6.21342 124.16133 -15.360948 58.88676 12.040957 114.45588 -78.048 -27.898603
-10.7943735 -96.69479 52.60071 -128.90184 16.79784 48.836235 7.72748 179.62967
-20.474266 85.642876 16.793709 164.36713 -113.00216 -40.207096 -13.507113 -140.20036
75.1496 -185.58449 -24.066761 -69.03219 -12.72746 -256.7904 31.173944 -123.058784
-24.949924 -238.30165 161.11272 57.393707 21.370193 201.10982 -106.501785 266.20554
-15.010813 -42.41033 -7.845438 -159.88377 19.012184 -76.711334 -15.716507 -148.03732
100.17766 35.519096 12.489475 125.88792 -64.871796 165.16771 5.5700393 17.022877
3.8057249 61.298717 -7.4099555 29.390186 6.4247375 56.393948 -38.52898 -13.738685
-5.684784 -47.829388 24.921387 -63.429073 -11.845015 -34.08804 -6.5477805 -125.99162

7a f4 [16]
00000000: 0000 803f 0000 803f 0000 803f 0000 803f
00000010: 0000 803f 0000 803f 0000 803f 0000 803f
00000020: 0000 803f 0000 803f 0000 803f 0000 803f
00000030: 0000 803f 0000 803f 0000 803f 0000 803f
1.0 1.0 1.0 1.0 1.0 1.0 1.0 1.0
1.0 1.0 1.0 1.0 1.0 1.0 1.0 1.0

h0 f4 [16]
00000000: 0a21 4340 4d7d 9d40 dacd 6641 efc9 f63f
00000010: 3d6f 8040 d9fd c63f a598 8d40 5b1a 2740
00000020: 90fb 1640 0230 2340 c7f6 a240 1b0e 4540
00000030: dd5d 2140 76ce 2640 a59f 5e40 d8b0 7040
3.0488915 4.9215455 14.425257 1.9280375 4.013579 1.5546218 4.4248834 2.6109836
2.3591042 2.5498052 5.092624 3.078986 2.521354 2.6063514 3.478494 3.7607937

m f4 [16]
00000000: 8e5e ce3f c891 d03f 312e 4b3f d1a7 dd3f
00000010: bb87 833f 8e3b 6a3f 8519 5a40 6d68 953f
00000020: 1720 6e3f 7f89 153f 604c db3f 10f4 5f3f
00000030: 26ad 523f 1249 893f 1c8e 8c3f 763b 5240
1.6122606 1.6294489 0.7936736 1.7316839 1.0275797 0.91497123 3.4078076 1.1672493
0.93017715 0.5841293 1.7132683 0.87481785 0.82295454 1.0725424 1.0980868 3.2848792

o8 f4 [16]
00000000: 8584 a736 d606 1937 1584 8036 0b24 9db6
00000010: 1f34 34b7 5cbc a136 6fd2 2a35 f89a a0b5
00000020: 0a91 ebb6 4ac2 e8b6 0199 ac35 9d6f 3637
00000030: 92ae 8337 93c7 8e35 5d3d 9536 665c 62b7
4.992415e-06 9.121102e-06 3.8300736e-06 -4.6831606e-06 -1.0740971e-05 4.820102e-06 6.3636156e-07 -1.1966031e-06
-7.0204305e-06 -6.936757e-06 1.2859529e-06 1.0874032e-05 1.5697708e-05 1.0637908e-06 4.4476897e-06 -1.3492163e-05

i f4 [8, 16]
00000000: 48a0 4cbd 6822 b53e b91a c13d 29ab 2bbf
00000010: d994 bcbe 5a2e d63e 2077 c5be 395f 37bf
00000020: 6c84 eebd ccc2 033d 3f05 7bbd 90f6 853d
00000030: 05ea 7d3e 72ea ba3e 8952 37bf c21d 413e
00000040: 8019 e3be df13 b9be 25db 03be 7f78 813d
00000050: 964c afbd 7f32 073f de36 18bf 10c8 503e
00000060: e385 ed3e 3e23 3fbc 107e a03d dec1 66bb
00000070: 3a05 eebe 9005 80bf 8e89 08bd 6fad ce3d
00000080: c297 17bc ec3b b03c be0b 39be c33c f73e
00000090: 473e 88be fe31 bdbe f445 1ebe 4fa4 89bd
000000a0: 4d7e bb3e dc88 11bd 73c0 04bf f41c 15bf
000000b0: 5919 f53d cb41 16be adef 57be 12b9 8c3d
000000c0: c2da 1fbf 1215 00bf 7bac ac3d ed09 15be
000000d0: 3670 643e ccd8 273e c152 2dbf bff2 c83c
000000e0: 4227 133e f5dc 963e da8f a5be 5ab9 48be
000000f0: caa9 523f f83e 09be 6acf 8cbe 887c 13bf
00000100: 058c 073f 38e3 cabe 04d2 cabe d80f 12be
00000110: 62ab 59bd c371 e8be 494e c2bd a520 1c3d
00000120: 8492 31be 9e9e 803d 30e6 a5bc 3b41 a2be
00000130: 2fe7 88be 3fa8 7a3d 5b86 3cbe c3af 263e
00000140: 43bc bbbe b171 10be 2f18 8c3e 912b dcbe
00000150: bb33 ed3d 8b57 d1be 5965 13be d549 01be
00000160: 56c3 49be dcf0 8dbe b524 3ebd 641f 2fbe
00000170: 68bc 77be 4399 813e f3d4 433d 2edb 5bbf
00000180: 2e26 cfbe 3313 053f 7878 953e 730c 96be
00000190: 8d8c 62bf afc5 36be e7ec a33e 96b9 a0bc
000001a0: b6af 273e 0197 843d bfdf c53e 14d0 03be
000001b0: 4bf9 863d 8ff0 d8be f7d2 fabe 46a6 9abe
000001c0: 8b6f 103d 5199 aebe 83b7 5bbe d402 3ebe
000001d0: e0b6 9c3d d802 8c3d e415 303e 4cfb 61bf
000001e0: 1364 96be 08fe e93e 0f3c fdbe 95fa 4f3e
000001f0: b8dd 11be accc 18bd 895d 81be b3cb 96be
-0.049957544 0.35377812 0.09428925 -0.67058045 -0.36832312 0.41832238 -0.38567448 -0.71629673
-0.11646351 0.032168195 -0.0612843 0.06541169 0.24796303 0.36506993 -0.71610314 0.18859008
-0.44355392 -0.36147973 -0.12876566 0.06321811 -0.085595295 0.52811426 -0.5945872 0.20388818
0.4639121 -0.011666117 0.078365445 -0.0035210769 -0.46488363 -1.0001698 -0.033334307 0.100916736
-0.0092524905 0.021512948 -0.18070886 0.48288545 -0.26610014 -0.36952204 -0.15456372 -0.067207925
0.36619797 -0.03553091 -0.51856154 -0.58247304 0.11967725 -0.14673536 -0.21087523 0.06871237
-0.6244317 -0.5003215 0.084313355 -0.14554568 0.2230843 0.16391295 -0.677044 0.024529813
0.14370444 0.29465452 -0.32336313 -0.19601956 0.8229033 -0.13402927 -0.27501994 -0.57611895
0.5294803 -0.3962648 -0.39613354 -0.14263856 -0.05314196 -0.45399293 -0.09487588 0.03811707
-0.17341048 0.06280254 -0.020251364 -0.31690392 -0.2673888 0.06119561 -0.18410628 0.16277985
-0.3666707 -0.1410587 0.273622 -0.4300199 0.115821324 -0.40887102 -0.1439413 -0.12625821
-0.19703421 -0.27722824 -0.046421725 -0.17101818 -0.24192965 0.25312242 0.047810506 -0.85881317
-0.40458816 0.5198242 0.29193473 -0.29306373 -0.88495713 -0.17848848 0.3201668 -0.019619744
0.16375622 0.06474114 0.38647267 -0.12872344 0.065905176 -0.42371032 -0.48989078 -0.30204982
0.035262626 -0.34101346 -0.21456723 -0.18555766 0.07652068 0.0683648 0.1719585 -0.88274074
-0.29373226 0.45701623 -0.49459884 0.20310433 -0.14244735 -0.037304565 -0.25266674 -0.29452285

el f4 [12]
00000000: 30f0 693d 982a 183f 3f09 e4bd 0008 9ebc
00000010: ee0d fdbf 5856 bfbc e689 78bf 300b e63c
00000020: 666b c6be 6e67 503f 4954 babe 8c31 7d3d
0.057113826 0.5943999 -0.11134576 -0.019290924 -1.9769876 -0.023356602 -0.97085416 0.028081506
-0.38753814 0.8140782 -0.3639243 0.06181483

pg f4 [12]
00000000: 6911 2cb9 15d3 8bb6 4385 d637 28af 85b6
00000010: 5011 2537 a072 5cb8 af42 11b8 693d a037
00000020: 5de4 5038 a963 08b8 e063 f736 547e 0fb8
-0.00016409684 -4.167096e-06 2.5572843e-05 -3.9840997e-06 9.838797e-06 -5.255884e-05 -3.4632798e-05 1.9102083e-05
4.9803744e-05 -3.2517743e-05 7.3728006e-06 -3.421151e-05

a6 f4 [12]
00000000: 0000 803f 0000 803f 0000 803f 0000 803f
00000010: 0000 803f 0000 803f 0000 803f 0000 803f
00000020: 0000 803f 0000 803f 0000 803f 0000 803f
1.0 1.0 1.0 1.0 1.0 1.0 1.0 1.0
1.0 1.0 1.0 1.0

at f4 [16, 16]
00000000: 43d1 603d 83ef 09be 22d0 a33d 108b 0b3f
00000010: 2b65 92be 202b edbe 7558 373d 4242 84be
00000020: fd86 fc3c 9871 543e 0bdd 31be 4ac5 a8be
00000030: d6d5 56be 122d 90be fc39 48be 32a4 823d
00000040: 3ed9 cd3e 4324 c53e 216c 29bd 9675 0e3e
00000050: 2bbd 8a3e 34aa 11bf 23dc 153e ba87 f1bd
00000060: d987 a6be ac80 cc3e 0a71 613e 46f9 013e
00000070: 29bf e1bd 4a28 123f aa63 043e 0062 0b3e
00000080: 8bba 143d e459 8e3d 2c2c babe 5437 41bf
00000090: f139 4c3c 072b a23e b010 7f3f 065c 60be
000000a0: 9c80 a03e de0a cc3e be74 61be 1fbc 783d
000000b0: c4db 633e c2e4 5bbe fe99 83be 6cb0 893f
000000c0: 171b 0cbe e5e1 593c fc91 07be a19a 8b3e
000000d0: 66b4 80be bd33 083e 4df2 61bc 3c1d 5d3e
000000e0: 33bf 37bf b6a9 b6be d336 a63e 6877 183d
000000f0: fca3 41be c43f 40be 330e 173f 9b83 42be
00000100: 00d5 b63e a44d d23e b100 433e 332d bfbe
00000110: ac09 f2bd b8f4 94be 04db ac3d 283c a23d
00000120: e449 c7be 554d b0be 758d 55be 5492 853e
00000130: 9101 403e c709 153e 1f86 4a3d 1b39 233e
00000140: 0605 d8bd f39f bc3e d41f 8b3e ba3e 1f3f
00000150: ac21 203f 88d7 b8be a6c1 c0bc 6bab ebbe
00000160: 3316 e9be 0eba 7b3e a758 723d 8b6f e43e
00000170: 921e 62bd 4161 7ebe bfd2 04bf e6e7 21be
00000180: 1ff7 773c 4170 ad3e 07a1 923e 5067 d23e
00000190: eb3a 22bf dafa a9be 2d30 74bd 9c1b 453e
000001a0: 163e 6e3c d2ef 773d 02e6 063f bd1d 3ebd
000001b0: 3ed2 b53e e9b7 223e 4e79 60be 7ed5 e5bd
000001c0: e9bd bb3e 5820 56bd 6633 9abc 7563 98be
000001d0: b1af a33e 8a28 f43d 9a7a 4abe ee5b da3e
000001e0: 85d0 9c3d fecd 913d 7c8c 22bf 9b0d 0e3f
000001f0: 6526 02bf 4650 8c3e 572c 183e 4aab 253e
00000200: 29a8 c5be 092e a9be b0a6 abbd 93dd 0ebd
00000210: a335 b8bd 3b3e f2be e234 a23c d5e5 383f
00000220: 544a f7be c1d6 08bf b18f 84bd 9eb1 ec3e
00000230: f1d4 ac3d 87b6 efbe cc03 b83d 131f 94bd
00000240: cc60 0c3e f2bd 743e 3e7f c43e 6211 e63d
00000250: 50a9 10be 922f 81be d6d5 cb3c 959d 34be
00000260: 47ab 21bf 6072 913d caa8 55be 29f8 18be
00000270: 1e60 5c3e 5373 a8be dce3 dcbe 8df8 b0be
00000280: ad6a 8dbf c7f3 be3e c2e8 493e 63f6 783e
00000290: cd0a 133e 8f95 8bbe 7024 62be 4560 a1be
000002a0: 2620 3abe ce13 143f 2245 c43e 4863 8cbe
000002b0: 62bf 26bf 8e18 333f cd17 0dbf 7301 9bbe
000002c0: 80fd 51be 7e19 443e 3431 56be bc9b f03d
000002d0: 7e2e ea3e 1005 b8bd 1f60 143e e3fd d7be
000002e0: 8a67 16bf 322c 46be 434e 233e a93d 56be
000002f0: 2071 40be 101c e53d be99 0cbf 3032 7b3e
00000300: 21d7 ffbd 09cd 34bc 51f6 ff3e f209 853e
00000310: 37bc e03d 60e5 1e3e 30c6 da3d 45ba 0e3e
00000320: 0474 05bf 77e3 b3be 7ceb 253e debd 9fbe
00000330: e73f 773e 4a3a 003f 5a60 a9bd 962e db3d
00000340: 237f 2cbe d2d3 ca3e 2a67 6dbf 4e7b e93d
00000350: 83e6 47bf 0da1 cd3e 196f 233e 18db 6dbe
00000360: b48d 7c3e ca49 d23e 1e88 f4bc cbc1 eebe
00000370: c308 d7be 00a8 3c3e c317 3b3e 791f 95bd
00000380: 76a0 cb3b a295 a83e cf50 4bbe d5ee d53d
00000390: cc15 003e d91a 8dbe 9cb5 a53e dbf2 36be
000003a0: adc8 96be 1651 f6be 2452 17bf 2a10 fc3e
000003b0: c0b9 8abe 9431 ac3e 92ff 423c 3cff e23d
000003c0: a78b 993e ab0b 2e3f cd9b 653e 09d1 cf3e
000003d0: d0be c1be 7517 2abe 9ff0 843e d5e5 e13e
000003e0: 5dbf b5bd e42b c6be b896 29bd 76be d63e
000003f0: 05ab f8be dfe5 a23d 1ffc 023e c1e7 423e
0.054887068 -0.13470273 0.079986826 0.5450907 -0.2859281 -0.46321964 0.044762094 -0.258318
0.030826086 0.20746458 -0.17369477 -0.3296302 -0.2098001 -0.28159386 -0.1955337 0.06378974
0.40204805 0.38504228 -0.041362885 0.13912043 0.2709745 -0.56900334 0.14634757 -0.11793466
-0.3252552 0.3994192 0.22015777 0.12692747 -0.11022789 0.57092726 0.12928644 0.13611603
0.036310714 0.06950739 -0.36361825 -0.7547505 0.012464986 0.31673452 0.9963484 -0.21910104
0.3134812 0.3985204 -0.2201719 0.06072628 0.22251803 -0.21473983 -0.25703424 1.0756965
-0.13682209 0.013298486 -0.13239282 0.2726641 -0.25137633 0.13300987 -0.013790679 0.21593183
-0.7177612 -0.35676354 0.32463703 0.03722325 -0.18910211 -0.18774325 0.5900604 -0.18995516
0.3570938 0.4107486 0.19043233 -0.37339172 -0.11818251 -0.29092956 0.084402114 0.0792163
-0.38923562 -0.34434 -0.20854743 0.26088202 0.18750598 0.14554511 0.049444314 0.15939753
-0.10547833 0.36840782 0.2717272 0.6220509 0.6255138 -0.36101937 -0.023529839 -0.4602922
-0.4552475 0.24582693 0.059166577 0.4461635 -0.055204935 -0.24841787 -0.51884073 -0.15811118
0.015134602 0.33874705 0.2863848 0.41094446 -0.6337115 -0.33199197 -0.059616257 0.19248813
0.01454117 0.060531445 0.52694714 -0.04641508 0.35511965 0.15890469 -0.21921274 -0.11222361
0.36668327 -0.05227694 -0.018823337 -0.2976338 0.3196998 0.11921795 -0.19773331 0.42648262
0.076569594 0.07119368 -0.6349561 0.5548951 -0.50839835 0.27404994 0.14860664 0.16178623
-0.3860486 -0.33042935 -0.083814025 -0.03487928 -0.089946054 -0.47313103 0.019800607 0.72225696
-0.48298895 -0.5345269 -0.064727195 0.4622926 0.08439053 -0.46818945 0.08985099 -0.072324894
0.137088 0.23900583 0.38378328 0.11233784 -0.14127088 -0.25231606 0.024882238 -0.17638238
-0.63151973 0.071018934 -0.20865169 -0.14938416 0.21521041 -0.32900485 -0.43142593 -0.3456463
-1.104818 0.37295362 0.19717696 0.24312739 0.14359589 -0.27262542 -0.22084212 -0.3151876
-0.18176326 0.5784272 0.38333994 -0.27419496 -0.65135777 0.6995934 -0.5511444 -0.30274543
-0.20506859 0.1915035 -0.20917207 0.11748454 0.45738596 -0.089853406 0.14489792 -0.42185888
-0.5875174 -0.19352797 0.15947823 -0.20921959 -0.18793154 0.11186993 -0.5492209 0.24530864
-0.124922045 -0.011035212 0.49992612 0.2598415 0.10973399 0.15517187 0.106823325 0.13938244
-0.5213015 -0.3513448 0.16203111 -0.31199545 0.2414547 0.5008894 -0.08270331 0.10702245
-0.16845374 0.3961473 -0.9273554 0.11400472 -0.7808611 0.40161934 0.15960349 -0.23228109
0.2466343 0.41071922 -0.029850062 -0.46632227 -0.41998872 0.18423462 0.18270783 -0.072813936
0.006214197 0.3292666 -0.19855045 0.10445944 0.12508315 -0.27559546 0.3236512 -0.1786608
-0.29449978 -0.4810874 -0.5910971 0.49231082 -0.2709484 0.33631575 0.011901753 0.11083838
0.2998936 0.67986554 0.22422715 0.4058917 -0.3784089 -0.1661051 0.2596483 0.4412066
-0.0887439 -0.3870536 -0.041403502 0.41942185 -0.48567978 0.07954001 0.12791489 0.1903372

4 f4 [16, 12]
00000000: 013a f1be 5e00 a4be af33 993e ae3b 063f
00000010: cd58 a03e 872c 81be ea8c 26be 8220 62bd
00000020: a8ff 0f3b fa50 bfbd 6e32 0f3f 1a4a bc3e
00000030: d83d 913e 66fe 38be e3ea 53be 4814 40bf
00000040: eb84 1c3e 3df0 473e 1efd 6b3f a8d3 823d
00000050: da05 0e3f 0d61 2ebe a9a0 9dbe 0b7f adbe
00000060: ad23 3f3d a262 813e 9840 8bbe a233 2dbd
00000070: 22c8 fa3e 9988 8e3e 3dee babd 8801 283f
00000080: 6aa6 913e c964 56be 7384 bb3e dd12 4abc
00000090: 0f68 84bf 5aae 21be c0fa 4cbe b22b 33bf
000000a0: 1581 dd3d 0792 9b3c dbe5 b23e 4845 c3bd
000000b0: 4923 8b3e 3b41 3b3e 3a14 b5be dcc8 f8be
000000c0: c740 d93e 0b23 74be 7c72 8f3e 549a d0be
000000d0: d6d8 803e d81e 07be 422c 1e3e 1c9c 863e
000000e0: 507f f6ba ea1a 653e 2cf4 833d 0f64 e3be
000000f0: 3615 a5be 7827 8b3e cba1 b6be 1b0d d93e
00000100: 9dcd 553d 62de 593e e475 8fbd 7d94 03bf
00000110: 7a8f 89bd ffea ef3d 37aa 4cbe 8a91 1abe
00000120: e49c 2bbe 5c91 293e 09c2 1cbe 2ef4 50be
00000130: b585 533f 4f2f 483f 9582 253b 89a4 bfbc
00000140: bb76 3b3e 9677 863f a5fd 00be 65e3 70be
00000150: fa40 59be b072 80be cc9c b13e 9597 8c3e
00000160: 7455 a13e 40bf 183e 8bcb 913e d58a 86bd
00000170: 5531 bc3e 0ba0 ebbd d5ae 923e 4514 9a3e
00000180: 937b 8e3e 2964 3b3f 1d15 47be 6f21 59be
00000190: a49d 043f 2e12 28bd 14af 583c a684 c7be
000001a0: 985c a63c 9ff9 88be f474 28bf 790b 8fbe
000001b0: aa32 ab3c fad0 4d3d 785d b9be 0b41 123e
000001c0: 0dc1 3e3e 2ebe 18be 3480 a8bd 5dfd 77be
000001d0: fdf8 0cbf 43df b73e 3868 003e afdb e3be
000001e0: 962f c7be d40d 27bd 9481 eb3d 6783 73be
000001f0: 0220 873e b289 80bc 3d9f 073f 1770 2b3e
00000200: 6519 a6be 5944 b6bd 2f90 b13d ba6f c03d
00000210: bd8b e23d 3e83 b9be 02e9 773f c170 083e
00000220: deec 0fbe ad87 aabe 4cd3 b53c 1906 abbe
00000230: 3c98 f03c df4c 9abe 9b89 87be b7ae 393e
00000240: 253c fdbe f7dd c2bd f4b7 0fbf 88d2 7fbd
00000250: 11ec 803e c7b0 3bbe d72b 883e c64b 043f
00000260: f626 d5bd 5d83 243c 7935 cc3c bcfc 223e
00000270: 1263 383e c6a6 67be 8b8a 053e dd54 83be
00000280: 1ed2 0fbe 6b88 373d 59d5 dd3c c2b7 08bf
00000290: 9be5 7f3d c88b 6abe 2826 0d3d 7c5b f9be
000002a0: 89c7 c9be 9db0 bebd ca8e f33e 8903 c9be
000002b0: 68e5 2bbe 71a3 eb3d 12a6 27be 420d 05be
000002c0: 764d 753e 2124 ba3e 77b9 eabe 06ff 1d3e
000002d0: 3a25 b03b 4d9a b63e 2e8e 983e ccd4 debe
000002e0: 7b48 213f 9d88 2e3f 295a 6b3d 0319 d53d
000002f0: 2ea7 b4bd 8d14 573f 1fcf 4e3e 951f bbbe
-0.47114566 -0.3203153 0.29922244 0.52434814 0.3131775 -0.25229284 -0.16264692 -0.055206783
0.0021972451 -0.09341617 0.55936325 0.36775285 0.28367496 -0.18065795 -0.20695071 -0.75030947
0.15285079 0.19525237 0.921831 0.063880265 0.5547768 -0.1702921 -0.30786636 -0.3388599
0.046664882 0.25270563 -0.2719772 -0.04228557 0.48980814 0.2783859 -0.091274716 0.65627337
0.28447276 -0.20936884 0.36624488 -0.012333599 -1.0344256 -0.15789166 -0.20017529 -0.6998855
0.10815636 0.01899053 0.3494099 -0.09534699 0.27175358 0.18286602 -0.35366994 -0.48590744
0.42432234 -0.23841493 0.28017032 -0.40742743 0.25165433 -0.1319536 0.1544657 0.26290977
-0.0018806253 0.22373548 0.064430565 -0.44412276 -0.32242745 0.2717855 -0.35670313 0.4239281
0.05219804 0.21276239 -0.07004908 -0.5139845 -0.06716819 0.11714744 -0.19986807 -0.15094581
-0.16759068 0.16559356 -0.15308394 -0.20405647 0.82625896 0.7819719 0.0025254835 -0.023393886
0.18307011 1.0505245 -0.12596758 -0.23524244 -0.21216193 -0.250875 0.3468994 0.27459398
0.31510508 0.14916706 0.28475603 -0.06569449 0.36756387 -0.11505135 0.2864901 0.3009359
0.27828655 0.7319971 -0.19441648 -0.2120416 0.5180304 -0.041032963 0.013225336 -0.3896839
0.020307824 -0.26752946 -0.65803456 -0.2793844 0.020898182 0.050248124 -0.36204123 0.14282624
0.1862833 -0.14916298 -0.08227578 -0.24217744 -0.55067426 0.35912523 0.12539756 -0.44503543
-0.38903493 -0.040784672 0.114993244 -0.23780595 0.26391608 -0.015690658 0.52977353 0.16741978
-0.3244125 -0.08899755 0.08670079 0.0939631 0.11061809 -0.36232942 0.96839917 0.13324262
-0.14055201 -0.33306637 0.02219548 -0.3340309 0.029369466 -0.30136773 -0.26472172 0.18133055
-0.4945995 -0.09514993 -0.56140065 -0.062456638 0.25180104 -0.18329154 0.26595947 0.5167812
-0.10407822 0.010041085 0.024927841 0.15916723 0.18006542 -0.22622213 0.13041131 -0.25650683
-0.14044997 0.044807833 0.027079271 -0.5340539 0.06247483 -0.22904885 0.034460217 -0.4870261
-0.39410046 -0.0931103 0.47569877 -0.3926051 -0.1678673 0.11505783 -0.16371945 -0.12993339
0.2395533 0.3635569 -0.45844623 0.15429315 0.0053755315 0.35664597 0.29795974 -0.43521726
0.6300122 0.68177205 0.05745903 0.10405161 -0.088209495 0.84015733 0.20196198 -0.36547533

wf f4 [16]
00000000: 0000 0080 0000 0000 0000 0080 0000 0000
00000010: 0000 0080 0000 0080 0000 0000 0000 0080
00000020: 0000 0080 0000 0000 0000 0000 0000 0000
00000030: 0000 0080 0000 0000 0000 0080 0000 0080
-0.0 0.0 -0.0 0.0 -0.0 -0.0 0.0 -0.0
-0.0 0.0 0.0 0.0 -0.0 0.0 -0.0 -0.0

mv f4 [9]
00000000: 22be e13c 0000 0000 2361 c23e d80e 4bbe
00000010: 7778 173f 5c3d d3bc 523c c13f 91b8 2ebe
00000020: e7cd 26be
0.027556483 0.0 0.37964734 -0.19829881 0.5916819 -0.025786094 1.5096533 -0.17062594
-0.16289483

9d f4 [14, 8]
00000000: 68ef ffbe df3d 453e 0d79 a93f f2fa 233f
00000010: a2bf 57be 1e41 8fbe 647c 07be 9e32 753f
00000020: 11c4 413f 066b f43e e4b4 b63e 458b a83e
00000030: 44a3 e33e 8301 033f 010b 013d 3642 023f
00000040: 1874 12bf 2661 c43e 89cc f73b f59d 95be
00000050: 5ff5 493e b7c8 8d3e 8be3 af3f fd75 993d
00000060: a5a3 203e a113 07bf accf ae3d 7aef 423f
00000070: 5599 b83e 61ee 85be c78f 1e3f 8715 0b3f
00000080: 332b 813f 9856 533e dd87 c33e 7746 1a3f
00000090: 89c6 f83e 39bd 93be b102 db3e f054 73be
000000a0: 66ef 093e 831e cb3e a669 c43e 05db d2be
000000b0: f59a 023f bd97 c33e 234b 473e 24bc d73e
000000c0: 9c65 2b3f 3b46 123f 7295 103f 9e04 b63e
000000d0: b07a fe3d 2fe8 1c3f 7d2a cabe 0140 863f
000000e0: 2b99 0f3f 1f82 a23e 86ef ed3e 2a55 013e
000000f0: eccc 49bd f6fe 69bd e862 e83e 58ef c8be
00000100: 83ea 1a3f 3723 413e 8510 263e de96 a8bc
00000110: d6a7 613e 50c7 0bbf da10 293f 39d6 5e3f
00000120: 2f91 053e af05 cc3f 2b85 aa3d 9762 873e
00000130: c9a1 e83e 9d6c 48be a22d 953e cb05 c1be
00000140: a8e0 a9be 8dc7 6d3f 7598 883e 99d1 28be
00000150: ddea 30be cd1d 2d3f 75d7 1b3f 50dc c63e
00000160: a313 9b3c 56b5 813d 8e6a 063f 6d5a 5b3f
00000170: a995 553e f3e9 323e ba6f ccbd ea53 bebd
00000180: 126f d23d 6e21 113f ad23 773d 5ef3 babd
00000190: a728 a73e 2288 cf3e d2e5 5b3f 66be d73e
000001a0: fcb9 e33e 84e1 53be 96bf c53e 2b66 0f3d
000001b0: d24a b83e a988 e03e 83ef 793f 08b3 f43e
-0.4998734 0.19261883 1.3240067 0.6405479 -0.21069196 -0.27979368 -0.13231045 0.9578036
0.756898 0.47737902 0.35684884 0.32918754 0.444605 0.5117418 0.031504635 0.5088228
-0.57208395 0.38355368 0.0075622243 -0.29222074 0.19722508 0.27692196 1.3741316 0.074932076
0.15687425 -0.52764326 0.08535704 0.7614666 0.36054483 -0.2615843 0.61938137 0.54329723
1.0091308 0.20638502 0.38189593 0.6026377 0.4858897 -0.28855303 0.4277549 -0.2376287
0.1347023 0.39671716 0.38361853 -0.41182724 0.51017696 0.38201705 0.19462256 0.42135727
0.6695192 0.57138413 0.56478035 0.35550398 0.124257445 0.61291784 -0.3948554 1.0488282
0.5609309 0.317399 0.46471804 0.12630144 -0.049267694 -0.057127915 0.4538796 -0.39245105
0.60514086 0.1886109 0.16217239 -0.020579752 0.2203668 -0.54601 0.6604134 0.8704563
0.13043664 1.5939234 0.08326181 0.26442406 0.45435932 -0.19572683 0.29136378 -0.37699732
-0.33179212 0.92882615 0.26678815 -0.16486205 -0.17277093 0.676236 0.60875636 0.3883996
0.018930262 0.06333415 0.5250634 0.85684854 0.20857872 0.17472057 -0.09982248 -0.09293349
0.10275091 0.56691635 0.060336757 -0.0912845 0.32648203 0.4053355 0.8589755 0.4213745
0.44477832 -0.20691496 0.3862273 0.035009544 0.35994583 0.43854263 0.9763109 0.4779284
