Vogen.Synth/models/po/man.v20210606-033513.po.onnx (onnx, 19053 bytes, 21 tensors)

8r f4 [9]
00000000: 98d7 bb3d 0000 0000 30c7 f0bc 0dac 77be
00000010: 6c55 893e 37ac 87bb 1d5a a53f c57e e1bb
00000020: c65a 93be
0.091719806 0.0 -0.029391855 -0.24186726 0.26822984 -0.0041404027 1.2918125 -0.006881567
-0.28780192

i9 f4 [12, 9]
00000000: 98df b63b 7e5a 0abe a1b5 0ebe d5b0 c4be
00000010: 298e 17bf 6f1a 673d 94a0 b03f 29e1 9bbd
00000020: 0efc a9be d8f5 8ebe 6e3f f23e c65a ea3d
00000030: 2712 cabe 296d a540 b26e 933d 149e 8abf
00000040: 94c0 743c 4945 6b3d b2a4 c23d 86cb 883e
00000050: 247e 90be 851f 903d aed0 b9be 14f6 cfbe
00000060: 32a8 c33e c74c cdbd 848d 56bf 1381 ca3e
00000070: f86d 73bd f9f5 85be 1536 293e aa54 2bbf
00000080: 136f d43e d187 d63f db97 7b3d 207a 3abd
00000090: f578 c6be b03e 563e 4004 f23c 99f0 58bd
000000a0: 799b 9b3f 7434 ee3e 3e4d 003d e42f 06be
000000b0: 4c10 48bf cf40 c6be 9e78 803e 56b5 693e
000000c0: 1082 adbe 7dde 28bf bd80 e6be f672 cd3f
000000d0: 2142 7cbe eb1f 103f 2597 583c e02b 033e
000000e0: ad2d 843e df22 323e f992 eb3d 1bac 9d3e
000000f0: 5ae6 c13f 0d5d 1ebf 1f0d 833e fb64 8bbe
00000100: a007 393d b120 83bd 9265 94bd 6370 1abf
00000110: 05aa df3e 3e60 753f 6e90 31bf a530 163e
00000120: ea3e 503e 2471 e13e aebd 9fbd 188c 593e
00000130: 043b 01bf 049f d53e b85b e83f 6ae7 8abe
00000140: aad8 d1bc c044 f8be c9b5 e9be afd0 833d
00000150: 1afc 98bd 1e35 a040 e548 edbd a3a7 65bf
00000160: ae0a 593e dfa4 80be db98 6e3d a249 bc3e
00000170: e9dc 6fbd 2f25 023f 7462 92bf e85f 533e
00000180: 9b50 0b40 8785 153f ab00 06bf dd80 efbd
00000190: 24d4 8d3e 584a c23e 6db3 bcbe 7075 00bf
000001a0: 8e31 1ebe d018 823f 23fe 2d3f 796f e13e
0.0055808537 -0.13511083 -0.13936473 -0.38416162 -0.59201294 0.056421693 1.3799005 -0.07611305
-0.33200115 -0.2792194 0.47314018 0.11443095 -0.39466974 5.169575 0.07198848 -1.0829492
0.014938492 0.057439122 0.095040694 0.26717776 -0.28221238 0.07037262 -0.36292022 -0.4061743
0.3821426 -0.1002441 -0.83809686 0.395516 -0.059431046 -0.26164225 0.16524537 -0.6692606
0.41490993 1.6760198 0.061424118 -0.045526624 -0.38764158 0.20922351 0.029543042 -0.052963827
1.2156821 0.46524394 0.031323664 -0.13104206 -0.7814987 -0.3872132 0.25092024 0.2282308
-0.33888292 -0.6596449 -0.45020095 1.6050708 -0.24634601 0.562987 0.013219629 0.12809706
0.25816098 0.17396115 0.11502642 0.3079537 1.5148423 -0.61860734 0.25595948 -0.2722548
0.045173287 -0.0640272 -0.072459355 -0.6032774 0.43684402 0.9584998 -0.6936101 0.14666994
0.203365 0.44031632 -0.077998504 0.21244848 -0.50480676 0.41722882 1.815299 -0.2712968
-0.025616009 -0.48489952 -0.45646504 0.064362876 -0.074699596 5.006484 -0.11586169 -0.8970892
0.2119548 -0.25125787 0.058251243 0.36774927 -0.058560286 0.5083799 -1.1436296 0.20642054
2.1767948 0.5840687 -0.5234477 -0.116945006 0.27700913 0.37947345 -0.3685564 -0.50179195
-0.15448591 1.0163822 0.67965907 0.4403036

j3 f4 [12]
00000000: 102f 8f3f 5a3e 1341 6bb8 b53f 25ec 483f
00000010: de57 893f 0edb 513f 70c8 9c3f 65c5 873f
00000020: ecd8 603f 178c 1341 743d e03f bbec 4d3f
1.1186237 9.202723 1.4196905 0.7848533 1.072994 0.81974876 1.2248669 1.0607115
0.87830997 9.221702 1.7518754 0.8043935

c7 f4 [12]
00000000: 3ffb 6d3d e07e 91bc cc1a febd a371 0c3e
00000010: 6102 c83e 81c6 a4be de08 253e 640b 00bf
00000020: 5ede 8bbe e3ce cd3f c0ab 2c3f cac2 ed3d
0.058100935 -0.017760694 -0.12407455 0.13715224 0.39064315 -0.32182696 0.16116664 -0.5001738
-0.2731809 1.6078762 0.6744957 0.11609419

um f4 [12]
00000000: 0000 0080 0000 0080 0000 0000 0000 0080
00000010: 0000 0080 0000 0000 0000 0000 0000 0000
00000020: 0000 0000 0000 0080 0000 0080 0000 0080
-0.0 -0.0 0.0 -0.0 -0.0 0.0 0.0 0.0
0.0 -0.0 -0.0 -0.0

zc f4 [12]
00000000: 0000 803f 0000 803f 0000 803f 0000 803f
00000010: 0000 803f 0000 803f 0000 803f 0000 803f
00000020: 0000 803f 0000 803f 0000 803f 0000 803f
1.0 1.0 1.0 1.0 1.0 1.0 1.0 1.0
1.0 1.0 1.0 1.0

m5 f4 [12]
00000000: a9bc 7437 2800 02b8 2dd0 a338 38a8 c036
00000010: 06bc 1637 9790 6637 4735 a7b5 f3e5 94b7
00000020: 850d bd35 6bd6 0538 083a 34b8 070b cc36
1.4587459e-05 -3.099456e-05 7.8112214e-05 5.741629e-06 8.984474e-06 1.3742733e-05 -1.2457975e-06 -1.7750053e-05
1.4085532e-06 3.1909363e-05 -4.296939e-05 6.0809575e-06

yw f4 [16, 12]
00000000: cb51 9b3e ccc5 2cbe 7329 053d 120b 533d
00000010: 62a0 bfbe 84b2 41bb ed28 d9bd 55a4 363f
00000020: 36a0 953e 474f abbe 4efd 513d b8ed 96be
00000030: e970 60be 05eb d1bc 9adf cbbc 90c7 2f3e
00000040: 7efc c4be 1e5b c23e 7926 41bb 11e9 f63d
00000050: c052 0c3e 94a0 18be 8a20 eb3e 243e 523d
00000060: 540b e8bd 486f 293c 5b3b 9f3e 9755 acbe
00000070: ea07 64be 2fb0 8cbe a9e0 22be 2cfe c2be
00000080: 964e a0be a5ea eebb e6ff 9bbe 3e1d 1dbe
00000090: 819b 203c 6af5 9b3f b047 58bd d060 b1be
000000a0: 9554 1c3f 357e 25be 30b6 8d3e 3e4d fcbd
000000b0: a2e0 b93c 6b2a ae3f 34e7 33be bb41 90be
000000c0: c08c 98be 1d5a 593b 1d7e b4be aaa6 f0be
000000d0: 7e81 87be 6b4b e03e a733 29be 4433 9e3c
000000e0: 3e99 c13e ba28 a53e 512d 55be 3e6c 05bf
000000f0: 97f3 febe ed9f b03e 9445 773e 579a 86be
00000100: cb3a 093f d3a0 223e 652f 74be 3319 d13e
00000110: e7aa 1bbe 2ca8 483d b988 29be cc78 cabd
00000120: 170c cd3d 9a54 e83e 6d39 76be b041 2dbe
00000130: 2c59 3f3d afab 023f a896 a13e 5dd7 423e
00000140: 41fd 9a3e f83f 463e 6575 a43e d995 c33d
00000150: 3abc 20bd 6ccb 1f3e 0450 013e f4fc 64be
00000160: eb83 a43d 34fc c63a 87e4 08bf 7ace 41be
00000170: c4e4 bbbe 90a2 b7be 65b8 8fbe a08e f43d
00000180: 2462 fdbd f2a1 1b3c be01 a1bc 5d19 2cbd
00000190: b152 1abf 65d6 7dbe a3c6 b7bd ab82 8a3e
000001a0: c147 aabe c62c a03d 0534 15be 7496 07bf
000001b0: 2228 cb3e b063 8d3e a0b3 1cbd 639a ea3e
000001c0: d5c4 e1be 9c35 81be 5fb9 b73e 3582 8fbe
000001d0: 4c6c e83e 7fa4 42be dfb6 cbbe 6380 5ebe
000001e0: 9b01 cd3d ccea 49bb 9b61 07be d7fc 023f
000001f0: d6f9 39be 2bef f13e b74c 523d f035 6d3e
00000200: 5048 4c3e 3463 273e 1157 8fbd bebc 903e
00000210: 545d 97be 9f3b 3e3e e1bc 92be b256 a2bc
00000220: c54b b2be d106 783e ef2b 9abe dca6 86be
00000230: 8f22 c63e e090 5cbd 7f91 96be c02d 913e
00000240: b421 03be 486e 53ba a975 0b3f 8fd6 b4be
00000250: a736 38be 56f4 ad3e 5eef f03e 2db6 a73e
00000260: 279a ce3e 09bf b7bd 6f57 2cbf 6a70 03bf
00000270: 9b23 5e3c d3e4 e1bd 6204 92be e133 a0be
00000280: cf68 063f 201e a2be b672 9a3d 32ed 45be
00000290: 9354 31bc 10db 27bd df75 91be 115e 1bbc
000002a0: 5cfb f43e 6166 473e c391 843e 3c06 92be
000002b0: 3c1c 1cbe 5a3f 143f 6485 ad3c aad4 bd3e
000002c0: 3082 fb3e e927 34be cfb0 a13e bebb fabc
000002d0: 078f 283f a957 3ebe 9898 153f 058b bfbd
000002e0: 536c 433e b345 bb3e ed49 963e b501 a5bd
000002f0: e694 0b3f 809e 683e 1503 2c3e 6716 1cbe
0.3033584 -0.16872329 0.032510232 0.05152423 -0.3742705 -0.0029555866 -0.10603509 0.713445
0.29223794 -0.3345892 0.05126696 -0.2947824 -0.21918072 -0.025624761 -0.024886895 0.17165971
-0.38473886 0.37960142 -0.0029472394 0.12056173 0.13703442 -0.14905006 0.45923263 0.051328793
-0.11330286 0.010341473 0.31099972 -0.3365905 -0.22268644 -0.27478167 -0.15906014 -0.38084543
-0.31309956 -0.0072911554 -0.30468673 -0.15343186 0.0098027 1.218427 -0.05280274 -0.34644175
0.6106656 -0.16161425 0.2767806 -0.1231942 0.022690121 1.3606695 -0.17568666 -0.28175148
-0.29794884 0.0033165284 -0.35252467 -0.47002155 -0.26465982 0.4380754 -0.1652361 0.019311555
0.37812227 0.32257634 -0.20818068 -0.5211829 -0.4979522 0.34497014 0.24147636 -0.26289627
0.53605336 0.15881662 -0.23846205 0.40839538 -0.15201913 0.048988506 -0.16556062 -0.098863214
0.100120716 0.45377046 -0.24045344 -0.16919589 0.0467159 0.5104322 0.31560254 0.19027467
0.30271342 0.1936034 0.32120815 0.095500655 -0.039242007 0.15604943 0.1262818 -0.22362119
0.08032974 0.0015181364 -0.53473705 -0.18926421 -0.36697972 -0.35866213 -0.2807037 0.11941266
-0.123722345 0.00949906 -0.019654151 -0.042016376 -0.6028243 -0.24788816 -0.08973434 0.27052817
-0.3325787 0.0782104 -0.14570625 -0.5296395 0.39679056 0.27615118 -0.03825724 0.45820913
-0.44095483 -0.25236213 0.35883614 -0.28029028 0.45395124 -0.19008063 -0.39787957 -0.21728663
0.10010072 -0.0030810116 -0.13220827 0.51167053 -0.18161711 0.47252783 0.051342692 0.23165107
0.1994946 0.16346437 -0.069990285 0.28269 -0.2956339 0.18577431 -0.28659728 -0.01981673
-0.34823433 0.2422135 -0.30111644 -0.2629918 0.3869824 -0.0538491 -0.2940788 0.28355217
-0.12805825 -0.00080654444 0.5447641 -0.35319945 -0.17989598 0.33975476 0.47057623 0.32756177
0.40351984 -0.08971984 -0.67320913 -0.51343405 0.013558294 -0.11029973 -0.2851897 -0.3128958
0.52503675 -0.3166361 0.075414106 -0.19328764 -0.010823387 -0.0409804 -0.2841024 -0.009482876
0.47848022 0.19472648 0.25892457 -0.2852038 -0.15245146 0.57909167 0.02118177 0.37076312
0.49122763 -0.1759335 0.31580207 -0.0306071 0.6584324 -0.18588127 0.58435965 -0.09352688
0.19084291 0.36576614 0.29353276 -0.08056966 0.54524076 0.22716713 0.1679805 -0.15242921

8d f4 [16]
00000000: 4b59 8d3f 159a 8c3f 7f33 963f 69f0 4f40
00000010: f625 5f3f 37c9 903f 3930 e03f b11a 8f3f
00000020: fa46 633f b805 6e3f cb9b a93f c711 743f
00000030: 1c0a 4a40 8ca5 873f 32eb 8a3f 49ad aa3f
1.1042875 1.0984522 1.1734465 3.2490485 0.871673 1.1311406 1.7514716 1.118002
0.88780177 0.92977476 1.3250669 0.95339626 3.156867 1.0597396 1.0853026 1.3334132

ze f4 [16]
00000000: 48f3 93be dd5f b73d ccec 7cbf d100 f8bf
00000010: 3f39 01bf 889e ca3c ed17 6ebf b237 4cbf
00000020: db31 31be 525b 033e e420 5b3c c46d 2bbd
00000030: 3200 86bb a1b2 e6bd a2ff 4ebf 75bf 01bf
-0.28896546 0.08953831 -0.98798823 -1.9375249 -0.50477976 0.024733797 -0.9300526 -0.79772484
-0.17304175 0.12827805 0.013374541 -0.041852728 -0.0040893788 -0.112645395 -0.80858815 -0.50682765

0e f4 [16]
00000000: 0000 0000 0000 0080 0000 0000 0000 0000
00000010: 0000 0000 0000 0080 0000 0000 0000 0000
00000020: 0000 0000 0000 0080 0000 0080 0000 0080
00000030: 0000 0000 0000 0000 0000 0000 0000 0000
0.0 -0.0 0.0 0.0 0.0 -0.0 0.0 0.0
0.0 -0.0 -0.0 -0.0 0.0 0.0 0.0 0.0

p0 f4 [16]
00000000: 0000 803f 0000 803f 0000 803f 0000 803f
00000010: 0000 803f 0000 803f 0000 803f 0000 803f
00000020: 0000 803f 0000 803f 0000 803f 0000 803f
00000030: 0000 803f 0000 803f 0000 803f 0000 803f
1.0 1.0 1.0 1.0 1.0 1.0 1.0 1.0
1.0 1.0 1.0 1.0 1.0 1.0 1.0 1.0

ur f4 [16]
00000000: fe42 b637 2c56 1937 c854 8cb5 a5bc c236
00000010: 4354 6a36 d504 8c36 74e2 7cb7 9a32 1eb6
00000020: 853e 9c35 41b2 6ab5 0ce2 c9b7 6c6a a7b6
00000030: d2c0 9fb6 319b 2137 09df cd36 d121 4f36
2.1727286e-05 9.139574e-06 -1.0455487e-06 5.8036117e-06 3.4917764e-06 4.1728877e-06 -1.5073096e-05 -2.3573289e-06
1.1641101e-06 -8.7431187e-07 -2.4066328e-05 -4.989377e-06 -4.7610165e-06 9.632481e-06 6.135441e-06 3.0865087e-06

61 f4 [16, 16]
00000000: b5a7 b2be 4b02 98be 922a 79be 5602 acbe
00000010: f0d7 abbe c8e3 503e 425b 42bd f6a9 b63d
00000020: 568a 233e 11d9 113f c492 9f3c 3894 aebe
00000030: acac 9ebe 9a61 393e ad0d c23e af6e 2f3c
00000040: 01d6 dbbe 7ceb 98bc 0459 153f 1e75 733e
00000050: 9c29 5c3e 43e6 873e 42c3 863e e974 903e
00000060: 1006 17be c252 86be 2aa0 efbe 962e 8c3e
00000070: 6252 2ebe 424f 2ebe 324c 3fbd 649a 253e
00000080: e6e5 c5bd 71b2 e4be 9eac c63e d535 7a3e
00000090: 662d 35bb e951 e43d 2353 e4bd db49 7e3e
000000a0: 2e82 b73d 831b 99be a32f d9bd 6dc9 82be
000000b0: 850a 91bd 4f31 d33e 818c 3ebe d547 e4be
000000c0: b0c0 eb3e a351 38be 30eb ca3e 7979 0b3e
000000d0: accf 463e b5e4 21be d789 853e 03bd 843e
000000e0: 10d8 ac3e befb 843e 63a4 7f3e 3b2a 423e
000000f0: 4d10 053e 1cf1 c2bd 58bd 383e 6109 40be
00000100: 3fad 913d e80e 373e ef0a 21be 33ea 5b3e
00000110: d6bf 07bf f3f8 d53e e2c5 6f3d 3c40 b0be
00000120: 9f63 c0be 2317 d1bc eb7b 50be c10d 273d
00000130: ddf8 113f 009b 14bf 9b89 77bd b2b7 483f
00000140: 81e9 343e 3ad1 b13c b48a a53e 1b2f 293e
00000150: 7e9e 873e aae6 babe 5b27 46be 43d4 663e
00000160: fd3a 033e fa2a ee3e 912d 063d 37d5 b13e
00000170: a531 923e cc63 1cbd 20df 563e 0624 9d3e
00000180: e24a 3c3f c094 6ebe cd10 46be 5454 833d
00000190: ed39 fe3e cc85 d13e 3e27 953e 3c4b ee3d
000001a0: 6a07 e3be b5b2 433d dd36 edbd 20ee 99be
000001b0: ceeb d43d 975f fb3d c2a1 fd3e e562 763e
000001c0: d7b3 b7be 3d3c 75be 0e03 f93e 87c8 d4bc
000001d0: b1d4 9a3e 710e bcbe 275d 05bf 6b89 8e3e
000001e0: f70a 233f fca3 17be 247d a1be c754 8fbe
000001f0: 2aa9 283e 9a64 b4bd 4d0a bc3d 908f 13be
00000200: cdda f9bd 293c b4be 305e 803e ca73 1f3e
00000210: 1502 3c3c 45ae fd3e 0b14 be3e 2500 64be
00000220: dc69 bb3c d056 66be 1ac8 debe bf13 f4be
00000230: a725 1a3e 128a 8b3e 2bc7 fdbe 9f04 babd
00000240: 4ba7 07bd 8eaa 363e 177b 7cbe 1d96 233f
00000250: 5931 0dbf ed48 cdbd f050 203e c659 05bf
00000260: 1008 bf3e e42d 3fbd 019f 3d3c aaf9 64be
00000270: 6f09 4fbe 5fcd 7d3d 03eb 853e 19cb 6b3e
00000280: a02a 003e cee0 34be f1b7 0d3f 2318 403d
00000290: 2b01 213e 0dc3 d7be a3a6 9dbd 6860 753d
000002a0: f74c 10bf a8b4 10be 6a7e 25bd 1845 b23a
000002b0: 402b 263f e56b 05bf 9be6 243d 2a43 8f3e
000002c0: e815 c8be e079 933e 7b84 e9bd 1374 673d
000002d0: 2424 e0be 79fd 9abd 8e35 6a3e 97af 7e3c
000002e0: b7a9 77be 2879 74be 97c6 aa3e 9974 ea3e
000002f0: 1bf8 babd f490 93be 288e 8e3e d8d2 a93e
00000300: e4c3 343f a608 183f bfc7 32be 3775 cabe
00000310: f4db c73e afed e8be e979 573e 99f4 68bd
00000320: e8bc 45bc 8561 a1bd 3e45 ff3c d099 97be
00000330: 001d 8cbe 4d8e 613e bb97 073f 0274 b03e
00000340: 7864 57be 0474 5ebd 9721 813e ac6e 96be
00000350: 1756 5e3e 2be7 66be bb84 64be 8d20 1b3f
00000360: 25f9 efbd 322f 09bf c744 65bc cea3 533e
00000370: 64b7 95bc 9984 d13e 220c 8d3e 74c3 55be
00000380: e0d1 cfbc 14ab 9c3b 3df2 713e 3140 ce3e
00000390: b7d4 1f3f 7947 123d 1ae9 b93e e76e 703e
000003a0: 5d78 083e ca8f 52be ae0a 3bbe e0a6 9dbd
000003b0: 3d2c b33e ad88 e9bc c99e 333e 51c7 5dbe
000003c0: caf8 cf3b 6f45 7bbe 7673 cc3e decc 743e
000003d0: 6ea4 a03e aac3 2a3e 32c9 a63e cd68 38bc
000003e0: 00d3 f13e a450 503e 617b fa3e 5f16 a8be
000003f0: 8e27 bcbe a2e4 cbbe 5768 163d 26bf 1bbe
-0.34893575 -0.2968925 -0.24332646 -0.33595532 -0.33563185 0.20399392 -0.04745031 0.08919136
0.1597074 0.5697184 0.019479163 -0.34097457 -0.30991113 0.18103638 0.3790106 0.010707541
-0.4293671 -0.018666975 0.5833895 0.23775145 0.21500248 0.26542863 0.26320845 0.28214195
-0.14748406 -0.26235014 -0.46801883 0.27379292 -0.17023614 -0.17022422 -0.046703525 0.16172177
-0.0966299 -0.4466739 0.3880357 0.24434598 -0.0027645468 0.111484356 -0.111486696 0.24832861
0.08960377 -0.29903802 -0.10604789 -0.255443 -0.070820846 0.41248557 -0.18608285 -0.44586053
0.46045446 -0.17999892 0.3963256 0.13620557 0.19415158 -0.15809901 0.26081726 0.25925454
0.33758593 0.25973314 0.24965052 0.18961422 0.129945 -0.09518644 0.18040979 -0.18753578
0.07113122 0.1787678 -0.15726827 0.21476059 -0.53027093 0.41791496 0.058538325 -0.34424007
-0.37576005 -0.025523728 -0.20359771 0.0407846 0.5702036 -0.5804901 -0.060433965 0.78405297
0.176672 0.021706212 0.32332385 0.16521876 0.26488107 -0.36504108 -0.1935095 0.22541909
0.12815471 0.46517164 0.0327583 0.34732983 0.285535 -0.03818111 0.20983553 0.30691546
0.7355176 -0.23298931 -0.19342346 0.06412569 0.4965357 0.4092239 0.29131502 0.116354436
-0.44341594 0.04777785 -0.1158273 -0.30064487 0.10396539 0.12274092 0.49537474 0.24061163
-0.35879394 -0.2394876 0.48635143 -0.025974525 0.30240396 -0.36729768 -0.52095264 0.27839217
0.63688606 -0.14808649 -0.31540787 -0.27994367 0.16470781 -0.08808251 0.09181652 -0.14410233
-0.12199936 -0.3520215 0.2507186 0.15571514 0.011475106 0.4954702 0.37124667 -0.2226568
0.022877626 -0.22494054 -0.4351204 -0.47671315 0.15053426 0.27253777 -0.49566016 -0.09082913
-0.033118527 0.17838499 -0.2465633 0.6390093 -0.55153424 -0.10023675 0.15655875 -0.5209011
0.3731084 -0.046674624 0.011573554 -0.22360864 -0.20218442 0.061963435 0.26155862 0.23026694
0.1251626 -0.17663881 0.553588 0.04689802 0.15723102 -0.42141 -0.07697799 0.059906393
-0.5636744 -0.14131415 -0.04040376 0.0013600914 0.64909744 -0.5211776 0.040258985 0.2798093
-0.39079213 0.2880392 -0.11402222 0.05650718 -0.43777573 -0.07567877 0.22871992 0.015544794
-0.24185835 -0.23874342 0.33354637 0.45792082 -0.091293536 -0.28821528 0.27842832 0.33168674
0.70611405 0.59388196 -0.1745901 -0.39542553 0.39034998 -0.45493838 0.21042599 -0.05687389
-0.012068965 -0.078799285 0.031160947 -0.29609537 -0.27365875 0.2202694 0.529659 0.34463507
-0.2103442 -0.05430986 0.2522094 -0.2938131 0.21712528 -0.22549121 -0.22316258 0.60596544
-0.117174424 -0.5358764 -0.013993449 0.20667955 -0.018275924 0.40921476 0.2754832 -0.2087534
-0.02536863 0.0047811363 0.23627563 0.4028335 0.6243395 0.035712693 0.36310655 0.23479806
0.13327165 -0.20562664 -0.18265793 -0.076978445 0.3499469 -0.028507555 0.1754104 -0.21658064
0.0063467966 -0.24538206 0.3993184 0.23906276 0.3137545 0.16676202 0.32575375 -0.011255455
0.47231293 0.20343262 0.48922256 -0.32829568 -0.36748928 -0.3982287 0.0367206 -0.15209636

qz f4 [16]
00000000: 8d4b 8040 47fc 5240 5965 2840 d4ec 3640
00000010: 0ba5 7a40 d493 1940 00f5 8f40 6f21 8740
00000020: fd7d 2b40 b206 6640 6b3b 7b40 55f0 6a40
00000030: 0f26 4040 a2c8 d140 2550 9340 a9ef 1940
4.0092225 3.2966478 2.6311858 2.8582048 3.9163234 2.3996477 4.498657 4.2228312
2.6795647 3.5941586 3.9255016 3.6709187 3.002323 6.5557413 4.6035333 2.4052527

ci f4 [16]
00000000: 6e16 a6bf 1300 873f 9474 b8bf e0bf c33e
00000010: ed59 cabe 6907 8e3f 14b2 9b3f 31c3 733e
00000020: 36b2 73be 9a82 c7bf 4876 ba3f edfe 6fbf
00000030: 2ca3 fb3f f021 a0bf 6ef9 d23f ec71 f53e
-1.2975595 1.0546898 -1.4410577 0.38232327 -0.39521733 1.1096011 1.216372 0.23804928
-0.23798451 -1.5586731 1.4567347 -0.9374836 1.9659171 -1.2510357 1.648237 0.47938478

6g f4 [16]
00000000: 0000 0000 0000 0080 0000 0000 0000 0080
00000010: 0000 0000 0000 0080 0000 0080 0000 0080
00000020: 0000 0000 0000 0000 0000 0080 0000 0000
00000030: 0000 0080 0000 0000 0000 0080 0000 0080
0.0 -0.0 0.0 -0.0 0.0 -0.0 -0.0 -0.0
0.0 0.0 -0.0 0.0 -0.0 0.0 -0.0 -0.0

7d f4 [16]
00000000: 0000 803f 0000 803f 0000 803f 0000 803f
00000010: 0000 803f 0000 803f 0000 803f 0000 803f
00000020: 0000 803f 0000 803f 0000 803f 0000 803f
00000030: 0000 803f 0000 803f 0000 803f 0000 803f
1.0 1.0 1.0 1.0 1.0 1.0 1.0 1.0
1.0 1.0 1.0 1.0 1.0 1.0 1.0 1.0

v0 f4 [16]
00000000: 66ec 60b8 d239 d1b7 1f91 bcb6 6aa4 82b6
00000010: e908 9a38 fcdd deb8 321c 8938 c019 0eb7
00000020: 3172 54b8 745f 0238 db2c 20b8 b4e3 1637
00000030: 02bf b0b7 82f4 8338 7414 4537 bd22 c336
-5.3625925e-05 -2.4941666e-05 -5.619731e-06 -3.893442e-06 7.344952e-05 -0.00010627133 6.537921e-05 -8.469855e-06
-5.0651088e-05 3.1083313e-05 -3.8188748e-05 8.993713e-06 -2.106978e-05 6.29211e-05 1.1746877e-05 5.815497e-06

2w f4 [99, 8]
00000000: 4228 dd3d e1f6 943d fa12 a1bd 7cb6 a9bd
00000010: b949 a63d 4c1c ff3d 43b7 023e 8e97 013e
00000020: e731 923e 2e16 bc3d 75a9 4b3f dd8f 653f
00000030: 33b6 87be ab41 8ab8 8f67 41be efe3 4dbd
00000040: 0e4f 353c 4214 85be 22c6 0b3f fe64 bfbd
00000050: f98a a83e ff1b 28be d0cc 9b3e 3a63 82be
00000060: 09c2 91bd 16da 8cbd 50e4 7dbc 3f96 7d3f
00000070: 79d9 0c3e 8e00 dc3e c7d8 263f d6fa 87be
00000080: 9067 643f 06f3 12be f66d 873e 42ea 21bd
00000090: d42a 2ebe 0f1b dc3e 2f21 3a3d 6d5e 8f3e
000000a0: 28bf 763e cd19 46be 0f8e 2cbd 5e0c 4e3f
000000b0: a43e 0ebe 982b 71ba 4efb 803f 8049 8b3d
000000c0: 7945 963e 43ee 5abe 51ae 463f e44f 4b3d
000000d0: dd53 52bc ed00 d73d ab7c e33e 6555 d43d
000000e0: 7738 a23f bfe8 8cbe 7dcd adbd 441e 8d3e
000000f0: f37e 8d3d 2c56 c93e 7418 cf3e 1406 d73d
00000100: ac7d ba3e 6828 8bbe c8b7 173f 2207 4cbe
00000110: 6110 4b3d effd bc3e 92db f73e 96ac 25be
00000120: 1750 803d 5149 00be 9a6e 25be 1cd0 7c3f
00000130: be3c 1cbd ec96 ba3e 3685 383f 169d 56be
00000140: de79 5b3e d87d 55be e3e5 01bd bb87 643f
00000150: 6c8d 84bd 3cec c3bc 3f14 8c3f ac84 5abc
00000160: 7fe0 023f 8c26 a9bd b5e2 9ebd 8390 1b3f
00000170: 1171 73be c517 2dbe 4a00 3b3f 9050 1f3f
00000180: 4375 8a3f c776 8bbe 8bf7 5a3e cba8 843d
00000190: 71ca e93d 4eb7 323f 46b8 7f3f 9d89 40be
000001a0: ea44 103e 5f62 7b3e 92a5 903f 3ebf 443f
000001b0: 4414 86be 2f38 a93d 38b2 6ebe 834c dcbd
000001c0: 54ed ef3c 4c76 84be cb74 d73e aba0 563d
000001d0: eb45 36be 8ea3 a73e a0a3 2c3f 58d2 df3e
000001e0: 3b2f 8d3f 4d8d 81be 6afb ad3d c2f1 a93b
000001f0: f5d2 eebd 2a34 403f 3c7a 1e3f ceb6 7cbe
00000200: 869f d23d 03aa 81be c2d9 033e 0061 00be
00000210: f7ec ebbb 2ee5 b53e d047 e43e 6444 503f
00000220: 0fed 403e f329 63be f166 acbc 958b 7b3f
00000230: 2005 e53c 7699 3bbd 415b 973f a567 a9bd
00000240: a7bc 733f f117 8ebe b569 373e d931 5d3c
00000250: 1701 8a3c 4c42 be3e f1c6 1b3f 7eed 533c
00000260: 2f5f 393e ba15 85bd 1315 c2bd bf41 1ebe
00000270: 09db 3ebe aef2 c4bd 5a03 fa3e a234 e7bd
00000280: 7e2c 4c3e a0b3 3f3e eb8f 9a3c 0bf1 333f
00000290: ddab 7dbe 18b2 183d c88e a23e 5052 b63e
000002a0: f6a2 bd3e ad3b ffbd bcb2 273e d0ab e13d
000002b0: 0832 ab3e ee9b 20bd 4b09 a43d 0d5e 053f
000002c0: 930f d73e 0aa1 73be 20e3 d33d 374e adbd
000002d0: 7221 55bc a8ba df3e 59d7 d43e 7afc 5d3e
000002e0: 6bdc 293e 5a03 89be 2676 b33e 2d8e 963d
000002f0: 72d5 6b3e be6d 22be b5bd e43d 82be 5cbe
00000300: 5e27 113f 96d6 80be a7c3 0f3f b472 24bd
00000310: 26ae 863e ebd8 ad3e dc92 143f 21a7 8a3d
00000320: 3a31 123f 2911 83be ee0d 1d3e f659 d0bd
00000330: 481f 1c3e 9cef ce3e e5af a53e e103 b23e
00000340: 3616 9e3e 5081 8abe 04df 103f fa15 8f3e
00000350: 173b 11bd 68f4 34bd 1997 983e 5779 8abe
00000360: 1eff e33e c9a3 44be f0ae f7bc 1fab 823e
00000370: 497a 5ebe c953 80be 4a0a 9a3f 4a12 823f
00000380: 9133 1c3e 0b70 6abe 7aff 033f b282 0f3e
00000390: b45e 1b3f 8ea0 33be 67c6 c73e 95c0 09be
000003a0: cbc7 fd3c 318a 20be 5fa3 1abe 351f 903f
000003b0: 509b ee3d 7337 9f3e 5697 573f 1b47 80be
000003c0: 3e1c 4e3e df89 5cbe f85b d8bc 89f9 6f3f
000003d0: 98bd a9bc 5b59 0fbd 5bb2 913f 63d3 4abd
000003e0: 5ff6 bd3d 1a15 253d 2ad4 9e3f f4dc c53e
000003f0: 93f1 7ebe af55 d6bd 2283 cdbd 28f5 bb3d
0.10798694 0.07273651 -0.078649476 -0.08286759 0.0811953 0.12456569 0.12765221 0.1265547
0.28553697 0.09183918 0.79555446 0.8967264 -0.26506194 -6.5925844e-05 -0.1888716 -0.050266203
0.011066211 -0.25992018 0.545992 -0.093454346 0.32918528 -0.1641693 0.30429697 -0.2546633
-0.071170874 -0.06877534 -0.0154963285 0.9905738 0.13754834 0.42969173 0.65174526 -0.2655856
0.89220524 -0.14350519 0.2645108 -0.039530046 -0.17008525 0.42989394 0.045441803 0.2800173
0.24096358 -0.1934578 -0.042127665 0.8048762 -0.13891083 -0.00091999164 1.0076692 0.068011284
0.29349878 -0.21379952 0.77609736 0.049636737 -0.012837377 0.104982235 0.44431052 0.1036785
1.2673482 -0.2752132 -0.084864594 0.27562153 0.06908979 0.39323556 0.40448344 0.10499206
0.36424005 -0.27179265 0.592648 -0.19924596 0.049576167 0.36912486 0.48409706 -0.16179118
0.06265276 -0.12527968 -0.16155472 0.9875505 -0.038143866 0.3644327 0.72078264 -0.20958361
0.21433207 -0.20848787 -0.031713378 0.8926961 -0.064722866 -0.023916356 1.0943679 -0.0133372955
0.51123804 -0.08259305 -0.07758085 0.6076738 -0.237736 -0.16903599 0.73047316 0.62232304
1.0817035 -0.27239057 0.21383493 0.06477507 0.11415566 0.6981095 0.99890554 -0.18802495
0.14088789 0.24549244 1.1300528 0.7685431 -0.26187336 0.08262669 -0.23310173 -0.10756781
0.029287972 -0.25871503 0.42081293 0.05239932 -0.17800109 0.3274197 0.6743717 0.43715167
1.1030039 -0.25303116 0.08495219 0.0051862905 -0.116613306 0.75079596 0.61905265 -0.2467911
0.10284333 -0.2532502 0.12876037 -0.12537003 -0.0071998793 0.35526413 0.4458604 0.81354356
0.1884043 -0.22183971 -0.02104518 0.9825986 0.027956545 -0.04580065 1.1824723 -0.08271722
0.95209736 -0.2775264 0.17911418 0.013500654 0.016846223 0.37159956 0.60850435 0.0129350405
0.18102716 -0.06498285 -0.09476676 -0.15454768 -0.18638243 -0.096166 0.48830682 -0.11289336
0.19938847 0.18720865 0.018867454 0.7028968 -0.24772592 0.03727922 0.31749558 0.35609674
0.37038392 -0.12462554 0.16376776 0.11019099 0.33436608 -0.039211206 0.08009585 0.52096635
0.4200407 -0.237919 0.10346055 -0.08462184 -0.013008462 0.43697095 0.41570547 0.21678343
0.16587989 -0.2676037 0.35051078 0.07351337 0.23030642 -0.15862176 0.11168996 -0.21557048
0.56700695 -0.25163716 0.56157917 -0.040148452 0.2630474 0.33954558 0.5803659 0.067701586
0.57106364 -0.2559903 0.15337345 -0.10173409 0.15246308 0.40417182 0.3236076 0.34768584
0.3087632 -0.27051783 0.56590295 0.27946454 -0.035456743 -0.044178396 0.29802778 -0.270457
0.44530576 -0.19203104 -0.030234784 0.2552118 -0.21726336 -0.25063923 1.203439 1.0161831
0.15254046 -0.22894304 0.515617 0.140147 0.6069138 -0.17541716 0.39018556 -0.1345237
0.030979058 -0.15677716 -0.15101384 1.1259524 0.11650717 0.31096992 0.84215295 -0.2505425
0.20127961 -0.21536969 -0.026411042 0.93740135 -0.020720288 -0.034997325 1.1382555 -0.049518
0.09275507 0.040303327 1.2408497 0.38645136 -0.24896841 -0.104655616 -0.10034777 0.09177619

bc f4 [8, 16]
00000000: 7e5d 2ebe b215 d8bd 89be 973e 1293 ec3e
00000010: 2a8c c83d b918 68be 44a3 75bd 765b 4dbd
00000020: 4f2a eabd 80aa 503f 9bbf 03bf 74ba 503e
00000030: 4002 6939 adc5 07bd bb33 bebe f727 cb3e
00000040: 5b95 0bbe 91eb 463e c00c f8bd da76 853e
00000050: 6d3d 0abe c708 e7be 65aa c83e 5cb0 e93e
00000060: db1c 4b3d 24b1 c33d fae2 033e 6c21 9f3e
00000070: 3ddc 1a3f 5942 643d 046c 933e 18c6 9ebe
00000080: 5562 203f 0a81 83be ad67 06be 758c 5c3e
00000090: 176b 123e 2750 2d3e f14a c3be 7b60 043f
000000a0: 00d5 65be 1208 033f be00 e93d c006 c9be
000000b0: e617 97bd 94d1 efbe a7bb a7be 0f97 883e
000000c0: eac0 743e d331 55be 8178 4a3f 670c 2ebf
000000d0: 931e b93e f70a 17bf 228f ba3e 7283 593d
000000e0: 10c5 e13e f5b6 283f a4f9 fbbd f63a ac3e
000000f0: e44e 92bd ade7 83be 86e4 fbbe 8d2c 46bf
00000100: e9da b63e fec6 1a3f 2b80 b63e e805 3d3e
00000110: 0fc8 00bf 83f0 613e 5eb3 703e 895e 043f
00000120: 3938 d03e 5f4e 71bd 6449 89be fb94 0bbf
00000130: 5ab5 b8be 1dbf 7f3e 6fcc 9ebe 3643 053f
00000140: 6414 5b3e 3f8d 37bf 0913 933e 44a3 50ba
00000150: dc20 f73e 28e2 1cbd 7d45 5bbd a649 cabe
00000160: 049b 563e 9912 aabe eeaa 85bd c779 ed3e
00000170: e289 70be 97d9 b63e a527 46be d5a3 433e
00000180: f355 a23e e5c6 b0bd 6754 b93e cf8e a63d
00000190: ee16 c2be 5e77 0abf 3be1 17bf cabf 4d3d
000001a0: 0a5a 873d 6af3 5abd 7a77 18bf 348c cebd
000001b0: 9414 5bbf 419e 0a3f f095 e3bd 1bd6 67be
000001c0: 07b2 8bbd c78e cf3e c3b1 963c 512d 6d3e
000001d0: 6c34 c9be 2139 423e d4ee 03be ad4b 223e
000001e0: 1396 efbe 97b9 2dbe d39a 73be c32e ea3e
000001f0: dc2d 3c3e 67dd 8ebe 6ba6 d0bd ac42 66bd
-0.17027852 -0.10551013 0.29637554 0.46205956 0.09792359 -0.22665681 -0.059970155 -0.050136052
-0.11433851 0.8151016 -0.5146424 0.20383626 0.0002222145 -0.033147503 -0.37148842 0.39678928
-0.13631193 0.19425799 -0.12111807 0.2606724 -0.13499995 -0.45123884 0.391925 0.45642364
0.049588066 0.09555271 0.12879553 0.31080186 0.60492307 0.055727337 0.28793347 -0.3101051
0.6265004 -0.25684386 -0.13125487 0.21537955 0.14298664 0.16925107 -0.38143113 0.5170972
-0.22444534 0.5118419 0.11377095 -0.39262962 -0.07377605 -0.46839583 -0.32760355 0.2667775
0.23901716 -0.20819788 0.79090124 -0.67987674 0.3615614 -0.59001106 0.36437327 0.05310387
0.4409566 0.6590417 -0.123034745 0.33638734 -0.071439534 -0.25762692 -0.49197787 -0.7741173
0.3571389 0.6045989 0.3564466 0.18459284 -0.50305265 0.22064404 0.23505923 0.5170675
0.40667894 -0.05891263 -0.26813805 -0.545242 -0.3607586 0.24975248 -0.31015345 0.5205568
0.21394497 -0.716999 0.2872546 -0.0007958899 0.48267257 -0.038301617 -0.053533066 -0.39509314
0.20957571 -0.33217314 -0.06526743 0.4638197 -0.23490098 0.35712883 -0.1935106 0.19105466
0.317062 -0.08631686 0.36197206 0.08132707 -0.3790812 -0.5408839 -0.5932805 0.050231732
0.066089705 -0.053454794 -0.59557307 -0.100853354 -0.85578275 0.54147726 -0.11112583 -0.22640269
-0.068210654 0.40538618 0.01839531 0.23161818 -0.39297807 0.18967105 -0.12884074 0.1584918
-0.46794185 -0.16965328 -0.2378953 0.457388 0.18376869 -0.27903292 -0.10187992 -0.056215927
