Vogen.Synth/models/po/yue.v20210606-040514.po.onnx (onnx, 19053 bytes, 21 tensors)

yl f4 [9]
000000 8a 89 7d 3d 00 00 00 00 42 f9 8b 3d 38 c2 05 bf
       0.061898746 0.0 0.068346515 -0.5224948
000010 8f ea 8a 3f 7e e3 0b 3f 14 a7 31 3f 7b cf 25 be
       1.0852832 0.54644 0.69395566 -0.16192429
000020 b2 a0 af be
       -0.34302288

wi f4 [12, 9]
000000 de 96 f6 3c 8e fb d6 3e 41 6a f4 be ba e1 8f 3e
       0.030101236 0.41988796 -0.47737315 0.28101903
000010 01 6c 1c 40 3d 0e 09 be 76 05 c9 3f e0 fe af be
       2.444092 -0.13384338 1.5704792 -0.34374142
000020 8a 6e ef bf a8 88 96 be c0 f0 c7 bc a2 d3 ea be
       -1.8705609 -0.29401135 -0.02440679 -0.45864588
000030 fe 6e e5 bd 57 72 53 bd 13 19 e0 3e 76 cb 23 3f
       -0.11202811 -0.051622715 0.4376913 0.6398233
000040 ba de 13 3f bc ca 59 be b1 b4 27 3c a4 ad 95 bd
       0.5776173 -0.21268743 0.010235951 -0.0730851
000050 9a 03 4d be d6 8a 03 bd 7a 5d 21 3e 80 f1 24 bf
       -0.20020905 -0.032114826 0.15758315 -0.64431
000060 4e 2d 47 be cb 43 48 3e f2 e7 03 bf fb 09 07 3e
       -0.19450876 0.19557111 -0.51525795 0.13187401
000070 ed 40 04 3f 6d 37 b9 3c 88 a0 83 be 21 57 b4 bf
       0.5166157 0.022609437 -0.25708413 -1.408909
000080 cf cd 00 3e 8e 6a 53 3f 83 47 9c bd 56 fd 4c bf
       0.1257851 0.82584465 -0.07630827 -0.8007406
000090 80 b9 13 bf 00 8d d2 3b 04 cc e5 be 3f e6 94 3e
       -0.57704926 0.0064255 -0.44882214 0.29081914
0000a0 2f d1 a2 bf 8d de c0 3f 1f 48 89 3e e0 52 2a 3d
       -1.2720088 1.5067917 0.26812837 0.041582942
0000b0 72 2a 78 3f ac 26 bb be d8 84 d8 3e 89 f4 d0 be
       0.96939766 -0.36552942 0.42288852 -0.40811566
0000c0 34 f9 e0 3e a2 e5 8d bf 58 b9 28 3e b8 06 3e 3f
       0.43940127 -1.1085703 0.16476953 0.74229
0000d0 4b 24 c4 bd 5f 36 00 bf 51 3e 9f bd b8 78 62 3e
       -0.09577235 -0.50082964 -0.07775558 0.22116363
0000e0 87 83 e1 3d cc 14 f4 3d c6 81 ca 3e e2 3e cd bd
       0.11011415 0.11918029 0.39552134 -0.100217596
0000f0 7b 23 fe 3e 36 ba a7 3d b3 80 37 3f fa 14 d4 3c
       0.49636444 0.08189814 0.71680754 0.025888909
000100 da f0 fc 3e 13 18 da be b0 11 aa be 19 6a dd 3f
       0.49402505 -0.42596492 -0.3321662 1.7298003
000110 78 44 9e be 8b 96 73 bf ab b9 58 be d6 14 84 be
       -0.30911613 -0.95151585 -0.21164577 -0.25797147
000120 9e 07 f5 3d 40 5e 8d bd 3d 88 b4 be db 1c 01 bf
       0.119643435 -0.069027424 -0.35260192 -0.50434655
000130 5f 9f a2 3f 99 5f 28 be b9 2e 9a be 5f 00 0f 3f
       1.2704886 -0.16442718 -0.30113772 0.5585994
000140 ed a7 e9 3e 69 04 35 3b 84 c2 2a be 37 4b 09 bf
       0.4563593 0.0027621037 -0.16675764 -0.53630394
000150 75 76 f8 3d cb a8 0f 41 d8 ac a5 3d c7 e8 b4 3e
       0.12131969 8.978709 0.08089608 0.35333845
000160 a2 5d 61 bf 11 4d a3 3f 97 ed 73 bd b9 43 f2 be
       -0.880335 1.2757894 -0.059552755 -0.47317293
000170 8a 34 4d 3e 12 eb 9e bd d8 ff ee bf 05 63 cc 3d
       0.20039573 -0.0775968 -1.8671827 0.09979824
000180 e1 27 a8 3f 65 c3 e2 be 8d c9 a9 bf 95 5e bf be
       1.313717 -0.442897 -1.3264633 -0.37376848
000190 10 65 02 3d 9b da fb bd c4 83 00 bf b1 8b 28 40
       0.031834662 -0.12297555 -0.5020106 2.633526
0001a0 0d 68 1a bf 0b c5 6d bf 5a b5 da 3e 38 96 5b bd
       -0.6031502 -0.9287879 0.42716485 -0.053610057

r1 f4 [12]
000000 b7 59 04 40 b0 2d c6 3f 9c 60 48 3f 0a b1 c1 3f
       2.0679758 1.5482693 0.78272414 1.5132153
000010 d9 a9 36 40 47 cd de 3f fd a0 6d 3f 8b ca 8d 3f
       2.8541167 1.7406396 0.92823774 1.1077436
000020 9a cb 8f 3f ee df 43 40 4d 7a cb 3f 03 54 f5 3f
       1.1234009 3.0605426 1.5896698 1.9166263

cb f4 [12]
000000 a4 4b df 3e 2c 25 f3 3e 1d b6 57 be 76 f0 4c 3f
       0.43612397 0.47489297 -0.21065564 0.80054414
000010 18 9b 97 3c f7 5b 69 bf 37 4f bf be 7a e9 3b be
       0.018506572 -0.9115595 -0.37365124 -0.18350783
000020 19 1a f1 be b0 7d dc 3c d2 17 98 3e 26 08 f3 be
       -0.47090223 0.026915401 0.29705673 -0.47467154

v9 f4 [12]
000000 00 00 00 00 00 00 00 80 00 00 00 00 00 00 00 80
       0.0 -0.0 0.0 -0.0
000010 00 00 00 80 00 00 00 00 00 00 00 00 00 00 00 00
       -0.0 0.0 0.0 0.0
000020 00 00 00 00 00 00 00 00 00 00 00 00 00 00 00 00
       0.0 0.0 0.0 0.0

yi f4 [12]
000000 00 00 80 3f 00 00 80 3f 00 00 80 3f 00 00 80 3f
       1.0 1.0 1.0 1.0
000010 00 00 80 3f 00 00 80 3f 00 00 80 3f 00 00 80 3f
       1.0 1.0 1.0 1.0
000020 00 00 80 3f 00 00 80 3f 00 00 80 3f 00 00 80 3f
       1.0 1.0 1.0 1.0

7p f4 [12]
000000 36 18 1d b8 46 e9 58 39 a9 d1 2f 38 88 a2 a5 36
       -3.7454265e-05 0.00020686266 4.1918513e-05 4.9363043e-06
000010 fc 72 46 37 80 f0 1a 37 f3 5d 47 37 43 69 c7 b7
       1.1828492e-05 9.235111e-06 1.1883199e-05 -2.3771665e-05
000020 e9 3f 30 b7 7c 63 9d b8 36 9e 11 b9 50 00 42 37
       -1.0505298e-05 -7.504874e-05 -0.00013887216 1.1563374e-05

rq f4 [16, 12]
000000 a9 f9 a0 3e f0 ae 80 be 23 96 41 3e 07 e4 b6 be
       0.31440476 -0.25133467 0.18904929 -0.35720846
000010 d8 76 39 3e 3f 05 6a 3d c1 d0 c2 3c 53 b0 dc 3e
       0.18111742 0.05713391 0.023781182 0.43103275
000020 c1 51 48 3d 86 01 9a 3e d8 ee 9f 3e ab 4e ac 3e
       0.04890609 0.30079287 0.3123691 0.3365377
000030 fc 24 d0 bd 3a f0 92 3b a5 e1 e9 3e 6e ef b6 3d
       -0.10163304 0.0044842036 0.45679966 0.08932386
000040 d1 bd 13 bf 6d c6 18 3e 0f ad a9 3e 43 4a 4d be
       -0.5771151 0.14919443 0.33139846 -0.2004786
000050 43 8b ce 3e 76 fe e8 bd 31 c5 73 3e 19 aa 93 3e
       0.40340623 -0.113766596 0.23805691 0.28840712
000060 de 6b 69 be e3 37 c4 be 63 cf 89 bd 8e 62 31 be
       -0.22795054 -0.38323888 -0.06729009 -0.17322752
000070 6a c1 af be 38 1b 67 3d b3 da 4a 3e ee 44 9a be
       -0.3432725 0.056422442 0.1980999 -0.30130714
000080 83 50 d2 3e a7 5c 8a 3e 8d b2 8d be cc e4 81 be
       0.4107705 0.27023813 -0.27675286 -0.2536987
000090 f5 2a a7 3e 06 c2 20 be 4a 1b c5 bd f7 79 49 bf
       0.3264996 -0.15699014 -0.096243456 -0.7870173
0000a0 e3 7f 4d bd 32 d3 f8 be 3d bf 2b bf 6e b2 d0 be
       -0.05017079 -0.4859863 -0.6708868 -0.4076113
0000b0 be f3 aa 3e bd a4 08 3f e7 5d ec 3c a0 98 e3 3d
       0.33389086 0.5337637 0.02885337 0.11113095
0000c0 c5 fd 09 be c7 68 11 3d fa c7 47 be ad 98 c6 3e
       -0.13475712 0.035500314 -0.19509879 0.38788357
0000d0 21 fc e2 3e db fc 2e 3f 78 fe 64 3e e3 11 c0 be
       0.44332984 0.68354577 0.22362697 -0.37513646
0000e0 56 43 8f 3e 5d e5 96 3e 51 09 d2 3e a0 dc 89 3d
       0.2798106 0.29471865 0.41022733 0.06731534
0000f0 cb ec 1b 3f c9 82 86 bd 1e c6 7b 3c cf 24 97 3d
       0.6090819 -0.06567914 0.015367059 0.073800676
000100 87 cd 0e 3f df 57 00 3f 87 6a fd 3d d4 63 eb 3e
       0.5578236 0.5013408 0.12373834 0.459746
000110 45 df a5 3e 66 31 fc bd cd 55 38 be c6 85 17 be
       0.32396904 -0.123141095 -0.1800148 -0.14797124
000120 28 a9 09 bf b6 ff 8d 3e 2a bc 58 bc 76 78 05 be
       -0.53773737 0.27734154 -0.013228456 -0.13034233
000130 fd fc 08 3f cc c3 54 3e 5c 96 54 be 25 69 d9 3d
       0.5351103 0.20777816 -0.20760483 0.10615758
000140 e5 18 8d 3d d0 d3 ab 3e 75 f4 cf be fa fb e5 bd
       0.06889514 0.33560038 -0.40616193 -0.11229701
000150 b2 cc a4 bd 1f f6 2c 3d f5 04 00 3f 29 c6 c8 be
       -0.08046855 0.042226907 0.50007564 -0.39213684
000160 b0 3d b6 3e d9 6e 50 3e 2d 1d 23 3f a9 6d 3b 3e
       0.3559394 0.20354785 0.63716394 0.18303551
000170 65 5b 15 be 15 bb a6 bb c6 79 0a bf 04 26 35 bb
       -0.14585645 -0.00508822 -0.5409206 -0.0027641067
000180 41 09 95 be ca 98 03 bf 1b 2d 93 3e 8d 7a b5 be
       -0.29108623 -0.5140501 0.2874535 -0.3544506
000190 8b 8e 92 be 10 8c 0f bf e4 d8 f1 bd f1 0b 66 3e
       -0.28624377 -0.56073093 -0.11808947 0.22465493
0001a0 6a d0 86 3e 93 24 1c be 02 b9 28 3e 55 a8 9d 3e
       0.26330882 -0.15248327 0.16476825 0.3079249
0001b0 73 f4 d4 3e bb 53 9f 3e e8 fa 42 3e 05 3b af bd
       0.4159275 0.3111857 0.19041026 -0.08556179
0001c0 c9 43 18 be 1d ea f5 3e 34 e3 cb 3d 12 ee 80 3c
       -0.14869608 0.48030177 0.09955445 0.01573852
0001d0 fe b5 ec be bf 04 e1 3d cd 60 be 3e ca 4e a4 be
       -0.462326 0.10987233 0.37183228 -0.3209136
0001e0 a5 ba d3 3e d8 f5 1d be 3d c8 ac be 88 85 af 3d
       0.41353336 -0.15425813 -0.3374652 0.08570391
0001f0 9a 4c 69 3e af 19 e8 3e 8e de fb bd 02 c3 0a bf
       0.22783127 0.45332095 -0.12298308 -0.5420381
000200 6c b4 14 bf 18 d6 69 be 91 9c a8 3e a0 26 0d 3e
       -0.580878 -0.22835577 0.3293195 0.13784266
000210 c9 6c f4 bd 2a 3b c9 bd 80 83 0b be df 96 9c 3e
       -0.119348116 -0.09825738 -0.13624382 0.30583856
000220 cc 64 fc bd bd a3 b9 3d ec 3a 86 be c1 7e b7 3e
       -0.12323913 0.09064434 -0.2621683 0.35838893
000230 74 e1 01 3f 7b 64 a6 be d4 15 08 3e d9 d3 f2 3e
       0.5073464 -0.32498536 0.13289577 0.47427252
000240 fd fc bd 3e d4 3b a9 3e 47 66 22 3e 04 b3 e7 bd
       0.37107077 0.33053458 0.15859328 -0.113134414
000250 0a 16 d5 be cd 0f 02 3e ab 88 92 3e b2 5b 45 3c
       -0.41618377 0.1270134 0.28619894 0.012045788
000260 ee db 10 3f 0e b0 82 be 2e dc b0 bc 5e d2 b7 be
       0.56585586 -0.25524944 -0.021589365 -0.35902685
000270 a1 4e d2 3c 27 33 20 bf 22 6f b3 3e 55 5f a1 be
       0.025672259 -0.6257805 0.35045725 -0.31518045
000280 de 73 e8 3d 68 32 fa bc 68 14 0c 3e 70 cc 95 be
       0.11350225 -0.030541614 0.1367966 -0.29257536
000290 81 6c 3d bd 3f b0 81 3e e2 0b 88 3d 60 a9 dc bd
       -0.046246056 0.25329778 0.066428915 -0.10774493
0002a0 06 5c 5d bf 0e 83 bb be 7e f1 66 bf a6 36 0a bf
       -0.8646854 -0.36623424 -0.9021224 -0.53989637
0002b0 b8 1d 5b be b8 a9 3c 3e 78 57 36 3e b4 aa f4 3e
       -0.21398056 0.18424118 0.17806804 0.47786486
0002c0 77 8c 80 bd 05 69 5e be 2e e0 c8 bc 1a 4c 61 3e
       -0.062767915 -0.2171975 -0.02452096 0.22001687
0002d0 c9 ea 7e 3e 6b 3a 86 be 88 59 cd bd ed df b7 3e
       0.24894251 -0.26216444 -0.10026842 0.3591303
0002e0 22 66 cc 3c f0 16 be 3e ae 21 a8 bd 2c d3 1c be
       0.024951044 0.37126875 -0.08209549 -0.1531493
0002f0 23 5d d6 be d8 a2 28 3f 19 b7 9e be 60 16 2a 3f
       -0.41867933 0.6587348 -0.30999067 0.6644039

aq f4 [16]
000000 23 38 f8 3f 03 ca 86 3f 79 84 63 3f d0 fe 52 40
       1.9392132 1.0530399 0.8887401 3.2968025
000010 ea b0 5b 3f 8a 53 8c 3f e6 5c c1 3f a3 94 d4 3f
       0.85816824 1.0962994 1.5106475 1.660786
000020 00 c9 e8 3f ae 75 83 3f 56 ad 58 3f 47 3e fc 3f
       1.818634 1.0270288 0.8463949 1.9706506
000030 b0 3d cf 3f 52 f3 8b 3f 41 b5 9d 3f bd 7b 3d 40
       1.61907 1.093363 1.2320939 2.9606774

j8 f4 [16]
000000 a2 7b 3b 3f 27 4b 58 be 91 ca 9d 3e 0a dc ed bf
       0.73235524 -0.21122418 0.30818608 -1.8582776
000010 92 6b b6 3e 5c 05 98 3e a4 0b 94 bd 37 21 aa 3e
       0.35628945 0.2969159 -0.07228783 0.33228466
000020 44 65 f3 3e 00 aa 10 3b 86 6a 9c 3e 41 c8 79 3f
       0.47538197 0.0022073984 0.3055002 0.9757119
000030 80 9e 0f 3e a1 4b 08 3e 4e 8b 23 3f 6a 99 cf bf
       0.14025307 0.133101 0.6388444 -1.6218693

fn f4 [16]
000000 00 00 00 80 00 00 00 00 00 00 00 80 00 00 00 00
       -0.0 0.0 -0.0 0.0
000010 00 00 00 80 00 00 00 80 00 00 00 80 00 00 00 80
       -0.0 -0.0 -0.0 -0.0
000020 00 00 00 80 00 00 00 80 00 00 00 80 00 00 00 80
       -0.0 -0.0 -0.0 -0.0
000030 00 00 00 80 00 00 00 80 00 00 00 80 00 00 00 00
       -0.0 -0.0 -0.0 0.0

gc f4 [16]
000000 00 00 80 3f 00 00 80 3f 00 00 80 3f 00 00 80 3f
       1.0 1.0 1.0 1.0
000010 00 00 80 3f 00 00 80 3f 00 00 80 3f 00 00 80 3f
       1.0 1.0 1.0 1.0
000020 00 00 80 3f 00 00 80 3f 00 00 80 3f 00 00 80 3f
       1.0 1.0 1.0 1.0
000030 00 00 80 3f 00 00 80 3f 00 00 80 3f 00 00 80 3f
       1.0 1.0 1.0 1.0

oi f4 [16]
000000 34 04 52 36 a0 51 bc b7 04 3e fd 37 4f ee dd 37
       3.1294885e-06 -2.2449356e-05 3.0188829e-05 2.6456224e-05
000010 43 d1 87 b8 ea 04 07 38 b1 a4 69 b7 0f 83 77 37
       -6.47628e-05 3.2191085e-05 -1.3926227e-05 1.4752862e-05
000020 fe 6c c5 b6 ca 16 c8 b6 1e 80 44 b8 aa b9 f7 37
       -5.883746e-06 -5.9631175e-06 -4.684936e-05 2.9531151e-05
000030 e5 81 f9 b7 54 cb 3e b8 aa 30 0a b7 7a e3 6d b7
       -2.97436e-05 -4.5488894e-05 -8.2367715e-06 -1.4179264e-05

0c f4 [16, 16]
000000 ec f6 c0 be 6c 95 d0 3e b9 3b 59 3d cd 75 87 3b
       -0.37688386 0.40739 0.05303547 0.004133916
000010 bf 54 10 3e 6d b0 cf be ed 67 14 3e e9 b3 85 be
       0.14094828 -0.4056429 0.1449277 -0.26113823
000020 13 1e e5 bd 60 cb 21 3f a6 97 8d 3e 1f 9b 1e be
       -0.11187377 0.6320095 0.2765476 -0.15488862
000030 5f 78 4d be a9 8f 97 3e 93 b6 25 bf 4f 87 e8 3d
       -0.20065449 0.29601792 -0.6473171 0.11353933
000040 1d 2e 5b be 47 e6 a9 be 23 97 e4 bc 97 7c 90 bd
       -0.2140431 -0.331835 -0.027904099 -0.070550136
000050 d8 5f 5b 3e 53 0c 0c 3e 4a 04 c9 be 88 c6 60 be
       0.2142328 0.13676576 -0.39261085 -0.21950734
000060 3c 26 09 bc 8c 0b 35 3e 42 7b 21 be 92 72 ea bd
       -0.008370932 0.17680186 -0.15769675 -0.11447634
000070 93 d9 b3 bd 43 c5 74 bc 60 f4 67 be bf 9d 8b 3e
       -0.08781733 -0.014939609 -0.22651815 0.27268788
000080 57 bf 4d be 10 79 43 be 22 03 15 bf d8 db 17 3f
       -0.20092522 -0.1908915 -0.58207905 0.5931983
000090 8a d3 a0 be a8 70 ce bb 85 d5 5d 3e 4a 00 07 bf
       -0.31411391 -0.0063000508 0.21663482 -0.52734816
0000a0 80 50 16 bf ae 07 8f 3e 0a 0e a4 3d 45 75 b0 be
       -0.58716583 0.27935547 0.0801049 -0.3446447
0000b0 d6 dd f8 3e c8 07 39 be 91 93 a6 be 90 0f b1 3e
       0.48606747 -0.18069375 -0.3253446 0.34582186
0000c0 eb 71 39 be 7d c5 80 3d f6 e0 db 3c ba ce 6d bd
       -0.18109863 0.06287668 0.026840668 -0.058058478
0000d0 e7 83 20 bf 39 41 35 bf 19 2e 87 be 25 23 23 be
       -0.62701267 -0.70802647 -0.26402357 -0.15931375
0000e0 b3 d0 99 3e 3d 93 72 be 2e 66 0a bd d9 c0 0b be
       0.30042037 -0.2368898 -0.033788852 -0.13647784
0000f0 b7 9f 98 3c 69 e2 cc 3e db 1d 04 bf 48 c0 e3 3e
       0.018630845 0.40016487 -0.51608056 0.44482636
000100 0d e3 35 bf 65 00 e1 3e b6 06 12 bf 53 11 0a 3f
       -0.71049577 0.43945614 -0.5704149 0.53932685
000110 db b2 5c 3d de dc c7 be 02 f0 c7 be ce 8c 44 3d
       0.053881507 -0.39035696 -0.390503 0.047985844
000120 d0 e2 29 bd 87 b4 a4 3e 4a d9 36 3d bb fd 0b be
       -0.04147607 0.3216898 0.044640817 -0.13671009
000130 61 52 d4 bd 05 63 28 3f 58 73 b9 bd b0 fc 3a 3e
       -0.10367275 0.6577609 -0.09055203 0.18260455
000140 73 3b d0 bd ad 6e 03 be 4c 14 3d 3e 60 c6 50 bb
       -0.10167589 -0.12835188 0.18464774 -0.0031856522
000150 12 68 aa bd e2 c2 57 3e 40 ea a1 be 23 a9 18 bf
       -0.08320631 0.21070436 -0.3162403 -0.5963308
000160 4b e2 f7 bd 88 90 f2 be 09 4f 66 be c1 b2 93 3d
       -0.12103709 -0.47375894 -0.22491087 0.07211829
000170 4b 70 b2 be 5c 1b 3d 3e 35 69 a9 be 77 4d 24 3f
       -0.34851298 0.18467468 -0.3308808 0.641807
000180 e4 33 21 be 0b 64 5d 3e 51 82 8f 3e 2c 17 df bc
       -0.15742451 0.21620195 0.2802911 -0.027232729
000190 17 3d 39 bd 89 62 49 bf 6a 7a 11 bf 6d 15 60 3e
       -0.045224275 -0.7866598 -0.56827414 0.21883173
0001a0 af 7d 59 be 0d f5 63 3d 43 72 ae bd 64 1f 23 bf
       -0.2123935 0.05565362 -0.085178874 -0.63719773
0001b0 d0 5f 09 be e5 ca a7 3c 58 c9 87 3e c4 6a 64 be
       -0.13415456 0.02048249 0.265208 -0.22306353
0001c0 c0 7c d7 be 77 ae 6f 3e f5 b4 00 bd 49 5e ab 3e
       -0.42087364 0.23406397 -0.031422574 0.3347037
0001d0 73 52 c6 be 78 43 18 3e 2a d4 1e 3f 22 9b 26 3e
       -0.3873478 0.14869487 0.62042487 0.16270116
0001e0 10 3d 5d be 3e dc 0d bf c4 07 67 be 8a 9a d5 be
       -0.21605325 -0.5541419 -0.22561556 -0.41719466
0001f0 ae c9 7a 3d a2 31 1b be f9 f4 06 bd 3d d4 ec 3c
       0.061227493 -0.15155652 -0.032948468 0.028909797
000200 c9 15 d1 be 1b 69 c2 bc e7 f7 c5 3e fa 50 bd 3e
       -0.40836933 -0.023731759 0.38665697 0.36975843
000210 da c8 22 bf 86 de 08 3e 51 aa 8e bd 4d 56 b7 3d
       -0.63587725 0.13366136 -0.06966079 0.089520074
000220 40 d4 32 3d 88 6f a9 be 5f be 0a bf 6c 6a ed bd
       0.04365945 -0.33092904 -0.54196733 -0.11592564
000230 8a e3 44 3e e0 91 e9 3d 35 72 2a 3d 0e b4 72 bc
       0.19227424 0.114047766 0.041612823 -0.014813436
000240 20 dd 88 3e 7a 2f 46 3e d5 9a ef be 10 51 ee bc
       0.26731205 0.19354048 -0.46797815 -0.029091388
000250 c1 a0 fa bd 51 2f 04 3e 2b 48 97 3e 97 40 ab 3e
       -0.122376926 0.12908675 0.29547247 0.33447716
000260 ea e1 38 be 7f 51 67 bd 7f 80 0b bf 5e ec c6 be
       -0.1805493 -0.056474205 -0.54492944 -0.3885221
000270 5f 7e 7d 3e 17 47 2b be 58 d9 a7 3d b0 69 b3 3d
       0.24755238 -0.16726337 0.08195752 0.08760393
000280 19 c2 d1 3e 5d 9a 28 3d 63 f7 d1 3d 10 41 71 be
       0.40968397 0.041162837 0.102522634 -0.23559976
000290 dc 97 47 3d 71 56 e8 bd 9c c7 b0 be a8 c1 e3 3d
       0.04872881 -0.113446124 -0.3452729 0.111209214
0002a0 24 33 19 bd 90 02 97 bd ce 9a 40 be 52 55 80 bd
       -0.037402287 -0.07373536 -0.18809053 -0.062662736
0002b0 b5 d2 e1 3d f7 cd 23 bf 27 0c 05 bf 4a cc 6f be
       0.11026517 -0.6398615 -0.5197167 -0.23417774
0002c0 7f 6b 3a be 08 9f 92 3e 68 cd f0 3c 0d c5 78 3d
       -0.18205069 0.28636956 0.02939482 0.060734797
0002d0 02 b1 11 bf fe 4c bc bd 45 86 e7 be 86 a2 14 be
       -0.5691072 -0.091943726 -0.45219627 -0.14515123
0002e0 f1 55 e5 3d 71 c4 0f be bf 08 cd be 11 29 87 3e
       0.11198033 -0.1403978 -0.40045735 0.2639852
0002f0 c8 cf ba be fc 2f fb be f7 f1 38 3d 65 d7 63 3e
       -0.3648665 -0.49060047 0.04515263 0.22250135
000300 c1 a9 ef be 61 c2 16 bf 7e dc 26 bf 85 5b 7b 3d
       -0.468092 -0.5889035 -0.65180194 0.061366577
000310 ba cd b2 3e b7 de 90 3e de 1b 18 be 4b c3 83 3e
       0.34922582 0.28294918 -0.1485438 0.25734934
000320 ae 4a 7e bd 15 a6 25 3e 6f c1 04 3f 3e 14 b0 3d
       -0.06208294 0.16176637 0.51857656 0.08597611
000330 8f b4 eb be 48 92 db bd 65 94 b4 bd 98 74 6d 3e
       -0.46036193 -0.1072126 -0.088173665 0.23189008
000340 52 13 e9 be a6 0d a2 3e a2 9a 26 3e c9 a3 56 3e
       -0.45522553 0.31651038 0.16269925 0.20960917
000350 b2 86 a3 3e 4d 9c a2 be 20 38 54 be 38 1c 79 be
       0.31938702 -0.31759873 -0.20724535 -0.24327171
000360 96 58 d7 be 21 33 b0 3e 0b 87 22 3e 33 0a 03 be
       -0.42059773 0.34414008 0.15871827 -0.1279686
000370 34 7d 1f 3f 80 79 8f be 9d 41 a3 3d 2d 1c 53 be
       0.6230042 -0.28022385 0.07971499 -0.20616217
000380 e1 c2 32 3d b1 5f 0c be d3 d2 cb 3e 32 dd c5 3e
       0.043642882 -0.13708378 0.39809284 0.3864532
000390 d4 ee 3f be 98 6c 74 be ef 2a 07 3c 82 c2 ba 3e
       -0.1874345 -0.2386955 0.008249982 0.36476523
0003a0 bf 3c 9c 3e ff 5e 88 3d a3 c9 9d be ad 51 50 bc
       0.30515096 0.06658744 -0.308179 -0.0127147855
0003b0 f3 56 26 3c c1 21 1f 3e 04 fc 9a 3e f2 ba 1c 3f
       0.010152566 0.1554022 0.30270398 0.61222756
0003c0 44 dd 9f 3e 34 b8 08 bf 53 a5 a7 3b cd d3 04 3f
       0.312235 -0.5340607 0.0051161437 0.5188568
0003d0 eb f0 c9 3e ad a8 86 be ec 4b a7 3e 54 d5 a2 be
       0.39441618 -0.26300564 0.3267511 -0.3180338
0003e0 db 48 27 be 43 4c 88 3e b3 ae f4 bd 56 8c 15 be
       -0.16336386 0.26620683 -0.11947384 -0.14604315
0003f0 8e 85 41 bc f4 c7 a5 3c 9e b4 cb 3e 96 db 42 3e
       -0.011811627 0.020236947 0.39786237 0.19029078

67 f4 [16]
000000 6a 85 9a 40 85 e2 2a 40 86 a1 f7 40 22 d6 77 40
       4.828786 2.6700757 7.738467 3.8724446
000010 b9 dc f7 40 76 d0 ad 40 d8 6d 8b 40 bd 02 c3 40
       7.7456937 5.431697 4.3571587 6.0940843
000020 f3 2a 8d 40 3e e9 92 40 47 23 72 40 fb 2e f4 40
       4.411493 4.590972 3.7834032 7.630735
000030 2b e3 cf 40 a8 5a 9a 40 22 ec b1 40 52 d9 48 40
       6.4964805 4.8235664 5.560075 3.1382642

6c f4 [16]
000000 29 1e a3 3e 50 60 3d be 82 4f 85 3f 99 70 4a bf
       0.31858948 -0.18493772 1.0414889 -0.7907806
000010 40 a1 7b 3e bd 80 92 bc ac ef 9d 3e c8 d8 4a bf
       0.2457323 -0.017883653 0.30846918 -0.7923703
000020 76 0d 5e 3e 00 62 7f 38 ce 1e cb bf f1 e5 6e be
       0.21684822 6.0888007e-05 -1.5868776 -0.23329903
000030 69 94 91 3f 4f 02 30 bf b6 58 c9 bf a3 00 1d 3f
       1.1373416 -0.6875352 -1.5730197 0.61329097

zd f4 [16]
000000 00 00 00 80 00 00 00 80 00 00 00 80 00 00 00 00
       -0.0 -0.0 -0.0 0.0
000010 00 00 00 80 00 00 00 00 00 00 00 80 00 00 00 00
       -0.0 0.0 -0.0 0.0
000020 00 00 00 80 00 00 00 00 00 00 00 00 00 00 00 00
       -0.0 0.0 0.0 0.0
000030 00 00 00 80 00 00 00 00 00 00 00 00 00 00 00 80
       -0.0 0.0 0.0 -0.0

vj f4 [16]
000000 00 00 80 3f 00 00 80 3f 00 00 80 3f 00 00 80 3f
       1.0 1.0 1.0 1.0
000010 00 00 80 3f 00 00 80 3f 00 00 80 3f 00 00 80 3f
       1.0 1.0 1.0 1.0
000020 00 00 80 3f 00 00 80 3f 00 00 80 3f 00 00 80 3f
       1.0 1.0 1.0 1.0
000030 00 00 80 3f 00 00 80 3f 00 00 80 3f 00 00 80 3f
       1.0 1.0 1.0 1.0

j3 f4 [16]
000000 c5 39 bf 37 ce d0 a8 b7 ca 35 b9 37 4d b0 84 38
       2.2795875e-05 -2.0124393e-05 2.2078766e-05 6.327089e-05
000010 15 73 44 b9 6e d8 72 37 02 8b cc 38 5c 9f 5f b8
       -0.00018734888 1.44747155e-05 9.75337e-05 -5.3315758e-05
000020 b4 27 d2 b7 b3 07 4c b8 ea 84 29 38 a7 1a 31 38
       -2.5052439e-05 -4.864456e-05 4.0416526e-05 4.222491e-05
000030 2f 97 84 b8 ed 9f 68 38 09 1b 0b b8 65 96 80 b8
       -6.3224106e-05 5.5462053e-05 -3.316536e-05 -6.131529e-05

dk f4 [99, 8]
000000 8f ad 34 bd 18 84 c9 bb 53 af 9e bb f8 01 1a 3d
       -0.04411083 -0.00614978 -0.0048426776 0.037599534
000010 86 b2 99 bd fe c2 84 bd e2 c9 52 3d b4 09 19 bd
       -0.07504754 -0.06482504 0.05146206 -0.03736277
000020 53 ee 39 3e 8a cf 73 be 7c c8 1c be 82 f4 26 3f
       0.1815732 -0.23809639 -0.15310854 0.6521684
000030 58 c7 ae 3e df 4b 97 3d b8 1f ff 3d 43 ab 5d 3d
       0.34136462 0.07387518 0.12457222 0.054118406
000040 58 e8 0f be 34 d1 67 3d a1 9c b3 3e da a9 0f 3e
       -0.14053476 0.056595996 0.35080436 0.14029637
000050 b9 72 9a 3d 4c 76 dc 3d ed 8d 5a bd 0e 5f 3d be
       0.07541413 0.10764751 -0.053358007 -0.18493292
000060 d7 f4 37 3e 3d 47 18 be ba a5 06 3b b0 8e 24 3d
       0.17964493 -0.14870925 0.0020545558 0.04017514
000070 e4 72 1f 3f dd e8 c8 3d 63 9b 8c bd 88 16 61 3f
       0.62284684 0.0981004 -0.06865575 0.87925005
000080 26 ba 6e 3e 65 ad d7 3d f7 c6 f6 3e 01 59 cf 3e
       0.23313197 0.10531119 0.48198673 0.40497592
000090 3a eb f5 3c 9f 61 47 be 26 36 4a bd 85 2c c6 bd
       0.030019391 -0.19470833 -0.049368046 -0.0967646
0000a0 38 16 01 bd d7 48 27 be 44 20 8d be ac fc 80 3f
       -0.03151533 -0.1633638 -0.2756368 1.0077109
0000b0 ec fa 83 3e 06 6b 7d 3f 66 a4 13 3e 6b ca f8 bc
       0.25777376 0.9899143 0.14418182 -0.030369958
0000c0 46 4b b1 3e 08 d2 d8 3e 0b c3 7a 3e 95 7a a1 3e
       0.34627742 0.4234774 0.24488465 0.31538835
0000d0 c5 96 ed bc bb e2 55 3e 00 e7 8a be ce 17 82 be
       -0.029002557 0.20887272 -0.27129364 -0.25408787
0000e0 fc 22 1c 3c ef e3 76 3e 79 a8 ba 3d 22 86 87 3e
       0.009529825 0.24110387 0.09114165 0.26469523
0000f0 00 a3 4b bb 26 28 ed 3d 28 fb 0b be aa 7b ab ba
       -0.0031072497 0.11579923 -0.13670027 -0.0013083119
000100 ce a5 1a bd 02 14 23 3f da 55 d2 3d c1 c6 2a 3e
       -0.03775578 0.63702404 0.10270281 0.16677381
000110 02 36 ee 3c d3 73 e5 3e 4c 09 07 bd 1a ba b0 3d
       0.029078487 0.4481493 -0.03296785 0.08629246
000120 a7 69 21 bd 64 a7 ba bc 9e 84 37 bd 4c ba db 3e
       -0.0394074 -0.022784896 -0.044804208 0.4291557
000130 94 fd 79 3e e8 01 e7 3e 3d 07 c3 3d ec eb 8d 3e
       0.24413139 0.45118642 0.09522865 0.27719057
000140 62 84 df bc c1 fb 2e be ca 1e 8d be 15 b6 4e 3f
       -0.027284805 -0.17088224 -0.27562553 0.80746585
000150 8b be f3 3e 7a f8 65 3f 00 3d 8d 3d 3e 46 a7 3d
       0.4760631 0.8983227 0.068964005 0.081676945
000160 5e 2b 32 3e 10 df 88 bd 48 08 8e be 76 72 33 3f
       0.17399356 -0.06683171 -0.27740693 0.7009653
000170 cb a1 34 3f 6b bc ce bd 19 d1 08 3f 68 fa 8d 3e
       0.70559376 -0.100945316 0.5344406 0.27730107
000180 3f b8 e0 3e d6 50 12 3f 35 86 3b 3e 65 a3 81 3f
       0.4389057 0.57154596 0.18312915 1.0127989
000190 0b 38 34 be c4 3a c7 3e db 89 f5 bd 13 f7 f4 3e
       -0.17599504 0.38912022 -0.119891845 0.47844753
0001a0 f5 ff ec 3e 8f 1f 8a be f3 b1 f5 bd be e6 d8 3e
       0.4628903 -0.26977202 -0.11996832 0.42363542
0001b0 36 c3 c1 3e 8e 7f ca bd 79 d2 40 3d 02 3a 99 3e
       0.37844247 -0.098876104 0.047075722 0.2992707
0001c0 7a c0 ad 3e 2c 11 07 3f 03 bd e2 bd 65 d1 d1 3e
       0.3393591 0.5276058 -0.110712074 0.40980068
0001d0 b2 84 5a 3e 92 b3 1b 3d ae c9 71 be 41 f8 92 bd
       0.21339682 0.03801305 -0.23612091 -0.07176257
0001e0 7c c8 a2 3c 37 27 09 3f 70 22 b3 3e 56 36 7b 3f
       0.019870989 0.5357546 0.3498721 0.98129785
0001f0 42 d9 9b 3d 7f fb 3a 3f 4a 79 72 3d 00 b4 2a 3f
       0.07609798 0.7304 0.0591977 0.6668091
000200 70 35 56 3e 5b 0b 33 3f 7f 22 62 be 8e e2 23 3f
       0.20918822 0.699392 -0.22083472 0.6401757
000210 f7 07 9e 3e 54 35 e1 bd 83 f9 ea bd ff 1d 5f 3e
       0.30865452 -0.109965 -0.11473372 0.21788786
000220 75 87 bc bc 3b 61 36 be 4e 1d 8d be bf 6d 1e 3f
       -0.02301381 -0.17810528 -0.2756142 0.6188621
000230 f9 be 39 3f 29 12 4f 3f 9d 25 d7 3a bf 95 5d 3e
       0.72557026 0.80887085 0.0016414408 0.21639155
000240 e9 ca f4 3d af 71 9a 3e 5a 91 d5 3e d8 8d 13 3f
       0.119527645 0.3016486 0.41712457 0.5763831
000250 48 f1 02 bd b1 df 12 3d da 28 c2 3b 16 6d 09 be
       -0.031968385 0.03585786 0.00592528 -0.13420519
000260 04 9a 72 be 4f 60 98 bd 97 db f2 3c af f1 7f bd
       -0.23691565 -0.074402444 0.029645724 -0.062486347
000270 31 b0 9c 3e 5e b0 dd bc e0 7c 9d 3e e1 c4 8e bd
       0.30603173 -0.027061637 0.30759335 -0.069711454
000280 af 4b 6d 3d 9b 97 6e be 12 27 8b be f2 77 4e 3f
       0.057933506 -0.2330002 -0.27178246 0.8065177
000290 98 cb b2 3e 91 51 e5 3e ef 3d 99 3d 04 5e a3 3c
       0.34920955 0.44788793 0.07482516 0.019942291
0002a0 42 f9 e8 3c 23 06 e3 3d 9c 62 d5 3c d2 7c 35 bd
       0.028439168 0.11085155 0.026047997 -0.04430849
0002b0 f2 90 61 3e ea 40 8a 3e df 3d 7b be 7c ff 71 be
       0.22027948 0.2700265 -0.2453532 -0.23632616
0002c0 27 75 11 be 78 0a 1d 3f 7b 08 a4 3e 43 ae cf 3e
       -0.14204846 0.613441 0.3203772 0.4056264
0002d0 cb 6b 10 3e 67 db 8d 3c 44 aa 1c be d8 74 68 be
       0.1410362 0.017316533 -0.15299326 -0.22700822
0002e0 77 2b 09 be 7c 4f ec 3d 23 2b 15 3f 00 a7 02 3f
       -0.13395487 0.11538598 0.58268946 0.5103607
0002f0 00 4d 81 3e 43 8a 4c 3e 00 fb e3 bd 51 7a e6 bd
       0.2525406 0.19974618 -0.11131859 -0.11253799
000300 c3 0b b9 3e 43 b3 44 3f 26 d3 06 3e 79 ba 12 3f
       0.36141786 0.7683603 0.13166484 0.57315785
000310 db 3f e8 bd 7e 6a 83 3e 3b d1 59 be f0 ef bc 3d
       -0.113403045 0.25667185 -0.21271221 0.09225452
000320 b4 db b5 3d 2e a4 1e 3f 3c 1a 3e be 13 23 0d 3f
       0.08879796 0.6196927 -0.18564695 0.55131644
000330 03 17 a4 3e d1 89 b5 3d 50 2c 85 be a5 95 b1 bd
       0.32048807 0.08864177 -0.2601037 -0.086711206
000340 c9 9a 3f bc ac ca b9 3e 65 33 f9 3e 12 1b 31 3f
       -0.0116946185 0.3628744 0.48672023 0.6918193
000350 3d a1 c3 3c 56 f5 70 3e d3 1a 82 be b2 aa 00 bd
       0.023880595 0.23531088 -0.2541109 -0.031412788
000360 af 07 95 3d b4 54 2a be 7f 64 7d be 7d 30 4c 3f
       0.07276856 -0.16633874 -0.24745367 0.7976149
000370 31 c4 73 3f 5a 2b ab 3c 8a 57 81 3e 7a 96 35 3e
       0.9522124 0.020894695 0.252621 0.17733184
000380 a1 8c 35 3e 70 43 10 3e 9d 8e c6 3e ba 80 09 3f
       0.17729427 0.14088225 0.3878068 0.53712046
000390 b4 93 a4 bd ae a7 dc bc 75 59 63 be 6b 8d 3a be
       -0.08035985 -0.026935425 -0.22202094 -0.18218009
0003a0 24 d4 07 bd 27 76 26 bd 56 ae 36 bd 14 0a 4f 3e
       -0.033161297 -0.040640023 -0.044599853 0.20218688
0003b0 52 8e 14 3f 59 ed ae 3e eb cd e7 bb e1 dc 07 3f
       0.58029664 0.34165457 -0.007074108 0.5307141
0003c0 83 10 ce bc 1e b8 32 be 0c 1e 8d be be 27 36 3f
       -0.025154358 -0.17453048 -0.27561986 0.7115439
0003d0 bb e9 18 3f cb 72 5a 3f 4f 87 0c 3d c8 c3 15 3e
       0.59731644 0.8533141 0.034308728 0.14625466
0003e0 c7 f9 a9 3e d9 91 8e be 94 74 89 be 33 40 02 3f
       0.33198377 -0.27845648 -0.26846755 0.5087921
0003f0 a1 a9 17 3f e7 f0 c1 3c 1d dd ef bd 56 ff 49 3e
       0.5924321 0.023674442 -0.11712096 0.19726309

7x f4 [8, 16]
000000 ad 46 61 3f bd 09 6d 3e 14 5a 73 bd 7b 3f 86 3e
       0.8799847 0.23148246 -0.059412077 0.26220307
000010 5d 15 1d 3e 73 72 f0 bd 53 74 49 be 90 b6 ba be
       0.1534018 -0.117405795 -0.1967328 -0.3646741
000020 f8 aa 4e be 7f a5 c6 bd c4 6d 24 3e e8 7a 53 be
       -0.20182407 -0.096995346 0.16057497 -0.20652354
000030 4c 05 56 be a0 07 8e 3d 22 4f 24 bd 45 e9 b7 be
       -0.20900458 0.06935048 -0.04011453 -0.35920158
000040 6f 06 94 be 8d b5 17 3f 1d 3d 76 3d 35 21 96 3d
       -0.28911158 0.592614 0.060116876 0.073305525
000050 ae 2f 98 be c5 6e 8e 3d d8 cd 77 be 9f 48 89 be
       -0.29723877 0.06954721 -0.24199617 -0.26813218
000060 f6 43 15 3f 31 4a 77 be 8e 6a ca 3e 5a e5 c6 bd
       0.58306825 -0.24149396 0.3953442 -0.09711714
000070 27 b0 a8 be 8d 5a 74 bd d3 6c 78 3e 7e 22 b8 bd
       -0.32946894 -0.05965667 0.24260263 -0.08990954
000080 c1 1d d2 be c2 c6 18 3c b2 cd 54 bd 8c 7a d5 be
       -0.41038325 0.009324731 -0.05195398 -0.41695058
000090 2d 3b c8 3e 4c 4a 23 3e 07 d0 06 3f e2 72 6e be
       0.39107648 0.15946311 0.52661175 -0.23286012
0000a0 a6 1f 55 bc 81 a8 7b be fa 63 d6 3e e6 4a aa 3e
       -0.013008034 -0.24575998 0.4187315 0.33260268
0000b0 47 b9 03 bf 4b 7b 40 be 5a 3f 86 3e e3 1e 2f 3e
       -0.51454586 -0.18797033 0.26220208 0.17101626
0000c0 f8 c1 83 bd 49 40 9a 3e 19 bc 0e bf 8a 70 fc bc
       -0.06433481 0.3012717 -0.55755764 -0.030815382
0000d0 5b 91 cf be e7 12 e9 3e 05 ba a5 3b aa 6d 13 3f
       -0.40540585 0.45522234 0.0050575756 0.5758921
0000e0 f2 1c 51 be 41 3e 4a bd 68 d6 2a 3f c5 f6 a1 be
       -0.20421198 -0.049375776 0.6673341 -0.31633583
0000f0 b4 64 70 be 46 19 27 3f ce 7a 33 bc ce 1b 53 bd
       -0.23475915 0.6527294 -0.010954572 -0.05154019
000100 e2 12 c1 3d 2b 23 82 be 92 d6 8d 3e df 6b 27 3f
       0.0942743 -0.25417456 0.27702767 0.65398973
000110 26 ed be 3e a6 ac 38 bf ee 50 3f 3e 78 5e 20 bd
       0.37290305 -0.7213844 0.18683216 -0.039152592
000120 e3 ee c3 be 3f 97 b5 3d 14 78 a7 3e 9b 42 d2 3e
       -0.38268194 0.088667385 0.327088 0.4106644
000130 2b 59 4d be f0 2c b6 be 2c 1d 38 3f 56 8b e2 be
       -0.20053546 -0.3558116 0.7191951 -0.4424693
000140 d5 84 93 be 00 e7 00 bf d5 bf db be 61 46 a7 3e
       -0.2881228 -0.5035248 -0.42919794 0.32670882
000150 0a 12 40 be 3e 05 50 3c 83 2f f0 be 45 e2 1b 3d
       -0.18756881 0.012696562 -0.4691125 0.038057584
000160 e0 72 13 3e d5 12 c5 3e f5 1f 8f 3e e6 97 35 3e
       0.1439929 0.3849093 0.2795407 0.17733726
000170 a9 1e f4 be 64 9c 8d bd ff 7f 35 3e 73 1a 04 bf
       -0.47679642 -0.06914595 0.17724608 -0.5160286
000180 0d b2 10 be f3 43 31 3f d1 a8 cb bd 6f 55 73 3d
       -0.14130421 0.6924431 -0.099443085 0.059407648
000190 a3 bc c2 be fd 23 8e 3e 53 5a 27 be 05 b1 f6 be
       -0.38034543 0.27761832 -0.1634305 -0.4818193
0001a0 75 45 20 bf 8c 5d b7 3e e4 68 fd 3e fe 38 35 3e
       -0.62605983 0.35813558 0.49494088 0.17697522
0001b0 bd 60 d6 be a1 c4 dc 3e 2c cc da be 70 1f 24 be
       -0.4187068 0.43118766 -0.42733896 -0.16027617
0001c0 d5 c9 96 be 9a 16 09 be 96 10 e6 3e e5 ef d4 be
       -0.2945086 -0.13387528 0.4493453 -0.41589275
0001d0 a0 7f 5d 3e d9 8a e8 3b c2 15 11 bf e3 26 11 bf
       0.21630716 0.00709663 -0.56673825 -0.5669996
0001e0 70 2d 0f 3e 0b 2e c1 be 91 f1 04 3f 3b 80 51 3e
       0.13982177 -0.3773044 0.519311 0.20459072
0001f0 ec 03 30 3f 8b 7f 10 be 59 97 62 3c cf 83 83 3c
       0.68755984 -0.14111154 0.013830029 0.016054062
