Vogen.Synth/models/g2p/man.v20210604-221933.onnx (onnx, 12615 bytes, 11 tensors)

qi f4 [16, 99]
0	0x3e0abe26	0.13549098
1	0xbd4e5a6f	-0.050379213
2	0xbf083d5e	-0.5321864
3	0x3f582c1c	0.84442306
4	0x3d8327b6	0.06404059
5	0xbf237135	-0.63844615
6	0xbf4ea968	-0.80727243
7	0x3d3fce28	0.046827465
8	0xbf26ff56	-0.6523336
9	0xbeed58aa	-0.46356708
10	0x3ef7a8ad	0.48370877
11	0x3e7f1620	0.24910784
12	0xbf3664dc	-0.7124765
13	0x3a976e26	0.0011553213
14	0xbecc52a0	-0.39906788
15	0xbf0f84bb	-0.56061906
16	0xbe53257a	-0.20619765
17	0xbe254030	-0.16137767
18	0x3ecef205	0.4041902
19	0x3f386341	0.7202645
20	0x3e9571d5	0.2918841
21	0xbf49e0e6	-0.7885879
22	0xbdd4bd20	-0.10387635
23	0xbd80687a	-0.06269927
24	0x3eb923d0	0.36160135
25	0xbf144508	-0.57917833
26	0x3e0ea261	0.1392913
27	0xbdfa637c	-0.122260064
28	0x3dbbce99	0.09170265
29	0x3f12cb15	0.5734113
30	0xbd3a1fba	-0.045440413
31	0x3e5db452	0.21650818
32	0xbef03b4b	-0.46920237
33	0xbf6576bd	-0.89634305
34	0x3e3a9f0a	0.18224731
35	0xbf7253b6	-0.9465898
36	0x3e95dd66	0.29270476
37	0xbe614f97	-0.22003017
38	0xbf9294a0	-1.1451607
39	0xbf132d26	-0.57490766
40	0xbedd3940	-0.4320774
41	0xbedcccbd	-0.43124953
42	0xbe88a02c	-0.266847
43	0x3e6a29a4	0.22867447
44	0x3f5f4ba7	0.8722481
45	0x3e999b84	0.30001462
46	0x3f20b3fa	0.6277462
47	0xbdfd1ae7	-0.12358647
48	0x3edc10c5	0.42981544
49	0xbf57cc82	-0.8429643
50	0x3f12db7b	0.5736615
51	0x3f03127a	0.5120007
52	0xbef65c9d	-0.48117533
53	0x3e4a914e	0.19781992
54	0x3f48dac4	0.7845881
55	0xbe9fb41a	-0.31192094
56	0xbaa0b6d6	-0.0012261521
57	0xbcbd2633	-0.023089504
58	0xbed2722a	-0.41102725
59	0xbeaace26	-0.33360404
60	0xbecb90f8	-0.3975904
61	0xbeb701d3	-0.3574358
62	0xbebd2423	-0.36941633
63	0xbebe7e91	-0.37205938
64	0x3d1324a4	0.035923615
65	0xbd724717	-0.059149828
66	0xbe6c6fbf	-0.23089503
67	0xbe0084f9	-0.12550725
68	0xbe0500b3	-0.12988548
69	0x3ce8a6e9	0.028399901
70	0xbd1b5216	-0.03792008
71	0x3c8dbf3e	0.017303105
72	0xbc9b61bb	-0.0189675
73	0xbd516482	-0.051121242
74	0xbebb57c6	-0.36590403
75	0xbd0279b0	-0.03185433
76	0xbe917a2a	-0.28413516
77	0xbe8c8f81	-0.27453235
78	0xbe772a66	-0.24137267
79	0xbea541d7	-0.32276794
80	0xbed6257e	-0.4182548
81	0xbea7c1c3	-0.32765016
82	0xbd05f395	-0.032703
83	0xbea9fc5e	-0.33200353
84	0xbe47efcb	-0.19525068
85	0xbeaa98aa	-0.33319598
86	0xbece444d	-0.40286484
87	0xbe7b069b	-0.24514239
88	0xbd74d647	-0.059774663
89	0xbecbe32b	-0.39821753
90	0xbe24577d	-0.16048999
91	0xbda02caa	-0.07821019
92	0xbec86310	-0.3913808
93	0xbe90558e	-0.28190273
94	0xbde1ed86	-0.11031632
95	0xbd2dc82d	-0.04242723
96	0xbe900820	-0.281312
97	0xbebf2ddf	-0.37339684
98	0xbec41c93	-0.3830305
99	0x3f0f5172	0.5598365
100	0xbf215a64	-0.6302855
101	0x3e87ca42	0.26521498
102	0x3e2565a0	0.16152048
103	0x3e26eef0	0.16302085
104	0x3f1db187	0.6159901
105	0x3ec804ab	0.3906606
106	0x3ea9a069	0.33130196
107	0x3f21eb66	0.63249815
108	0x3c8188ea	0.015812356
109	0x3e78b0aa	0.24286142
110	0xbeabeab2	-0.33577496
111	0xbf796058	-0.97412634
112	0x3edec585	0.4351007
113	0xbdf080b6	-0.117433
114	0xbf222943	-0.6334421
115	0xbe6d8046	-0.23193464
116	0x3e6cad1c	0.23112911
117	0xbd9627e0	-0.07331824
118	0xbe9f754d	-0.3114418
119	0xbf767e68	-0.9628663
120	0x3f02521b	0.50906533
121	0xbeccb6c8	-0.399832
122	0xbe0120bc	-0.12610143
123	0x3ee1fd92	0.4413877
124	0x3ede3aae	0.43404144
125	0xbf41fcca	-0.7577635
126	0x3dbf3f0c	0.09338197
127	0x3d98608b	0.07440289
128	0x3f381eff	0.71922296
129	0x3f5c0523	0.8594534
130	0x3da68f2c	0.081327766
131	0xbe0f60b2	-0.1400173
132	0x3d3fcb86	0.046824954
133	0x3ec1f01c	0.378785
134	0xbf23bd43	-0.63960665
135	0x3f4ffaae	0.8124188
136	0xbec05811	-0.3756719
137	0x3f0df598	0.5545287
138	0x3f17e008	0.5932622
139	0x3f21fcaa	0.6327616
140	0x3ebe481c	0.3716439
141	0xbe8c5395	-0.27407518
142	0xbf4b05ab	-0.79305524
143	0xbf33294d	-0.69984895
144	0x3e24818c	0.16065043
145	0xbe2131a4	-0.15741593
146	0x3d761be1	0.06008518
147	0xbe997374	-0.29970896
148	0x3e27127e	0.16315648
149	0xbf496133	-0.7866394
150	0xbe1371df	-0.14398907
151	0xbe68419c	-0.22681278
152	0x3ef4e7c9	0.47833088
153	0xbebe4728	-0.37163663
154	0xbe637893	-0.22213964
155	0x3ca74488	0.02041842
156	0x3cf96fec	0.030448876
157	0xbe3e669d	-0.18593831
158	0xbdd8cf59	-0.105864234
159	0xbd21f0d5	-0.039536316
160	0xbd3b951d	-0.045796502
161	0x3bd02832	0.006352448
162	0xbd771edd	-0.060332168
163	0x3cff5348	0.031167641
164	0xbb5fe0d3	-0.0034161105
165	0xbea0ebd3	-0.3142992
166	0xbe039eea	-0.1285359
167	0xbebc79c3	-0.36811647
168	0xbe821b04	-0.25411236
169	0xbe7d62a4	-0.2474466
170	0xbe9f7b83	-0.3114892
171	0xbed49187	-0.4151728
172	0xbdc4f4d5	-0.096170105
173	0xbe9f7cbe	-0.31149858
174	0xbbba4d47	-0.0056854817
175	0xbe3cc8ae	-0.18435928
176	0xbe8c34ba	-0.27383977
177	0xbed3cef9	-0.41368845
178	0xbecb148e	-0.3966412
179	0xbc8cd037	-0.017189128
180	0x3cac9102	0.021065239
181	0xbe57f15d	-0.21088167
182	0xbe3defe1	-0.18548538
183	0xbe928d1d	-0.28623286
184	0x3c32e886	0.010919696
185	0xbebf7dd3	-0.37400684
186	0xbd37385b	-0.04473148
187	0xbe3a55c5	-0.18196781
188	0xbe71ab67	-0.23600541
189	0xbc2b8b79	-0.010470265
190	0xbe61fe33	-0.22069626
191	0xbe9fcba9	-0.31210068
192	0xbed1c28b	-0.40968737
193	0xbea59663	-0.32341298
194	0xbe23cc1f	-0.15995835
195	0xbe6d3797	-0.23165737
196	0xbe5e7aa9	-0.21726479
197	0xbe6eaeec	-0.23308915
198	0x3f9c69ed	1.2219826
199	0xbf908dbd	-1.1293255
200	0xbf772520	-0.96541023
201	0xbf2f9984	-0.6859362
202	0xbf93af1c	-1.1537814
203	0xbe9d04ac	-0.30667627
204	0x3deec01d	0.116577365
205	0x3ffda03f	1.9814528
206	0xbf68ffe9	-0.9101549
207	0x3f9c2a4d	1.2200409
208	0xbf98b873	-1.193129
209	0xbfd89f88	-1.6923685
210	0xbe6a011f	-0.2285199
211	0xbf7ed366	-0.9954132
212	0xbfa4aa6b	-1.2864507
213	0x3f6774cf	0.9041261
214	0x3edb01ce	0.42774814
215	0x3e347c72	0.17625597
216	0x4025c1b9	2.589949
217	0xbeeebba9	-0.46627548
218	0xbf3d5d27	-0.73970264
219	0xbf8ef2aa	-1.1167805
220	0x3e228eb4	0.1587475
221	0xbf9323d1	-1.1495305
222	0x3f009f37	0.5024294
223	0xbf034b7e	-0.51287067
224	0xbf48cdc7	-0.7843899
225	0xbf99710a	-1.1987622
226	0xbf0b2594	-0.54354215
227	0xbf9a7a8f	-1.2068652
228	0xbdbdf2ea	-0.09274848
229	0xbe515164	-0.20441204
230	0x3f3facb9	0.7487293
231	0xbfa14b88	-1.2601175
232	0xbd89ccef	-0.06728541
233	0x3f28459b	0.6573121
234	0x3f38eda8	0.72237635
235	0xbfa03a18	-1.2517729
236	0xbe2be7fd	-0.16787715
237	0xbf28f862	-0.66004
238	0xbfb27c6b	-1.3944219
239	0xbf8035b0	-1.0016384
240	0x3e45854e	0.19289133
241	0xbe38f068	-0.18060458
242	0x3f03bacb	0.514569
243	0xbf86a368	-1.0518618
244	0xbed610a3	-0.41809568
245	0x3f8367a7	1.0266007
246	0xbf685d87	-0.9076771
247	0xbf9b9410	-1.215456
248	0xbf09337e	-0.53594196
249	0x3f02fe05	0.51168853
250	0xbf1b45f7	-0.6065363
251	0x3d5131d2	0.051072903
252	0xbfb7009f	-1.4297065
253	0xbebf25b7	-0.37333462
254	0xbef5c05a	-0.47998315
255	0xbf46c3cb	-0.77642506

r8 f4 [99]
0	0x3dddaac7	0.10823589
1	0x3e424e2d	0.18975134
2	0x3e86b2cc	0.26308286
3	0xbf2120a1	-0.6294041
4	0x3e264511	0.16237284
5	0x3e0770f8	0.13226688
6	0xbd536fb0	-0.051620185
7	0xbc03512e	-0.00801496
8	0xbded7f73	-0.11596575
9	0x3ed8c9de	0.42341512
10	0x3c4a0cb3	0.012332129
11	0xbe9193fe	-0.28433222
12	0xbe06d700	-0.13167953
13	0x3ec589f5	0.38581815
14	0xbdcf0265	-0.101078786
15	0xbe1bed1c	-0.15227169
16	0xba2f0e3a	-0.000667784
17	0xbd348b81	-0.044078354
18	0x3d1f318d	0.038865615
19	0xbd79e157	-0.061005916
20	0x3e1c8bbf	0.15287684
21	0xbdaf541c	-0.085609645
22	0xbe82e10c	-0.25562322
23	0xbe29da5c	-0.16587204
24	0x3e84ac06	0.25912493
25	0xbd982269	-0.07428438
26	0xbd23f3e9	-0.040027533
27	0xbd3ff748	-0.046866685
28	0xbc9848d0	-0.018589407
29	0x3d9cf3f0	0.07663715
30	0xbcf80f94	-0.030280866
31	0xbd8c18ee	-0.068406925
32	0xbebc764f	-0.36809012
33	0xbd883a30	-0.066517234
34	0x3e3eddd9	0.18639316
35	0x3e82280b	0.25421175
36	0x3e54ebb5	0.2079304
37	0xbe90d063	-0.28283986
38	0x3ed9c584	0.42533505
39	0x39f1966a	0.0004607917
40	0xbc8c4dcb	-0.017126938
41	0x3e3f20f9	0.18664922
42	0x3db7ee45	0.08980993
43	0x3e82a0e1	0.25513366
44	0xbea96f63	-0.33092794
45	0x3ec03c77	0.3754613
46	0x3d0f5e33	0.035001945
47	0xbc41323d	-0.011791763
48	0xbdb8ee82	-0.09029867
49	0xbd292d7d	-0.041303147
50	0xbe63b0a8	-0.22235358
51	0xbe142c65	-0.1447006
52	0x3e4f1ad2	0.20225075
53	0x3e601296	0.2188209
54	0xbeb9bceb	-0.36276945
55	0xbde591b9	-0.11209435
56	0xbdfbdf02	-0.12298395
57	0xbde6a118	-0.11261195
58	0xbdd5a200	-0.1043129
59	0xbdf53573	-0.11973085
60	0xbde0f8ad	-0.10984931
61	0xbddd7cab	-0.10814794
62	0xbde1439a	-0.10999222
63	0xbe006134	-0.1253708
64	0xbde62b21	-0.11238695
65	0xbdebc303	-0.11511805
66	0xbe00dca5	-0.12584169
67	0xbde01e7b	-0.10943314
68	0xbde6de1a	-0.11272831
69	0xbdd80185	-0.10547165
70	0xbde74f33	-0.11294403
71	0xbde18b05	-0.11012844
72	0xbde18350	-0.11011374
73	0xbdee189f	-0.1162579
74	0xbdd8f652	-0.10593857
75	0xbdf0909f	-0.11746334
76	0xbde97867	-0.11399918
77	0xbdd4b3e0	-0.10385871
78	0xbdef44da	-0.11683054
79	0xbdeb7783	-0.114974044
80	0xbded666d	-0.11591802
81	0xbdef6f9f	-0.11691212
82	0xbe0570c0	-0.13031292
83	0xbde567b4	-0.112014204
84	0xbddb9732	-0.107221976
85	0xbdf4c49c	-0.11951563
86	0xbddd5259	-0.10806722
87	0xbde88043	-0.11352589
88	0xbde7b0ed	-0.11313043
89	0xbdf74109	-0.12072951
90	0xbde6edcc	-0.11275825
91	0xbdea87ce	-0.11451684
92	0xbdd6abde	-0.10482
93	0xbddc3777	-0.107527666
94	0xbdec6d55	-0.11544291
95	0xbde1753a	-0.11008687
96	0xbdf6eec3	-0.12057259
97	0xbdedc325	-0.116094865
98	0xbde63e68	-0.11242372

6i f4 [16, 16]
0	0xbd93c8f9	-0.07216067
1	0x3f785b9f	0.970148
2	0xbf196f9a	-0.59935915
3	0x3e1877d7	0.14889465
4	0x3f1ca7bb	0.61193436
5	0x3d93302b	0.07186922
6	0xbecb6841	-0.39727977
7	0x3f6c7541	0.92366415
8	0x3e9476eb	0.28996977
9	0x3f0b6d2d	0.54463464
10	0xbed53a23	-0.41645917
11	0xbf09b37a	-0.53789485
12	0xbe917061	-0.2840605
13	0x3e846eb4	0.2586571
14	0xbe052ac8	-0.13004601
15	0x3f9b7cf8	1.2147512
16	0xbf083444	-0.5320475
17	0xbe28b244	-0.16474253
18	0x3ed515c7	0.41618177
19	0x3f8e9d77	1.1141804
20	0x3eb3687a	0.35040647
21	0xbf17f222	-0.5935384
22	0x3f4b242f	0.79352087
23	0xbf3bc355	-0.7334493
24	0x3f982fd5	1.1889597
25	0xbf98fb35	-1.1951662
26	0xbf04f593	-0.51937217
27	0x3e203ddc	0.15648597
28	0x3e319f75	0.17345984
29	0x3f54b496	0.8308805
30	0x3f5eff5a	0.87108386
31	0x3eb7494d	0.35798112
32	0xbee4b6b2	-0.44670635
33	0x3f514d74	0.8175881
34	0x3ec38d85	0.38193908
35	0x3f37c85a	0.7179009
36	0x3f037771	0.5135413
37	0x3e95c3d3	0.29250965
38	0x3e8fb427	0.28067133
39	0x3dc8afc0	0.09799147
40	0x3e90412d	0.28174725
41	0xbd8d7409	-0.069068976
42	0xbf47247b	-0.7779004
43	0x3ec634f9	0.3871229
44	0x3f0a40d0	0.54005146
45	0x3f5e5352	0.86845887
46	0xbe5b8570	-0.21437621
47	0xbf12ed5a	-0.5739342
48	0x3f3fbd03	0.74897784
49	0x3f2507a6	0.64464796
50	0x3f483825	0.7821067
51	0xbf822c33	-1.0169739
52	0xbf0e3f0a	-0.5556494
53	0x3f0c876f	0.54894155
54	0x3f8880f9	1.0664359
55	0xbefa2610	-0.48857164
56	0xbeafc0f6	-0.34326905
57	0x3e997d6e	0.29978508
58	0x3f563f67	0.83690494
59	0x3f49f6fe	0.78892505
60	0x3f74b1c0	0.95583725
61	0x3ee6618c	0.44996297
62	0xbe7b024a	-0.24512592
63	0x3fa3e898	1.2805357
64	0x3f1db4d7	0.61604065
65	0xbee6a26e	-0.450458
66	0x3e559afd	0.20859905
67	0x3f2daa81	0.67838293
68	0x3f0c4a85	0.5480121
69	0x3e23e183	0.16003995
70	0x3f6b236c	0.91850924
71	0x3cca66ad	0.024707163
72	0x3e9ad233	0.30238494
73	0x3f3529df	0.70767015
74	0x3f67d49e	0.90558803
75	0xbf7dcece	-0.99143684
76	0x3d8ffd68	0.07030755
77	0x3da80043	0.08203175
78	0xbf4aa9af	-0.79165167
79	0xbf561bce	-0.83636177
80	0xbf0b0c70	-0.54315853
81	0x3fae3e76	1.3612812
82	0xbf2dd840	-0.67908096
83	0xbf01c24d	-0.50687104
84	0xbf6bfdbf	-0.9218406
85	0x3f881370	1.0630932
86	0x3ef2b0da	0.47400552
87	0x3f247302	0.6423799
88	0xbec4153f	-0.3829746
89	0x3ee21320	0.44155216
90	0x3f6d2a46	0.9264263
91	0x3de6d9e0	0.11272025
92	0x3faa651b	1.3312105
93	0xbce89c6d	-0.028394902
94	0x3f4f9470	0.8108587
95	0x3f96bf5e	1.1777151
96	0x3fa40203	1.2813114
97	0x3f66c05e	0.9013728
98	0xbe046651	-0.12929656
99	0x3fb08bbf	1.3792647
100	0x3e00d630	0.12581706
101	0x3f56320f	0.83670133
102	0xbf308889	-0.68958336
103	0xbe4cbe94	-0.19994575
104	0xbf7832e4	-0.9695265
105	0xbda8672d	-0.08222804
106	0x3ebb6672	0.36601597
107	0x3fcc98f1	1.5984174
108	0x3ee915aa	0.4552434
109	0x3ec9f1b6	0.39442223
110	0x3f8a4cf1	1.0804731
111	0x3f9eef8e	1.2416856
112	0x3f403fea	0.75097525
113	0xbea635c2	-0.3246289
114	0x3e39768c	0.18111628
115	0x3e8fdb14	0.2809683
116	0x3f514df5	0.8175958
117	0xbe9dbc63	-0.3080779
118	0x3f0fd9a1	0.5619145
119	0x3ef9d7ec	0.48797548
120	0xbf337864	-0.70105577
121	0x3e0a5315	0.13508256
122	0xbf3ae7df	-0.7301006
123	0x3f987397	1.1910275
124	0xbeb5db30	-0.3551879
125	0x3f5bfd24	0.85933137
126	0xbf2beb6c	-0.671561
127	0xbf7332b1	-0.94999224
128	0xbe32f1dd	-0.17475076
129	0x3f66a3af	0.9009351
130	0xbddfe9f7	-0.10933297
131	0x3e8ddf5f	0.2770948
132	0x3f0e5fd9	0.55615
133	0x3e3ceaa5	0.18448885
134	0x3e9ebe62	0.31004626
135	0x3f803773	1.0016922
136	0xbcf231ff	-0.029564856
137	0x3f6f03b5	0.9336503
138	0x3ef2042c	0.47268808
139	0xbe80d5b8	-0.25163054
140	0xbf2f2400	-0.68414307
141	0xbf2b1604	-0.6683047
142	0x3f2ce56d	0.67537576
143	0x3f8e6cee	1.1126993
144	0x3f108e1d	0.5646685
145	0xbe88f3da	-0.26748544
146	0x3f2b47a4	0.6690619
147	0xbe2a85ce	-0.16652605
148	0xbf0841ad	-0.53225213
149	0x3f819202	1.0122683
150	0xbdb7e87a	-0.08979888
151	0x3e30dc1e	0.17271468
152	0x3fabc820	1.3420448
153	0x3f1346d8	0.57529974
154	0x3f4ec4a2	0.8076879
155	0xbe344e65	-0.1760803
156	0x3f36e32f	0.71440405
157	0x3f3de7df	0.7418193
158	0x3f0a59f0	0.54043484
159	0xbe03d64c	-0.12874717
160	0x3f217b0e	0.6307839
161	0x3ea0ffc3	0.3144513
162	0x3f5dd4ad	0.8665264
163	0x3f14ec06	0.58172643
164	0xbf082fbc	-0.53197837
165	0xbeb86d4c	-0.36020887
166	0x3ece57e8	0.40301442
167	0x3f5a5862	0.8529111
168	0x3f4c53b3	0.79815215
169	0x3ee1b439	0.4408281
170	0x3e8c89be	0.2744884
171	0xbf23b1de	-0.6394328
172	0x3f6ab7cf	0.9168672
173	0x3db7b92c	0.089708656
174	0x3f83f9a8	1.0310564
175	0xbf802f79	-1.0014488
176	0x3e28b102	0.16473773
177	0x3f59d8aa	0.8509623
178	0x3faf4333	1.3692383
179	0xbd28cad3	-0.041209053
180	0xbeb5a927	-0.35480615
181	0xbeb4a086	-0.3527872
182	0x3f0fc69b	0.5616242
183	0x3fb01180	1.375534
184	0xbee0b74a	-0.43889838
185	0x3e0e55da	0.13899937
186	0x3f6d95b9	0.92806584
187	0x3ec0fe8f	0.37694213
188	0xbe423130	-0.18964076
189	0xbf53b000	-0.8269043
190	0x3fbcdcb6	1.4754856
191	0xbe96fde1	-0.2949057
192	0xbcff2c10	-0.03114894
193	0xbe98dd0a	-0.2985614
194	0xbf8ab202	-1.0835574
195	0x3e9bc569	0.3042405
196	0x3f20bf41	0.6279183
197	0xbf89abb9	-1.075553
198	0x3f8a5ea7	1.0810136
199	0x3f767d84	0.9628527
200	0x3f336b56	0.70085657
201	0x3f470dec	0.7775562
202	0xbf2f4947	-0.6847119
203	0x3f3463a0	0.70464516
204	0x3d4c8397	0.04993018
205	0x3f16fd34	0.5898011
206	0x3f5bcbad	0.8585766
207	0xbf62a6e0	-0.8853588
208	0x3f132d4c	0.5749099
209	0xbdbbeac8	-0.0917564
210	0x3e5f4c3e	0.21806428
211	0x3e53098b	0.20609109
212	0x3f42865f	0.75986284
213	0x3f60c47a	0.877998
214	0xbf59cf70	-0.8508215
215	0x3cf4efa6	0.02989943
216	0x3e8b33d7	0.27187988
217	0x3f501d43	0.8129465
218	0x3dfcde89	0.12347133
219	0x3eb669fb	0.35627732
220	0x3d1a19fc	0.037622437
221	0x3f5eda71	0.87052065
222	0xbf99fa10	-1.2029438
223	0x3f410263	0.75394267
224	0x3f97053f	1.1798476
225	0x3ec293b4	0.38003314
226	0xbfb73f0e	-1.4316118
227	0x3ef59f76	0.47973222
228	0x3d293db2	0.041318603
229	0x3e8b416d	0.27198353
230	0x3f6b0cc2	0.9181634
231	0xbdd935f1	-0.10605992
232	0x3d026dd0	0.031843007
233	0xbf048754	-0.51768994
234	0x3f655001	0.895752
235	0xbe8d5465	-0.2760345
236	0x3f0e1899	0.55506283
237	0x3ddc2e10	0.10750973
238	0x3f52f09e	0.823984
239	0x3f51d4ca	0.81965315
240	0x3eba78c5	0.36420265
241	0xbfa541c3	-1.2910694
242	0x3f004bb6	0.50115526
243	0x3e89b17e	0.26893228
244	0x3f56cca6	0.8390602
245	0x3ee36892	0.44415718
246	0x3f4d342e	0.80157745
247	0xbf3610b0	-0.71119213
248	0x3f690d8c	0.91036296
249	0x3f79683c	0.97424674
250	0x3f765d03	0.96235675
251	0x3fb85d7d	1.440353
252	0xbf3ecf68	-0.74535227
253	0xbf68a479	-0.90875965
254	0x3e22c949	0.15897097
255	0x3faf9865	1.3718382

8s f4 [16]
0	0x3dd62196	0.10455625
1	0x3e1a3865	0.15060575
2	0x3f79fcca	0.9765135
3	0x3dad93b0	0.08475435
4	0x3e24defe	0.1610069
5	0x3eb52bac	0.35384881
6	0xbd6823a1	-0.056674603
7	0x3e449bc8	0.19200051
8	0x3e31df04	0.1737023
9	0x3b821c9a	0.0039706947
10	0x3eabe1ad	0.33570614
11	0xbc992900	-0.018696308
12	0x3e8cd90d	0.27509347
13	0x3e62f3be	0.22163293
14	0x3e8c1962	0.27363116
15	0x3e9bae6c	0.3040651

3 f4 [6, 4]
0	0x3ef8967f	0.4855232
1	0x3f575f01	0.8412934
2	0x4004cda1	2.0750506
3	0xbf6a0d62	-0.9142667
4	0xbf1a5dbb	-0.6029927
5	0x3f8ec18c	1.1152816
6	0xbdad89bd	-0.08473537
7	0x3f64a24b	0.8931014
8	0xbf8cb8a8	-1.0993853
9	0x3f015b87	0.50530285
10	0x3f6686b8	0.90049314
11	0xbf5c188d	-0.8597496
12	0xbf6bbdb6	-0.9208635
13	0x3f9c5fd5	1.2216746
14	0x3f7cd674	0.9876473
15	0x3e2ac9ee	0.16678593
16	0x3f20de3f	0.6283912
17	0x3f15db29	0.58537537
18	0xbf34d070	-0.7063055
19	0x3fa6c6f7	1.3029469
20	0x3fb3e3d9	1.4053909
21	0x3ee4f320	0.4471674
22	0xbfab4b7c	-1.3382411
23	0xbec3f82d	-0.3827528

vg f4 [4]
0	0x3eb356ab	0.3502706
1	0x3da4632a	0.080267265
2	0x3e8a08c5	0.26959816
3	0x3f02f1ac	0.5115001

45 f4 [16, 16]
0	0xbe464637	-0.19362722
1	0x3ee9bd83	0.45652398
2	0xbfd84497	-1.6895932
3	0x3e876b5e	0.26449102
4	0x3f385e69	0.7201906
5	0x3fb028f1	1.3762494
6	0xbf2902b2	-0.6601974
7	0xbf4ec5ef	-0.8077077
8	0xbec96386	-0.39333743
9	0xbe5b4a49	-0.21415056
10	0x3e9047d9	0.28179815
11	0x3f1b9b7c	0.60784125
12	0x3fa46357	1.2842816
13	0xbea2c2be	-0.31789201
14	0xbf907e37	-1.1288518
15	0x3fc60032	1.546881
16	0x3fc28f0e	1.5199907
17	0x3f975f9d	1.1826054
18	0x3f820143	1.0156635
19	0xbf5ff69f	-0.8748569
20	0xbed82414	-0.42215025
21	0xbe0c29c4	-0.13687807
22	0x3e6b034d	0.22950478
23	0xbf38790a	-0.7205969
24	0x3f92363a	1.1422799
25	0x3f2b4e11	0.66915995
26	0x3f6b1a88	0.9183736
27	0x3d9809e6	0.07423763
28	0x3fa49bf5	1.2860094
29	0xbe0dedfe	-0.13860318
30	0x3f37d33e	0.71806705
31	0xbb669587	-0.003518434
32	0x3f32d15c	0.6985071
33	0x3f4a7f1b	0.791002
34	0xc00faac3	-2.2447975
35	0x3f954f1a	1.1664765
36	0xbf6f8db8	-0.9357562
37	0x3f484c3a	0.7824131
38	0x3f1aeca7	0.6051735
39	0x3f0b4df8	0.54415846
40	0x3dfa7925	0.12230138
41	0xbe77f22c	-0.24213475
42	0xbfb01706	-1.3757026
43	0xbf1a9471	-0.60382754
44	0x3f769580	0.9632187
45	0xbd5b259d	-0.053502668
46	0xbf498f91	-0.7873469
47	0xbeccad0a	-0.39975768
48	0x3eecb78e	0.4623379
49	0xbcb2358f	-0.021754054
50	0x3eddce58	0.4332149
51	0xbe095e0c	-0.13414782
52	0xbf2c1d42	-0.67232144
53	0xbf4cfb21	-0.8007069
54	0x3fa575ac	1.2926536
55	0x3f7f66a0	0.9976597
56	0x3f6a6091	0.915536
57	0xbe05ded3	-0.13073282
58	0xbdc79ba1	-0.09746481
59	0x3f2f24be	0.6841544
60	0x3f5cc97f	0.8624496
61	0x3f5cbffb	0.8623044
62	0x3fad3232	1.3530943
63	0x3f2258af	0.6341657
64	0xbf4f96bf	-0.81089395
65	0x3fc40fdd	1.5317341
66	0x3d0df4a1	0.034657124
67	0x3ed35635	0.41276708
68	0x3ed16262	0.40895373
69	0xbfab4be6	-1.3382537
70	0x3f5e4815	0.8682874
71	0x3f87dc21	1.0614053
72	0xbf0041d5	-0.5010045
73	0x3f0c700c	0.5485847
74	0x3f1b5255	0.60672504
75	0x3f87824d	1.058664
76	0x3f8999fb	1.0750116
77	0x3f2b6f84	0.66967034
78	0x3fbd2566	1.4777038
79	0x3f5cf7ae	0.8631543
80	0x3eacbd74	0.3373829
81	0xbf84c6d5	-1.0373179
82	0x3f8a6a53	1.0813698
83	0x3e003925	0.12521799
84	0x3ea95091	0.3306928
85	0x3f734821	0.95031935
86	0x3c079cc0	0.008277118
87	0x3e4f36c5	0.20235737
88	0xbeabfedd	-0.33592883
89	0x3fad2fee	1.3530252
90	0x3f911a3b	1.133613
91	0xbf7bb7ae	-0.9832715
92	0x3f7bf7bc	0.9842489
93	0x3eedc96d	0.46442738
94	0xbe1c254d	-0.15248604
95	0xbf2d9b7b	-0.6781537
96	0x3f257684	0.64633965
97	0x3f3f6a70	0.74771786
98	0xbf80053f	-1.0001601
99	0x3f532a9e	0.82486904
100	0xbd53bfe6	-0.05169668
101	0x3f7b4a1e	0.9815997
102	0xc019b3ac	-2.4015913
103	0x3fa0d0f7	1.2563771
104	0x3ee0e354	0.43923438
105	0xbe1cb35e	-0.15302798
106	0x3f7d9fea	0.99072134
107	0xbf9e85d1	-1.2384588
108	0x3da10a99	0.078633495
109	0xbdc16bdf	-0.09444403
110	0xbfbc8ea9	-1.4731036
111	0xbe4406b0	-0.19143176
112	0x3cefaa6b	0.029256066
113	0x3c619d18	0.013770364
114	0x3ea9c072	0.33154637
115	0xbf6e544f	-0.93097395
116	0x3f055fbb	0.520992
117	0xbeca3b79	-0.394985
118	0x3fa424a4	1.2823682
119	0x3f74ed34	0.95674443
120	0x3f0a5ae4	0.5404494
121	0x3ecd5d39	0.40110186
122	0xbe037d7e	-0.1284084
123	0x3ee059eb	0.43818602
124	0x3f8fdd93	1.1239494
125	0x3ebcca24	0.3687297
126	0xbfaf3f1f	-1.3691138
127	0x3f992899	1.1965514
128	0xbf10843a	-0.5645176
129	0x3f9bde14	1.2177148
130	0x3defa886	0.11702065
131	0x3f269f12	0.6508647
132	0x3e1b56ff	0.15169905
133	0xbf197c60	-0.59955406
134	0xbe574a6f	-0.21024488
135	0x3f7e7957	0.994039
136	0xbe127c6a	-0.14305273
137	0x3dfb4062	0.122681394
138	0x3f3ac73a	0.72960246
139	0x3fe5ea30	1.7962093
140	0x3f50c9a0	0.81557655
141	0xbf080ddd	-0.53146154
142	0x3f0d6b68	0.55242014
143	0xbface539	-1.3507453
144	0x3f4eb8af	0.80750555
145	0xbf93d75e	-1.15501
146	0x3f5205b4	0.8203995
147	0xbf7dc1fb	-0.99124116
148	0x3f6d7597	0.9275755
149	0xbee1e9a9	-0.4412358
150	0xbedd59f7	-0.432327
151	0x3eae43fd	0.34036246
152	0x3efa0f17	0.48839638
153	0x3ece773e	0.4032535
154	0x3ec1761b	0.3778542
155	0x3e04ebb2	0.12980536
156	0x3f153f5d	0.5829981
157	0x3f46de03	0.77682513
158	0x3e872ea1	0.26402763
159	0xbf838785	-1.0275732
160	0x3f11d890	0.56971073
161	0xbf5db3c7	-0.86602443
162	0x3f306ab0	0.6891279
163	0x3ea7bf64	0.32763207
164	0x3f3ecb0b	0.7452857
165	0xbe792e71	-0.24334122
166	0x3d604681	0.054754738
167	0x3f89419c	1.0723147
168	0x3c9758c5	0.018474946
169	0x3eb4a7c4	0.35284245
170	0xbda87ce2	-0.082269445
171	0xbf42ac6c	-0.76044345
172	0x3ef409ad	0.47663632
173	0x3f3de240	0.74173355
174	0xbef67f01	-0.4814377
175	0x3f76ae6f	0.96359915
176	0xbf0bd1b6	-0.5461687
177	0x3f8938ab	1.0720419
178	0x3dd5e122	0.10443331
179	0x3f19a59e	0.60018337
180	0xc002d3c6	-2.0441756
181	0x3fa74f7c	1.3071132
182	0xbef94a36	-0.4868943
183	0x3f168f51	0.58812433
184	0xbfd14ca7	-1.6351517
185	0x3f49d715	0.78843814
186	0xbe957dbd	-0.29197493
187	0xbde110e7	-0.10989552
188	0x3f2608ea	0.6485735
189	0x3ef9bc21	0.48776343
190	0xbfd71c38	-1.6805487
191	0xbfa18603	-1.2619022
192	0xbec7060b	-0.38871798
193	0x3f78d6c6	0.9720272
194	0xbf25273f	-0.6451301
195	0x3f3a16d4	0.7269108
196	0x3f660c16	0.8986219
197	0x3f01a221	0.50638014
198	0x3f75068e	0.95713127
199	0x3f542375	0.82866603
200	0x3f4248a7	0.7589211
201	0xbf0a50f3	-0.5402977
202	0x3e69ab5b	0.22819273
203	0x3f2f77b3	0.6854202
204	0x3f8c5f24	1.0966535
205	0xbfa83128	-1.3140001
206	0x3f6daa95	0.9283841
207	0x3f249e84	0.64304376
208	0x3f165d73	0.5873634
209	0xbf0efbfd	-0.55853254
210	0x3d04e4d1	0.03244478
211	0x3fa9569c	1.3229556
212	0x3efc1a05	0.492386
213	0x3f4760b9	0.7788196
214	0x3f78659e	0.97030056
215	0x3f68aaf3	0.9088585
216	0x3f881728	1.0632067
217	0xbe939e17	-0.2883155
218	0xbe5cad01	-0.21550371
219	0x3f831fdc	1.0244098
220	0x3f1cf927	0.61317676
221	0x3e320eb7	0.17388426
222	0x3e5bda4e	0.21469995
223	0xbe8b1d8f	-0.2717099
224	0x3e484039	0.19555749
225	0xbfabc747	-1.342019
226	0x3ed0e62c	0.40800607
227	0x3ec058eb	0.3756784
228	0x3f203f59	0.6259666
229	0x3f64a938	0.8932071
230	0xbe729013	-0.23687772
231	0x3eec593d	0.46161833
232	0x3ea4250d	0.32059518
233	0x3f939818	1.153079
234	0x3f9abcc0	1.2088852
235	0x3efe3258	0.49647784
236	0x3f326a90	0.6969385
237	0x3d81e1eb	0.063419186
238	0x3fa3acd1	1.2787114
239	0x3e5027de	0.20327708
240	0xbe216b3c	-0.15763563
241	0x3fb6e998	1.4290037
242	0x3f3a8a85	0.72867614
243	0x3ec4bf1c	0.38427055
244	0x3f4e240e	0.80523765
245	0xbf1c3f25	-0.6103385
246	0x3f83529b	1.0259584
247	0x3e60a308	0.21937191
248	0x3cfcddea	0.030867536
249	0x3f9cc094	1.224627
250	0x3f5297ed	0.8226307
251	0xbcff95ad	-0.0311993
252	0xbe9a445c	-0.3013028
253	0x3f7558ba	0.9583851
254	0x3f0c5415	0.548158
255	0x3f69cec4	0.91331124

d f4 [16]
0	0x3e6232df	0.22089718
1	0x3e4b62d3	0.19861917
2	0xbb721fe6	-0.0036945282
3	0x3e8a19f4	0.26972926
4	0x3ecb4202	0.39698797
5	0x3eece75b	0.4627026
6	0xbd0e919d	-0.034806836
7	0xbbbf7404	-0.0058426876
8	0x3e99abcd	0.30013886
9	0x3e5096d9	0.20370044
10	0x3e624578	0.22096813
11	0x3ee13dbc	0.43992412
12	0x3f2b6f59	0.6696678
13	0xbdf3d3f8	-0.11905664
14	0x3ecf42e8	0.40480733
15	0x3e97ddcb	0.29661402

t f4 [8, 6]
0	0xbf0df426	-0.55450666
1	0x3f4cd582	0.8001329
2	0x3f8c8e41	1.0980912
3	0x3fa87217	1.3159817
4	0x3e07bc6c	0.13255471
5	0xbf8bcf1c	-1.092258
6	0xbf8bd850	-1.0925388
7	0xbf1d56ea	-0.61460745
8	0xbed3af40	-0.41344643
9	0xbf86d704	-1.0534368
10	0x3f35ea6c	0.71060824
11	0xbf5fa798	-0.873651
12	0xbfcc4faa	-1.5961812
13	0x3f0daa61	0.553381
14	0xbefdb88d	-0.49554864
15	0xbf790e35	-0.97287303
16	0x3eff692a	0.4988492
17	0xbf1412d9	-0.5784126
18	0xbfc286a3	-1.5197338
19	0x3f6a4efb	0.91526765
20	0xbf5478c7	-0.8299679
21	0xbc9088de	-0.017643388
22	0x3f678484	0.9043658
23	0xbee0f7b6	-0.43938988
24	0xbf3d7833	-0.74011534
25	0x3f4f62e7	0.8101029
26	0xbf596491	-0.8491908
27	0x3dabf1a8	0.08395702
28	0x3fcc114f	1.5942782
29	0xbf47d677	-0.7806162
30	0x3fa6f9ef	1.3045024
31	0x3f6b6e35	0.9196504
32	0x3e6a02e9	0.22852673
33	0xbd04f770	-0.032462537
34	0x3ff470ed	1.9096962
35	0xbf34fe41	-0.7070046
36	0x3f0f6cc5	0.56025344
37	0x3f0091b8	0.5022235
38	0x3e2a20ca	0.1661407
39	0x3e7a1153	0.24420671
40	0x3fda15a6	1.7037857
41	0xbf2f864b	-0.6856429
42	0x3fcc4e71	1.5961438
43	0x3f1e20f7	0.6176905
44	0x3f7bdc53	0.98383063
45	0x3f631cc0	0.88715744
46	0x3f9821da	1.1885331
47	0xbd81e98f	-0.06343376

2 f4 [6]
0	0x3f5a3c2e	0.85248077
1	0x3f0551c5	0.52077895
2	0x3f43b40b	0.764466
3	0x3e4884ae	0.19581863
4	0x3f69347c	0.9109571
5	0x3f4cebbb	0.80047196

l f4 [37, 16]
0	0xbd1d1b10	-0.038355887
1	0x3dca1246	0.09866767
2	0xbf2962cf	-0.66166395
3	0x3ee7d5d8	0.45280337
4	0x3eb64913	0.35602626
5	0x3f35ae55	0.70969135
6	0xbf952e65	-1.1654783
7	0x3e358bb7	0.17729078
8	0xbf1d83ca	-0.6152922
9	0x3efee925	0.4978725
10	0x3f0a55c6	0.5403713
11	0xbf39ab20	-0.7252674
12	0xbec0db9c	-0.3766755
13	0x3e0bcab7	0.13651548
14	0x3e5ca528	0.21547377
15	0x3e3d54c6	0.1848937
16	0xbdee6113	-0.11639609
17	0xbf55e1f7	-0.8354792
18	0xbc31ee7b	-0.010860081
19	0x3ec45d47	0.38352415
20	0x3f768937	0.96303123
21	0xbf4f7872	-0.8104316
22	0xbefb5e6f	-0.49095485
23	0x3f3ac702	0.7295991
24	0x3f305d80	0.6889267
25	0xbf3f85f7	-0.7481379
26	0x3ed14700	0.4087448
27	0x3d992e6c	0.074795574
28	0x3f27a609	0.65487725
29	0x3f4107df	0.75402635
30	0xbf17c2c7	-0.5928158
31	0xbdc17a2a	-0.09447129
32	0x3dd2df95	0.10296551
33	0x3f9a753c	1.2067027
34	0x3f0df561	0.55452543
35	0xbe8b8cd8	-0.27255893
36	0xbf55a003	-0.83447284
37	0xbd0a5a9f	-0.03377783
38	0xbd78f94f	-0.060784634
39	0xbeba36e0	-0.3636999
40	0xbe381f6f	-0.17980741
41	0x3e1f8779	0.15579022
42	0xbf059a94	-0.5218899
43	0xbe860788	-0.2617762
44	0x3f265854	0.6497853
45	0x3eabaf02	0.33531958
46	0xbe051163	-0.12994914
47	0xbf36a8fb	-0.71351594
48	0xbf71e46e	-0.9448918
49	0x3dc798a4	0.09745911
50	0x3eac79de	0.33686727
51	0x3f14b158	0.58083105
52	0x3f003733	0.5008423
53	0xbec62725	-0.3870174
54	0xbf12e159	-0.57375103
55	0xbf8cf7de	-1.1013143
56	0x3e99fda5	0.30076328
57	0xbe0eec19	-0.13957252
58	0xbebd8636	-0.37016457
59	0x3f4dc082	0.8037187
60	0xbedac174	-0.42725718
61	0x3d771e35	0.060331542
62	0x3df94f1e	0.121732935
63	0xbf7f145f	-0.9964046
64	0xbe4a3f94	-0.19750816
65	0x3f189e4f	0.5961656
66	0xbeda44ec	-0.42630708
67	0x3ef2be11	0.47410634
68	0x3e91fb62	0.28512102
69	0xbe813cab	-0.25241598
70	0xbfb6064d	-1.4220673
71	0x3f710ca2	0.941599
72	0xbf4df9b1	-0.80459124
73	0xbea331ce	-0.31873935
74	0xbe5cfc13	-0.21580534
75	0x3f200b26	0.6251701
76	0xbfb7e574	-1.4366899
77	0xbf131145	-0.57448226
78	0xbf2deab7	-0.6793627
79	0x3d7c1d67	0.061551478
80	0x3df4b007	0.11947637
81	0x3f35f298	0.71073294
82	0xbed14e30	-0.40879965
83	0x3f661ce6	0.89887846
84	0x3f182bb7	0.59441704
85	0x3ed08fcd	0.4073471
86	0xbf6217a4	-0.8831732
87	0x3f0d7b80	0.5526657
88	0x3cfded12	0.030996833
89	0x3ed70b3a	0.42000753
90	0x3edefd24	0.43552506
91	0xbf5e3d55	-0.86812335
92	0xbf00c186	-0.50295293
93	0x3f435310	0.7629862
94	0x3f0102e4	0.50395036
95	0x3eff5d3b	0.49875817
96	0x3f55d843	0.83533114
97	0xbea50631	-0.32231286
98	0xbdeb5579	-0.11490912
99	0x3ee08f3b	0.43859276
100	0x3f06d560	0.52669334
101	0xbf319e90	-0.6938257
102	0xbfd83d4b	-1.6893705
103	0x3f822dd5	1.0170237
104	0xbe9945ec	-0.2993616
105	0xbf3dcb4b	-0.74138325
106	0x3ee8041e	0.4531564
107	0x3f047f8a	0.5175711
108	0x3f4a49a5	0.7901862
109	0x3f7d51cc	0.9895294
110	0xbee02e60	-0.4378538
111	0x3ee571db	0.44813427
112	0xbf5c46b1	-0.86045367
113	0xbf8f082f	-1.1174372
114	0xbf031dfc	-0.5121763
115	0x3f0699b9	0.5257831
116	0x3f2d03c9	0.675839
117	0x3eacada7	0.33726236
118	0x3f3ecfba	0.74535716
119	0xbea2474a	-0.31695014
120	0x3f8fd9a7	1.1238297
121	0xbf16b06e	-0.5886296
122	0x3f1936a4	0.59849
123	0xbf0a5a0b	-0.54043645
124	0xbf458904	-0.77162194
125	0xbf771872	-0.96521676
126	0xbe028bee	-0.12748691
127	0x3f47409d	0.7783297
128	0xbf97df23	-1.1864971
129	0xbec20e09	-0.37901333
130	0xbf0c4b90	-0.548028
131	0xbf491636	-0.78549516
132	0xbf955073	-1.1665176
133	0x3f787ad5	0.97062427
134	0xbef51559	-0.4786785
135	0xbec6533e	-0.38735384
136	0xbf9ccf67	-1.2250794
137	0x3f4fe4f3	0.81208724
138	0x3f31c25b	0.6943719
139	0xbfa92a80	-1.3216095
140	0xbf4a5ce8	-0.79048014
141	0xbec2c778	-0.38042808
142	0x3f42e2b5	0.7612718
143	0xbea42d02	-0.32065588
144	0x3f06521f	0.52469057
145	0xbf888bc0	-1.0667648
146	0xbf9e3c77	-1.2362202
147	0xbfc94bae	-1.5726221
148	0x3eae2ac4	0.34017003
149	0xbd75d364	-0.06001605
150	0xbfd4eff6	-1.663573
151	0x3f242e0a	0.6413275
152	0xbe74225d	-0.23841234
153	0xbeab6452	-0.33474976
154	0x3ca7d447	0.020486964
155	0x3f8102e3	1.0079006
156	0x3e810f9a	0.25207216
157	0x3f350870	0.70716
158	0x3f5ae85c	0.855108
159	0xbec1a875	-0.37823835
160	0xbe682ec8	-0.22674096
161	0x3ea279ca	0.31733543
162	0xbf76ec1d	-0.9645403
163	0x3f1f1884	0.6214678
164	0x3e98c133	0.298349
165	0xbe7a8a4e	-0.24466822
166	0x3da28d50	0.079371095
167	0x3f1ab585	0.60433227
168	0xbdbc37ce	-0.091903314
169	0x3ebe91cb	0.37220606
170	0x3e4b3960	0.19846106
171	0xbf5799eb	-0.84219235
172	0xbf21e88c	-0.63245463
173	0x3ebef516	0.3729636
174	0x3f3d104a	0.7385298
175	0x3ea2516c	0.31702745
176	0x3e86dc09	0.26339749
177	0xbea87f13	-0.3290945
178	0x3df4481a	0.11927815
179	0xbefb53dd	-0.4908742
180	0xbf3ca36c	-0.7368686
181	0x3f74bd22	0.95601094
182	0x3fc8f55e	1.569988
183	0x3daf4153	0.085573815
184	0xbf833586	-1.0250709
185	0xbf2f2acc	-0.6842468
186	0x3f0ccd80	0.5500107
187	0x3f96d17d	1.1782681
188	0xbedb5268	-0.42836308
189	0xbeb78c57	-0.35849258
190	0xbf1ea99c	-0.61977553
191	0xbf497848	-0.7869916
192	0x3e7957b2	0.2434986
193	0x3f7290ea	0.9475237
194	0x3d47d665	0.048788447
195	0x3f0f3e6d	0.5595463
196	0x3f1ac8a0	0.6046238
197	0x3f87c5d1	1.0607244
198	0xbf69e877	-0.9137034
199	0x3f25f098	0.6482024
200	0xbdf4305c	-0.11923286
201	0xbe5c2bdd	-0.21501108
202	0xbe2d7273	-0.1693819
203	0xbee6b317	-0.4505851
204	0x3ef78187	0.4834101
205	0x3d893150	0.06698859
206	0xbc9114b9	-0.017710077
207	0x3f630237	0.88675255
208	0xbf3f0193	-0.7461178
209	0x3ec1298e	0.37727016
210	0xbf0d7ed4	-0.5527165
211	0x3edb017f	0.4277458
212	0x3f01324f	0.5046739
213	0xbd24c602	-0.040227897
214	0xbe98f6b5	-0.29875723
215	0x3f354057	0.708013
216	0x3e1b446b	0.15162818
217	0x3ee0ee47	0.4393179
218	0xbe340f6d	-0.1758401
219	0xbf46bcff	-0.77632135
220	0x3f26b4a7	0.65119404
221	0xbc19d5cd	-0.009389353
222	0x3d850084	0.06494239
223	0x3ead33f9	0.33828714
224	0xbef61913	-0.48066005
225	0x3f592622	0.8482381
226	0xbf07e5d9	-0.53085095
227	0x3f58bf03	0.8466646
228	0x3f292c17	0.660829
229	0x3e819fd1	0.25317243
230	0x3dba9709	0.09110839
231	0x3f49c421	0.78814894
232	0x3f1d313b	0.61403245
233	0x3f0c872f	0.54893774
234	0x3ee6b116	0.4505698
235	0xbf50a108	-0.81495714
236	0x3f16f912	0.589738
237	0x3eda0cf0	0.42587996
238	0x3ec669e4	0.38752663
239	0x3f27ee3e	0.65597904
240	0x3e316f9c	0.17327732
241	0x3e08adf3	0.13347606
242	0xbf622093	-0.88330954
243	0x3ec0a332	0.37624508
244	0xbe810900	-0.2520218
245	0xbf26b238	-0.6511569
246	0xbf786df2	-0.97042763
247	0x3f1fc5e6	0.62411344
248	0xbf3f1d23	-0.74653834
249	0x3e8128c7	0.25226423
250	0x3e72ea43	0.23722176
251	0xbf8ce8e9	-1.1008579
252	0xbf4be733	-0.79649657
253	0x3eda101b	0.42590412
254	0xbc4fe6ec	-0.012689333
255	0x3f3a9416	0.7288221
