Vogen.Synth/models/g2p/yue-wz.v20210617-131737.g2p.onnx (onnx, 10586 bytes, 11 tensors)

8 f4 [16, 16]
0	0x3f4d933b	0.8030278
1	0xbf36c5dd	-0.71395665
2	0x3f13089a	0.57435
3	0x3ea94e49	0.3306754
4	0x3f25c187	0.64748424
5	0xbed1c3d3	-0.40969715
6	0xbf734ca0	-0.95038795
7	0x3fbbbc1b	1.466678
8	0x3f7ca43e	0.98688114
9	0xbfa0d391	-1.2564565
10	0x3ecaf3ca	0.3963912
11	0xbed0406d	-0.40674153
12	0x3e5806d7	0.21096359
13	0xbf1c06b8	-0.6094775
14	0x3f660658	0.8985343
15	0x3d800864	0.062516004
16	0xbf1887cc	-0.5958221
17	0x3f6efb2c	0.9335201
18	0x3cc03409	0.023462312
19	0xbf44f12b	-0.76930493
20	0xbea541df	-0.32276818
21	0x3dba5d5c	0.09099838
22	0xbeb1adff	-0.3470306
23	0x3f05c537	0.5225405
24	0x3f7d0d23	0.9884817
25	0xbe80274a	-0.25029975
26	0x3eb097c6	0.34490794
27	0xbf9d4694	-1.2287164
28	0xbf799b6a	-0.9750277
29	0x3e26a4b8	0.16273773
30	0xbee72e65	-0.45152584
31	0xbf6f03d3	-0.9336521
32	0x3f77e7c4	0.9683802
33	0x3ef91507	0.48648855
34	0x3e25df3f	0.16198443
35	0x3e9e16b8	0.30876708
36	0x3f9400c5	1.1562735
37	0xbf567780	-0.8377609
38	0x3fb4e13e	1.4131238
39	0x3f7380e6	0.9511856
40	0xbd87e394	-0.06635204
41	0x3f4b0048	0.79297304
42	0xbdecf229	-0.11569626
43	0x3e4465e7	0.19179498
44	0xbe2329ea	-0.15933958
45	0x3f97e60a	1.1867077
46	0x3f17941e	0.59210384
47	0x3e7fa7d2	0.24966362
48	0x3e8d03a2	0.27541834
49	0x3f739605	0.95150787
50	0x3f3b169e	0.73081386
51	0x3f91f6e0	1.1403465
52	0x3f3b2f0d	0.7311867
53	0x3f23c387	0.63970226
54	0x3fa41001	1.2817384
55	0x3f27894d	0.6544388
56	0xbf3461fe	-0.70462024
57	0xbee6f3f2	-0.4510799
58	0x3f8d0edc	1.102016
59	0x3f171b46	0.5902599
60	0x3f1f8480	0.62311554
61	0x3f69aecb	0.9128234
62	0xbfc8b380	-1.5679779
63	0x3e3a28a7	0.1817957
64	0xbf7da795	-0.99083835
65	0x3f83d673	1.029982
66	0xbf744790	-0.95421696
67	0x3ecdad6a	0.40171367
68	0xbe183644	-0.1486445
69	0x3f354223	0.7080404
70	0x3d627c3d	0.055294264
71	0x3e68c9ab	0.2273318
72	0x3f70b1ae	0.9402112
73	0xbea64d09	-0.32480648
74	0x3ee9b336	0.4564454
75	0x3f423eb3	0.7587692
76	0xbf505c47	-0.81390804
77	0x3f0a3d13	0.5399944
78	0x3f3465f0	0.70468044
79	0x3ecfd837	0.40594646
80	0x3ef10239	0.47072008
81	0xbf3060f9	-0.6889797
82	0xbea8604a	-0.32885963
83	0x3e6301b2	0.22168615
84	0xbbffbcd3	-0.007804492
85	0xbf9723b2	-1.1807768
86	0xbe2c26e7	-0.16811715
87	0xbf8aaad8	-1.0833387
88	0x3f9df0f2	1.2339156
89	0x3da1f47f	0.07907962
90	0xbfa8bbae	-1.3182275
91	0xbfb158fc	-1.3855281
92	0x3f99401c	1.197269
93	0xbebbd0e6	-0.36682814
94	0x3ec5bc99	0.3862045
95	0x3f0b9478	0.5452342
96	0x3d98d3fe	0.07462309
97	0x3ec7e5f3	0.39042625
98	0xbeecedcf	-0.46275184
99	0xbe86a414	-0.26297057
100	0xbdd1d9f0	-0.102466464
101	0xbf5aadd0	-0.85421467
102	0x3fa8e108	1.3193674
103	0x3f98f5ec	1.1950049
104	0xbeaebb19	-0.3412712
105	0x3ba5771f	0.0050496007
106	0x3e1aaeb0	0.151057
107	0xbcc6d9f9	-0.02427386
108	0x3f930100	1.148468
109	0xbf266104	-0.64991784
110	0x3ee2a726	0.4426815
111	0x3eadcc01	0.33944705
112	0xbf44bf5b	-0.76854485
113	0xbea6bee1	-0.32567504
114	0x3d997b37	0.074942045
115	0x3f3e6df9	0.74386555
116	0xbf962146	-1.1728904
117	0x3f39960e	0.7249459
118	0xbd6655d2	-0.05623419
119	0x3eb9f2de	0.36318105
120	0x3f5397b6	0.8265337
121	0x3f8c7864	1.097424
122	0xbe2e25d9	-0.17006625
123	0x3f2f9e4a	0.68600905
124	0xbfbce85b	-1.4758409
125	0x3f6732c0	0.90311813
126	0x3f308830	0.68957806
127	0xbe954fb5	-0.29162374
128	0xbe80bf40	-0.25145912
129	0x3c729774	0.014806617
130	0xbf839d28	-1.0282335
131	0x3f36029e	0.71097744
132	0xbf61b4a4	-0.8816626
133	0xbfa84e9a	-1.3148987
134	0xbf0ff405	-0.5623172
135	0xbf67464b	-0.90341634
136	0x3f05910c	0.5217445
137	0x3fa5f787	1.2966164
138	0xbf0ce9cb	-0.5504424
139	0x3f9fa4ae	1.2472131
140	0x3f9a4a56	1.2053936
141	0xbf196de5	-0.5993331
142	0x3e407d02	0.18797687
143	0xbf3115b2	-0.6917373
144	0x3f93e594	1.1554437
145	0xbed4bc05	-0.41549698
146	0xbf2e085e	-0.6798152
147	0x3f26a543	0.6509592
148	0x3d3a467d	0.04547738
149	0xbf01bd3b	-0.5067937
150	0x3f6bb35c	0.92070556
151	0x3e5ae28e	0.21375486
152	0x3f9ce12a	1.2256215
153	0x3eb58574	0.3545338
154	0xbdde2b93	-0.10848155
155	0x3f74c16b	0.9560763
156	0x3f4ce9df	0.8004436
157	0x3d227315	0.039660532
158	0x3ebf45d8	0.37357974
159	0x3f5c8825	0.8614524
160	0x3f67e3ac	0.90581775
161	0x3f62f862	0.8866025
162	0x3f8cd942	1.1003802
163	0xbcc91c03	-0.02454949
164	0x3f480ad9	0.7814155
165	0xbd74adc2	-0.05973602
166	0x3f19eb63	0.60124797
167	0x3e60c7b5	0.21951182
168	0x3e6f727e	0.23383519
169	0xbd83612a	-0.06415017
170	0xbfb89d44	-1.4422994
171	0x3fa1b515	1.2633387
172	0x3d323c09	0.043514285
173	0xbf87b118	-1.060092
174	0xbd668aa4	-0.05628456
175	0x3f8aa63e	1.0831983
176	0xbf9d6b97	-1.2298459
177	0x3f4c9f0d	0.7993019
178	0xbf0ec6fd	-0.5577238
179	0x3e6db2f5	0.23212798
180	0x3f2e9951	0.6820269
181	0x3fa146fe	1.259979
182	0x3ec907db	0.39263806
183	0xbe7fd810	-0.24984765
184	0x3f824131	1.0176145
185	0xbf5c5308	-0.86064196
186	0x3deb29e0	0.114825964
187	0xbeae10c8	-0.33997178
188	0xbf5b358f	-0.856286
189	0x3f2a6df5	0.6657403
190	0x3db20fd5	0.08694426
191	0x3f1db0d5	0.6159795
192	0xbf9c5493	-1.221331
193	0x3fadf74c	1.3591094
194	0x3f527a20	0.822176
195	0xbfb186c2	-1.386925
196	0xbe0739f8	-0.13205707
197	0x3f43aa46	0.7643169
198	0xbe6e52d3	-0.23273782
199	0x3dcb0396	0.09912793
200	0x3e976312	0.29567772
201	0xbeb160ca	-0.34644157
202	0x3e9c08d5	0.30475488
203	0x3f0c8e2d	0.54904443
204	0xbf22a2a3	-0.63529414
205	0x3f9ac9ea	1.2092869
206	0xbf7a6edc	-0.9782541
207	0x3f20fe71	0.62888247
208	0xbe7578e2	-0.23971894
209	0x3f423b25	0.758715
210	0x3f85be91	1.0448781
211	0xbf438224	-0.76370454
212	0xbcaf3daa	-0.021391708
213	0x3f7da39b	0.9907777
214	0xbebd0e0e	-0.36924785
215	0x3e229e01	0.15880586
216	0x3f0545a1	0.5205937
217	0x3e8dd469	0.2770112
218	0xbc178a3d	-0.009249267
219	0xbdb211f2	-0.08694829
220	0x3ee7226d	0.45143452
221	0x3fa6619f	1.2998542
222	0xbf6dbf33	-0.9286987
223	0xbf6f5b7a	-0.9349896
224	0x3f567267	0.83768314
225	0x3f4da84a	0.80334914
226	0x3f731f51	0.9496966
227	0x3ed8e9c4	0.4236585
228	0x3f9f51cf	1.2446841
229	0x3f5f02ee	0.87113845
230	0x3f31313b	0.69215745
231	0xbfa3e799	-1.2805053
232	0x3fa57cea	1.2928746
233	0xbe9e5f38	-0.3093202
234	0xbf791875	-0.97302943
235	0x3faf6ef8	1.370574
236	0x3f834f5a	1.0258591
237	0x3f146daf	0.57979864
238	0x3f20adad	0.6276501
239	0x3fb221d6	1.3916576
240	0x3f6dfd2d	0.9296444
241	0x3d967c77	0.073479585
242	0x3f64e599	0.8941284
243	0xbe088262	-0.13330987
244	0x3f31e169	0.69484574
245	0x3eaec37a	0.34133512
246	0xbea07b8d	-0.31344262
247	0x3f2cd27a	0.6750866
248	0xbe2bbe30	-0.1677177
249	0x3f31f8be	0.69520175
250	0xbf5b263b	-0.8560521
251	0xbf8383ea	-1.0274632
252	0xbdc86d36	-0.09786455
253	0xbf1fc1ed	-0.6240528
254	0x3f80064a	1.0001919
255	0xbf7710b4	-0.9650986

mc f4 [6]
0	0x3f55c914	0.83509946
1	0x3e571a35	0.21006091
2	0x3f055fb6	0.5209917
3	0x3f24234d	0.64116365
4	0x3ec48ea5	0.3839008
5	0x3f00b881	0.5028153

o f4 [16]
0	0x3f2cc273	0.67484206
1	0x3ba95212	0.0051672542
2	0x3e1a9d0f	0.15098976
3	0x3e63848c	0.22218531
4	0xbf05e835	-0.52307445
5	0x3ed2626f	0.41090724
6	0xbd6ad7b7	-0.057334628
7	0x3e331f3c	0.17492384
8	0xbf02d23d	-0.5110205
9	0x3d831b5d	0.064017035
10	0x3df60080	0.12011814
11	0x3c7532df	0.014965742
12	0x3d96086c	0.07325825
13	0xbdc1f3c4	-0.09470323
14	0x3eb09bca	0.34493858
15	0x3f0d6f09	0.5524755

s f4 [4]
0	0x3edb486d	0.42828694
1	0xbe829945	-0.2550756
2	0x3e43be10	0.19115472
3	0x3e77e6eb	0.24209182

2 f4 [64]
0	0x3dd70e4f	0.10500776
1	0xbdf791a3	-0.12088325
2	0x3e1b29ed	0.15152712
3	0xbe24001f	-0.16015671
4	0x3b90126f	0.0043967287
5	0xbe17c531	-0.14821316
6	0x3e3ec51f	0.18629883
7	0xbd8d5aef	-0.0690211
8	0x3eae92af	0.34096286
9	0xbddd28d7	-0.10798805
10	0xbe5e1609	-0.21688093
11	0xbc926fb2	-0.017875526
12	0xbe6694a4	-0.2251764
13	0xbe02d945	-0.12778194
14	0x3eed2e54	0.46324408
15	0xbdc9a52d	-0.09845958
16	0x3dc7efbb	0.09762522
17	0xbe832b36	-0.25618905
18	0xbdda85f6	-0.10670082
19	0xbe13b4eb	-0.14424483
20	0x3c275ae7	0.010214544
21	0xbde2fda9	-0.11083538
22	0xbe5bf5bc	-0.21480459
23	0x3e58a931	0.21158291
24	0xbe1cc170	-0.15308166
25	0xbda76613	-0.08173766
26	0xbce74972	-0.028233264
27	0xbe291bd4	-0.16514522
28	0xbdf10968	-0.11769372
29	0x3c8699d3	0.016430771
30	0xbe9d1cf7	-0.3068616
31	0xbe069ce2	-0.13145784
32	0xbda3cd1c	-0.07998106
33	0xbe2ee616	-0.17079958
34	0x3ed7cd1d	0.42148677
35	0x3d3fe122	0.046845563
36	0xbdcb1ba6	-0.09917383
37	0xbe057302	-0.13032153
38	0xbe32caf7	-0.17460237
39	0xbdd87f8a	-0.10571201
40	0xbdd02144	-0.10162595
41	0xbea4ca60	-0.3218565
42	0x3ef98b6c	0.48739183
43	0x3cb916c6	0.022593867
44	0xbe235954	-0.15952045
45	0x3e8e9057	0.27844498
46	0xbcd889be	-0.026432868
47	0xbd107db4	-0.03527613
48	0xbdb3c7dc	-0.087783545
49	0xbe0d46ee	-0.13796589
50	0xbdfbb460	-0.12290263
51	0xbe6daff6	-0.23211655
52	0xbdf06d96	-0.11739652
53	0xbe0d7bc4	-0.13816744
54	0x3e589464	0.21150357
55	0x3daa428c	0.08313474
56	0x3e69f4a8	0.22847235
57	0xbdc33e7f	-0.095334046
58	0x3e6d8683	0.23195843
59	0x3e4bed90	0.19914842
60	0x3cb89bdf	0.022535263
61	0xbe056c75	-0.13029654
62	0xbdfef9e6	-0.12450008
63	0xbe753599	-0.23946227

1 f4 [37, 16]
0	0xbe11cd84	-0.14238554
1	0x3f30279b	0.68810433
2	0xbe2bf313	-0.16791944
3	0xbe25040b	-0.16114824
4	0x3f2b77a2	0.6697942
5	0x3e06fcd1	0.1318238
6	0xbf42edfc	-0.76144385
7	0x3f29448d	0.66120225
8	0xbd29e822	-0.041481145
9	0xbeab4f1d	-0.33458796
10	0xbf0a6327	-0.54057544
11	0x3f399abb	0.72501725
12	0x3f1fcf31	0.62425524
13	0x3f345459	0.70441204
14	0x3e07eeac	0.1327464
15	0xbf4473b3	-0.76739043
16	0xbc8dd9e6	-0.017315816
17	0x3d05eed1	0.032698456
18	0xbd201a53	-0.039087605
19	0x3c372ca8	0.0111800805
20	0xbd11272a	-0.03543774
21	0xbd2bb5e0	-0.041921496
22	0xbd1ee42a	-0.038791813
23	0xbbe50798	-0.0069894306
24	0x3c5e821c	0.013580825
25	0xbc23ce00	-0.009997845
26	0x3cde2f6e	0.027122226
27	0x3be50ae8	0.0069898255
28	0xbc06bb00	-0.008223295
29	0x3d1b7a4d	0.037958432
30	0x3a6c10c0	0.00090051815
31	0x3ce28846	0.02765287
32	0x3f837c93	1.0272392
33	0x3f2b72e2	0.6697217
34	0xbeff8831	-0.49908593
35	0xbf42b582	-0.7605821
36	0x3f554259	0.83304363
37	0x3f38e80e	0.7222909
38	0xbf1dadc8	-0.61593294
39	0x3f6205b2	0.8828994
40	0x3f06594b	0.5248
41	0x3ec32bdc	0.381194
42	0xbf6385c5	-0.8887599
43	0xbddd9817	-0.108200245
44	0xbe8cf019	-0.2752693
45	0xbf1fcc5f	-0.6242122
46	0xbf42db61	-0.76115996
47	0xbe7fb5fb	-0.24971764
48	0xbf363ec5	-0.7118953
49	0xbea9a147	-0.33130857
50	0xbc5bddaf	-0.013419553
51	0x3e1d95be	0.15389153
52	0xbeba5025	-0.3638927
53	0xbf903aad	-1.1267906
54	0xbe29d249	-0.16584124
55	0x3e01fae3	0.12693362
56	0xbf1211f6	-0.57058656
57	0xbf6b08ca	-0.91810286
58	0x3c81945c	0.015817814
59	0xbde43e5b	-0.11144706
60	0x3f671371	0.9026404
61	0xbe13c05d	-0.1442885
62	0xbf70301d	-0.93823415
63	0xbe87c164	-0.26514733
64	0x3c869692	0.01642922
65	0xbbf818b0	-0.0075713024
66	0xbcab9d5a	-0.020949055
67	0x3c5de9e4	0.013544533
68	0xbcb33360	-0.021875083
69	0x3c8ff7c2	0.017574195
70	0x3cd81c22	0.026380602
71	0x3d4b146d	0.049580026
72	0x3c6be844	0.014398638
73	0xbbc7bb50	-0.0060953274
74	0xbc334e80	-0.010944009
75	0xbcb3aa00	-0.021931648
76	0xbc267640	-0.010160029
77	0x3d42c0a1	0.047546986
78	0x3c9dc586	0.019259226
79	0xbcb22e8d	-0.021750713
80	0x3e83c8ce	0.2573914
81	0x3e4fb63d	0.20284362
82	0xbf361f01	-0.7114106
83	0xbf3221e4	-0.69582963
84	0xbf1cd4d9	-0.6126228
85	0x3ee13e7d	0.43992987
86	0xbf771d55	-0.9652913
87	0xbf033b8b	-0.5126273
88	0x3e3468cf	0.17618106
89	0xbcd148ca	-0.025547404
90	0xbd92b922	-0.071642175
91	0xbf0fc3ae	-0.5615796
92	0xbe8e58a2	-0.27801996
93	0xbe89b809	-0.2689822
94	0x3dd63657	0.10459583
95	0x3f0f27c1	0.55920035
96	0x3f2ad8c5	0.66737014
97	0x3d3f1708	0.046652824
98	0xbf8e9f9d	-1.114246
99	0x3bd25f05	0.0064200186
100	0xbe17c34a	-0.1482059
101	0xbed3c972	-0.41364628
102	0xbec05f50	-0.37572718
103	0x3e8e6f63	0.27819356
104	0xbf1ea8de	-0.6197642
105	0xbf310326	-0.6914543
106	0x3e11cb51	0.14237715
107	0xbf098a4f	-0.5372667
108	0xbf1ad137	-0.60475487
109	0x3ec448f9	0.38336924
110	0xbef87432	-0.4852615
111	0xbe0e5513	-0.1389964
112	0x3f0d2173	0.55129164
113	0x3f4d0315	0.8008283
114	0xbeb048a5	-0.34430423
115	0xbee6bf5e	-0.45067877
116	0xbe5d5a92	-0.21616581
117	0xbf065384	-0.52471185
118	0x3e4b3848	0.19845688
119	0xbeea20c9	-0.45728138
120	0xbf5e0ea0	-0.86741066
121	0xbf35f056	-0.7106985
122	0x3f13cdae	0.5773572
123	0x3f1bf544	0.6092112
124	0xbe2d1c35	-0.16905291
125	0xbdf9fe10	-0.12206662
126	0xbd73eb25	-0.059550423
127	0x3f31efe7	0.69506687
128	0x3ebf489e	0.3736009
129	0xbdeeab6f	-0.11653792
130	0xbd14b7af	-0.036307987
131	0xbdb9c260	-0.09070277
132	0xbf180398	-0.59380484
133	0xbf08f432	-0.5349761
134	0x3e7400a9	0.23828377
135	0xbedbbf1f	-0.4291925
136	0xbeddb59f	-0.43302628
137	0xbdd4b82c	-0.103866905
138	0x3eaaa85a	0.33331567
139	0x3eba9ac4	0.36446202
140	0x3d7c6709	0.0616217
141	0x3f3ba36b	0.7329623
142	0xbe6abbeb	-0.22923248
143	0xbeef7c70	-0.46774626
144	0xbe8ea893	-0.27862987
145	0xbc21f22a	-0.009884397
146	0xbf49eaba	-0.7887379
147	0xbed40967	-0.41413423
148	0xbe559a83	-0.20859723
149	0xbf6283b0	-0.8848219
150	0x3d0efdca	0.03491
151	0xbe4047df	-0.18777417
152	0xbed5486f	-0.41656825
153	0xbf708fc4	-0.9396937
154	0xbf0c8139	-0.5488468
155	0xbd60ccf1	-0.054882947
156	0x3f33956b	0.7014987
157	0x3e9c746e	0.3055758
158	0xbf50da52	-0.8158313
159	0x3f58dd14	0.8471234
160	0x3edc9ccb	0.43088374
161	0xbe4e8930	-0.2016952
162	0x3f59fecb	0.8515441
163	0x3eda75ec	0.42668092
164	0x3ebb6b88	0.36605477
165	0x3f010fc8	0.50414705
166	0x3f3329fc	0.6998594
167	0xbd943cd6	-0.07238166
168	0xbf62cf8b	-0.88597935
169	0x3e5faf3f	0.21844195
170	0xbf408d62	-0.75215733
171	0x3f18514a	0.5949904
172	0x3d89929d	0.067174174
173	0xbe89b0f0	-0.26892805
174	0xbe9be402	-0.30447394
175	0xbdce4ed1	-0.10073627
176	0xbf195741	-0.59898764
177	0x3f0940ec	0.5361469
178	0xbd325752	-0.043540306
179	0x3f891423	1.070927
180	0xbe22cab9	-0.15897645
181	0xbf4efb3e	-0.80852115
182	0xbe958d8b	-0.2920955
183	0xbeb1874b	-0.34673533
184	0xbe363bac	-0.177962
185	0xbf3df7de	-0.7420634
186	0xbef6b5be	-0.48185533
187	0x3e228733	0.15871887
188	0x3f3c6880	0.73596954
189	0xbe1e2b2f	-0.1544616
190	0xbf2dc168	-0.6787324
191	0xbdba0bf0	-0.09084308
192	0x3cce1ce1	0.025160255
193	0xbdd3ba81	-0.10338307
194	0xbe84f9e9	-0.25971916
195	0xbecafc9d	-0.39645854
196	0xbf039261	-0.5139523
197	0x3c98d83b	0.018657794
198	0xbef665f8	-0.4812467
199	0xbf09bc93	-0.53803366
200	0xbef6e356	-0.4822032
201	0xbe51512c	-0.20441121
202	0xbe43ef2f	-0.1913421
203	0x3d879557	0.06620281
204	0xbe72892a	-0.23685136
205	0x3ea025db	0.3127888
206	0xbde62ebc	-0.112393826
207	0x3bbd92b1	0.0057853092
208	0xbe8a1387	-0.26968023
209	0x3e80d546	0.25162715
210	0x3eceef53	0.40416965
211	0xbd35fa4e	-0.044428162
212	0xbeb2535e	-0.3482923
213	0xbda73362	-0.08164097
214	0x3e888571	0.26664308
215	0xbf2a6a59	-0.66568524
216	0xbf48fd31	-0.7851134
217	0x3d1c6fa1	0.038192395
218	0x3ed363f1	0.41287187
219	0x3edaf260	0.42763042
220	0x3d899ef1	0.06719769
221	0xbe85da99	-0.2614334
222	0x3def3d5c	0.11681625
223	0xbf07c0b7	-0.53028435
224	0xbf72ea78	-0.9488902
225	0x3ec15f09	0.3776782
226	0x3f14bfea	0.5810534
227	0x3edb6c1e	0.42855924
228	0xbf1cfd44	-0.6132395
229	0x3e2781f0	0.16358161
230	0x3f34024d	0.7031601
231	0x3d96c775	0.07362262
232	0xbe681c05	-0.22666939
233	0x3f29fdfc	0.66403174
234	0x3e8256c4	0.25456822
235	0x3e654a7e	0.22391698
236	0xbdc6bbe8	-0.09703809
237	0xbe8f6fad	-0.2801489
238	0xbe308816	-0.17239413
239	0xbf44ff40	-0.7695198
240	0xbf2cf9aa	-0.6756846
241	0x3ddee5e6	0.108836934
242	0x3f08da0d	0.5345772
243	0xbee62408	-0.44949365
244	0xbeea0db7	-0.4571359
245	0x3e0a52a9	0.13508095
246	0x3f23d50a	0.63996947
247	0xbe36c0b2	-0.17846945
248	0xbee42a46	-0.44563502
249	0x3e3b09e1	0.18265487
250	0xbeb7f0ef	-0.35926005
251	0xbea34084	-0.3188516
252	0xbe9febf7	-0.31234714
253	0x3edb1a29	0.42793396
254	0xbe78e545	-0.2430621
255	0xbf1f1224	-0.62137055

5 f4 [16]
0	0x3e8e4a01	0.27790835
1	0x3eb33c3b	0.3500689
2	0x3e8de511	0.27713826
3	0x3e7b3aa5	0.2453409
4	0x3e90c9a2	0.28278834
5	0xbe4f5c32	-0.20250013
6	0x3ea1fcf3	0.31638297
7	0x3b719dfd	0.003686785
8	0x3ec74e8b	0.3892711
9	0x3f89055e	1.0704763
10	0xbd05b74e	-0.032645516
11	0x3ee19847	0.4406149
12	0x3f1d2919	0.61390835
13	0xbd678143	-0.056519758
14	0x3e592096	0.21203837
15	0x3e439826	0.19101009

q f4 [6, 4]
0	0x3f985eea	1.1903965
1	0x3fac3bbe	1.3455732
2	0x3e5b87d6	0.21438536
3	0x3ec5ded2	0.3864656
4	0x3da9af36	0.08285372
5	0xbe8d8b0e	-0.27645153
6	0x3fa1c7d2	1.2639105
7	0xbea46dc2	-0.3211499
8	0x3f852da4	1.0404553
9	0x3f4a174c	0.789418
10	0xbfa1ac01	-1.2630616
11	0x3eb07a3f	0.34468266
12	0xbfd2398b	-1.6423811
13	0x3fb60eb6	1.422324
14	0x3f6eda36	0.93301713
15	0xbf90a06d	-1.1298958
16	0x3ee32f23	0.443719
17	0x3f8dfa73	1.1092056
18	0x3f941449	1.156869
19	0x3f00b9a9	0.50283295
20	0xbfcb4dea	-1.5883152
21	0x3f95b1bc	1.1694865
22	0xbf104e2e	-0.5636929
23	0x3f6bab75	0.920585

v f4 [16, 64]
0	0xbcd2f426	-0.025751185
1	0xbfbbcb45	-1.4671408
2	0xbfaec6f2	-1.3654463
3	0xbf960f80	-1.172348
4	0xbf9dc0b8	-1.2324438
5	0x3fb41a8d	1.4070603
6	0x3ec51811	0.38494924
7	0xbfcfb11d	-1.6225926
8	0x3f3f0775	0.74620754
9	0xbf8db010	-1.1069355
10	0xbf91eb2e	-1.1399896
11	0x3f0695bc	0.52572227
12	0x3f11622f	0.5679044
13	0x3fbed6e4	1.490933
14	0x3fc21898	1.5163755
15	0xbfaece90	-1.3656788
16	0xbe014c89	-0.12626852
17	0xbea8e01a	-0.32983476
18	0x3f884638	1.0646429
19	0xbfa731e8	-1.3062105
20	0x3a34df53	0.0006899733
21	0x3f410765	0.7540191
22	0xbdb1c525	-0.086801805
23	0x3f765122	0.9621755
24	0xbfd6f2c0	-1.6792831
25	0xbfecd80a	-1.850343
26	0xbf52e718	-0.8238387
27	0x3f401f54	0.750478
28	0x3fc3e94b	1.530557
29	0xbf41e82f	-0.7574491
30	0xbf471068	-0.7775941
31	0xbf9b1f72	-1.2118971
32	0x3f27bc7d	0.65521985
33	0x3f1aec2e	0.6051663
34	0xbf54bb4a	-0.8309828
35	0xbf9f71d5	-1.2456614
36	0x3f1a84e3	0.6035902
37	0x3f6ccc6c	0.92499423
38	0x3f52e991	0.82387644
39	0xbff93553	-1.9469398
40	0x3f5dfa8b	0.86710423
41	0x3ef4e9f9	0.47834757
42	0x3ed44faf	0.41467044
43	0xbf808718	-1.0041227
44	0x3f959b40	1.1688004
45	0xbf520f2b	-0.82054394
46	0xbe50e1a2	-0.20398572
47	0xc01a0eeb	-2.4071605
48	0xbe76a7ae	-0.24087402
49	0x3f74237d	0.9536665
50	0xbf94f963	-1.1638607
51	0x3f466dab	0.7751109
52	0x3fbcd735	1.4753176
53	0x3fabe7e0	1.3430138
54	0xbebd3f11	-0.36962178
55	0x3f09382e	0.5360135
56	0x3eea65be	0.45780748
57	0xbf6579bb	-0.8963887
58	0xbf44890a	-0.76771605
59	0xbef016b0	-0.4689231
60	0xbfa45452	-1.2838233
61	0x3f96aec8	1.1772089
62	0x3edf114a	0.43567878
63	0xbf321fac	-0.6957958
64	0x3da5ae45	0.0808988
65	0x3e5d5d9f	0.21617745
66	0xbe0f9918	-0.14023244
67	0x3d30f001	0.043197636
68	0xbdfacee2	-0.12246491
69	0xbe84340e	-0.25820965
70	0xbdd75026	-0.10513334
71	0x3f3851ad	0.7199963
72	0x3e526049	0.20544542
73	0xbcf27c26	-0.029600214
74	0x3f357854	0.7088673
75	0x3e4cab1c	0.19987148
76	0x3e9a38e5	0.30121532
77	0xbbd4cd68	-0.006494213
78	0xbb8c3a14	-0.0042793844
79	0xbd869d02	-0.065729156
80	0x3dd09fe1	0.101867445
81	0xbd473abf	-0.04864001
82	0xbeb3e995	-0.35139146
83	0x3ccd5c4a	0.02506842
84	0x3f44d3d7	0.7688574
85	0xbf095b50	-0.53654957
86	0xbe8cceac	-0.27501428
87	0xbf3ffb68	-0.7499299
88	0x3eeff35a	0.4686535
89	0xbe0b170d	-0.13583012
90	0xbe98c257	-0.2983577
91	0xbe023012	-0.1271365
92	0xbe831698	-0.25603175
93	0xbee4001c	-0.44531333
94	0x3ee299fd	0.4425811
95	0x3eb38b7c	0.35067356
96	0x3f481c94	0.78168607
97	0xbd9e265b	-0.077221595
98	0x3d8e8603	0.069591545
99	0x3f0f2724	0.559191
100	0x3f1f3c15	0.6220105
101	0x3f2eeef2	0.6833335
102	0xbd7da435	-0.06192418
103	0x3e9f7274	0.31142008
104	0xbdd2f1a8	-0.102999985
105	0x3d90fa40	0.070789814
106	0xbec37255	-0.38173166
107	0xbeb020fd	-0.34400168
108	0x3d603da8	0.0547463
109	0xbf6a2fbd	-0.9147909
110	0xbee0e9d9	-0.43928412
111	0x3f1e3e5e	0.61813915
112	0x3e4e06c4	0.20119768
113	0xbecf8066	-0.40527648
114	0xbeb8b085	-0.36072174
115	0x3e0f219f	0.13977669
116	0x3eaff92c	0.3436979
117	0xbdf8fa8f	-0.12157165
118	0xbee756f7	-0.45183536
119	0xbe13d4f6	-0.14436707
120	0xbe0db0a3	-0.13836913
121	0xbeb8d2fd	-0.3609847
122	0xbf0961d3	-0.5366489
123	0xbf1f5e82	-0.6225358
124	0xbe6b0bcb	-0.22953717
125	0xbef8e1d3	-0.4860979
126	0x3e8d194a	0.27558357
127	0xbee40466	-0.44534606
128	0x3f081235	0.5315278
129	0x3d20286b	0.039101046
130	0xbf05d554	-0.5227864
131	0xbf6d8893	-0.9278652
132	0xbf29005e	-0.66016185
133	0xbddddc8b	-0.10833081
134	0x3f4102c7	0.7539486
135	0x3f2fcc5a	0.6867119
136	0xbf12e15e	-0.57375133
137	0x3f3b8685	0.73252136
138	0x3f355de9	0.7084642
139	0xbf485f5e	-0.7827052
140	0xbf20c14c	-0.6279495
141	0xbeba33b5	-0.36367574
142	0xbd611b2a	-0.054957546
143	0xbe0f40c5	-0.13989551
144	0xbf5304de	-0.824293
145	0xbec12941	-0.37726787
146	0xbf0fa5ae	-0.5611218
147	0xbe832f01	-0.256218
148	0xbe1f2a2b	-0.1554343
149	0xbf04e376	-0.5190958
150	0xbe3bdec3	-0.18346696
151	0x3f2ac20b	0.66702336
152	0x3e4cf20f	0.20014213
153	0xbe4e76a1	-0.20162441
154	0x3d02688e	0.031837992
155	0xbe6a0d87	-0.22856723
156	0xbf247ca6	-0.642527
157	0xbf24c537	-0.64363426
158	0x3f35d40f	0.710267
159	0xbeea1d87	-0.45725653
160	0xbe90862f	-0.28227374
161	0x3daa5956	0.08317821
162	0x3f48427d	0.78226453
163	0xbf06d41e	-0.52667415
164	0xbf01b188	-0.50661516
165	0xbeaded31	-0.33970025
166	0xbf16b04b	-0.5886275
167	0xbf57a467	-0.84235233
168	0x3e8de0b2	0.2771049
169	0x3dd4dbd6	0.10393493
170	0x3f9bd7a6	1.2175186
171	0x3f21093d	0.6290472
172	0xbed4abbf	-0.41537282
173	0x3f24f9ee	0.6444386
174	0x3e43cbba	0.19120684
175	0xbe972153	-0.29517612
176	0xbf0e87d7	-0.55676025
177	0xbf1491db	-0.5803506
178	0xbddf6a91	-0.10908998
179	0xbf83d1db	-1.0298418
180	0xbf50d87c	-0.8158033
181	0xbef19ead	-0.47191373
182	0x3efe6fe1	0.49694732
183	0xbeae05a7	-0.33988687
184	0xbe0704d8	-0.13185441
185	0x3e4985c6	0.19679937
186	0x3e2d6196	0.16931757
187	0x3d9b393b	0.07579275
188	0xbf4fcf4a	-0.81175673
189	0x3d0a7cca	0.033810414
190	0xbf5055e2	-0.81381047
191	0xbe8b201c	-0.27172935
192	0x3f023201	0.5085755
193	0xbd6539d1	-0.05596334
194	0xbf4ea287	-0.8071675
195	0xbf05bbd7	-0.52239746
196	0x3ef45bb3	0.4772621
197	0xbec1e9db	-0.3787373
198	0x3f6ebf84	0.9326098
199	0x3ec676e9	0.38762596
200	0x3f6cfc32	0.9257232
201	0xbe3ec300	-0.18629074
202	0xbeb1a45a	-0.34695703
203	0xbf3133fd	-0.6921995
204	0xbd8c51e3	-0.06851556
205	0xbf5c5e67	-0.86081547
206	0xbdc96cee	-0.0983523
207	0x3e50f323	0.2040525
208	0x3f60ae22	0.87765706
209	0xbedba7f2	-0.4290157
210	0xbf814fe4	-1.0102506
211	0xbe5233d4	-0.20527583
212	0xbeada719	-0.33916548
213	0x3e7a0ac3	0.24418168
214	0xbf820527	-1.0157822
215	0x3d987479	0.074440904
216	0xbf1b2306	-0.60600317
217	0x3e8c9604	0.27458203
218	0x3efaf80f	0.4901738
219	0xbe61eeb1	-0.2206371
220	0xbf09ad45	-0.53780013
221	0x3f479e53	0.7797596
222	0xbf290d4f	-0.6603593
223	0xbf1306d5	-0.574323
224	0x3cd9ca1d	0.026585633
225	0xbf143d92	-0.5790645
226	0x3ddde00f	0.108337514
227	0xbde52832	-0.11189307
228	0x3dbc7241	0.0920148
229	0xbf34e8fa	-0.70667994
230	0xbe3de0b6	-0.18542752
231	0xbe6ab77a	-0.22921553
232	0xbf48d18a	-0.7844473
233	0xbf05c50b	-0.5225379
234	0xbcd7a631	-0.026324363
235	0xbe56549b	-0.20930712
236	0x3efabf2b	0.48973975
237	0x3d0c94bd	0.034321535
238	0x3f448700	0.76768494
239	0xbe7b45c6	-0.24538335
240	0xbee35c9a	-0.44406587
241	0x3e31a18f	0.17346786
242	0xbf21c0df	-0.6318492
243	0xbec97ce8	-0.39353108
244	0xbf2dacb9	-0.6784168
245	0xbf0aac82	-0.54169476
246	0x3f5d877d	0.86534864
247	0xbeaed8cc	-0.34149778
248	0x3f297497	0.66193527
249	0xbe810e77	-0.25206348
250	0xbc419662	-0.011815639
251	0x3ed5f1fb	0.4178618
252	0xbe3b328b	-0.18281
253	0xbf039c11	-0.51410013
254	0xbe69d557	-0.22835289
255	0xbe0a85e5	-0.13527639

i f4 [8, 6]
0	0x3f96ef3b	1.1791757
1	0x3e372500	0.17885208
2	0x3f514f14	0.8176129
3	0x3ed313e5	0.41226116
4	0xbeade78a	-0.33965713
5	0xbfa73c3f	-1.3065261
6	0xbfbb501d	-1.4633824
7	0x3f8a0d57	1.0785321
8	0xbf857413	-1.0426048
9	0x3f88a7be	1.0676191
10	0xbf9c61c6	-1.2217338
11	0xbf8f158e	-1.1178453
12	0xbf95287e	-1.1652982
13	0xbf80ceae	-1.0063074
14	0xbf568f3f	-0.83812326
15	0xbde51f69	-0.11187632
16	0xbfa66ae6	-1.3001373
17	0xbf8982d1	-1.0743047
18	0xbe83e684	-0.25761807
19	0xbf404720	-0.7510853
20	0x3ec7f6f8	0.3905561
21	0x3fc12ad6	1.5091197
22	0xbf9bc290	-1.2168751
23	0xbea774be	-0.32706255
24	0xbe1b616f	-0.15173887
25	0xbf8e2a24	-1.110661
26	0x3e410202	0.18848422
27	0x3fc15d14	1.510653
28	0xbf91cd96	-1.1390865
29	0xbeb7f935	-0.35932317
30	0xbea6e456	-0.32596081
31	0xbea24025	-0.31689563
32	0x3ec4fdae	0.38474792
33	0x3f63807f	0.88867944
34	0xbf9493ed	-1.1607643
35	0xbda33a03	-0.07970049
36	0xbf137f1d	-0.57615834
37	0x3d1a787a	0.03771255
38	0x3db19777	0.08671468
39	0x3f9d830e	1.230562
40	0xbf36b95d	-0.7137659
41	0x3ceb310b	0.028709909
42	0x3ed7bd21	0.4213648
43	0xbeb886bb	-0.3604029
44	0x3be328be	0.006932347
45	0x3f837559	1.0270187
46	0xbfb8f979	-1.4451133
47	0x3e98deaf	0.29857394

t f4 [16, 16]
0	0x3e9f2b54	0.31087744
1	0x3f128205	0.57229644
2	0x3e3e12a0	0.18561792
3	0x3f4f7894	0.8104336
4	0x3d9d5b95	0.076834835
5	0x3f4ceec2	0.80051816
6	0xbf081b09	-0.5316625
7	0xbf4fe20a	-0.81204283
8	0xbcf18f50	-0.029487282
9	0xbee0156d	-0.43766347
10	0x3f127a12	0.57217515
11	0x3f88aee4	1.0678372
12	0x3f606736	0.8765749
13	0xbcf4cc6e	-0.029882636
14	0x3f9d2eaf	1.2279872
15	0x3eff6f54	0.49889624
16	0x3c5c00a6	0.013427889
17	0x3ea39401	0.31948856
18	0x3ea3e218	0.32008433
19	0xbf6d521c	-0.92703414
20	0x3f748c7c	0.9552686
21	0x3f9b0609	1.2111217
22	0xbf37da82	-0.7181779
23	0xbf262f89	-0.6491628
24	0x3f0660b0	0.52491283
25	0x3f1c7929	0.61122376
26	0xbf13c437	-0.57721275
27	0xbe58fdd7	-0.21190582
28	0xbf1394e2	-0.5764905
29	0xbed38e72	-0.41319615
30	0x3f11881b	0.56848305
31	0xbf378a2a	-0.71695197
32	0x3fcf79ef	1.6209086
33	0x3f84d13e	1.0376356
34	0x3e484312	0.19556835
35	0x3c1c0007	0.009521491
36	0x3f90ff7e	1.132797
37	0xbf8da660	-1.1066399
38	0xbf7d76e8	-0.9900956
39	0xbf8bc06d	-1.0918099
40	0x3eaf16d2	0.34197098
41	0xbfa3d162	-1.2798274
42	0x3f08d538	0.53450346
43	0xbe4171c0	-0.18891048
44	0x3ee54cfd	0.447853
45	0x3e7286e5	0.2368427
46	0x3f85fa29	1.0466968
47	0xbeba3ddb	-0.36375317
48	0x3f69a7ef	0.9127187
49	0x3ebb47fa	0.3657835
50	0xbf5e7e74	-0.869117
51	0x3ec6b226	0.3880779
52	0xbebc90b1	-0.3682914
53	0xbf825f03	-1.0185245
54	0x3dd0fa28	0.102039635
55	0x3f341cb0	0.70356274
56	0x3f272f6e	0.65306747
57	0x3f26aba6	0.65105665
58	0x3f147c56	0.5800222
59	0x3d3cfa7f	0.04613733
60	0x3e3e52c3	0.18586259
61	0xbe562bdb	-0.20915167
62	0xbfe33e9a	-1.775348
63	0xbfb38b9e	-1.4026983
64	0xbf63cd0c	-0.8898475
65	0x3f810c03	1.0081791
66	0x3f60f12a	0.8786799
67	0xbe1c4f22	-0.15264562
68	0x3f4654b1	0.7747298
69	0x3f995541	1.1979142
70	0x3ed90add	0.423911
71	0x3f423a46	0.7587017
72	0x3e749b91	0.23887469
73	0xbf8038e1	-1.0017358
74	0x3f6f7315	0.93534976
75	0x3f18c799	0.5967956
76	0x3f0ff9ab	0.5624034
77	0xbef56d88	-0.47935128
78	0x3f23141d	0.63702565
79	0x3f5d6969	0.8648897
80	0xbfa137a8	-1.259511
81	0x3f92610a	1.1435864
82	0x3f1d9f33	0.61571044
83	0xbf7d17e1	-0.9886456
84	0xbf2d1757	-0.6761374
85	0xbf080c17	-0.5314345
86	0xbd281869	-0.041038904
87	0xbf5bff7b	-0.8593671
88	0xbf50ab7b	-0.8151166
89	0x3f5d8124	0.8652518
90	0xbf5cff5f	-0.86327165
91	0x3e89e253	0.26930484
92	0x3eb3b0fa	0.3509596
93	0xbec7fa89	-0.3905833
94	0xbf2f0236	-0.6836275
95	0xbf3293d0	-0.69756794
96	0xbf5e7a7a	-0.86905634
97	0xbeed05f1	-0.46293595
98	0xbf399663	-0.72495097
99	0x3e540430	0.20704722
100	0x3f01c389	0.5068899
101	0x3dd56cdb	0.10421153
102	0xbf30c990	-0.6905756
103	0x3f1e9143	0.619404
104	0x3f4d5301	0.8020478
105	0x3f716ade	0.9430369
106	0x3f9c95f9	1.2233268
107	0x3df62f3c	0.12020728
108	0xbe05032f	-0.12989496
109	0x3f822219	1.0166656
110	0x3d9cb92e	0.07652508
111	0x3fd7c8ea	1.6858189
112	0x3f2459d4	0.64199567
113	0xbe987a86	-0.29780978
114	0x3eec7439	0.4618242
115	0xbf7f62dc	-0.9976022
116	0x3f8f9309	1.1216747
117	0xbf0e456a	-0.5557467
118	0xbf435709	-0.7630468
119	0xbf1fd5fe	-0.624359
120	0xbf4207b4	-0.75793004
121	0x3f36bdfc	0.71383643
122	0x3fa5abf0	1.2943096
123	0xbe21c67b	-0.1579837
124	0x3f1f9738	0.62340117
125	0x3f30d5cb	0.6907622
126	0xbf373b98	-0.7157531
127	0xbd21671d	-0.039404977
128	0xbfc98ed8	-1.5746717
129	0x3ead3dd7	0.33836243
130	0xbf9100ff	-1.1328429
131	0x3e6de315	0.23231156
132	0xbf161c13	-0.5863659
133	0x3f6a6d93	0.91573447
134	0x3f846bd5	1.0345408
135	0xbd9f04fc	-0.077646226
136	0xbed5ed12	-0.41782433
137	0x3eae38cd	0.3402771
138	0x3eb5198d	0.35371056
139	0xbf8e3974	-1.1111283
140	0xbf90c016	-1.130862
141	0xbf9c597a	-1.2214806
142	0xbfbecf60	-1.4907036
143	0xbf99809c	-1.1992373
144	0x3f7ccac6	0.9874691
145	0x3f4bc1f4	0.79592824
146	0xbcef6b64	-0.029226013
147	0x3f1a0999	0.60170895
148	0xbf504327	-0.81352466
149	0xbfc5e18b	-1.5459455
150	0xbe2730c0	-0.1632719
151	0x3cc72893	0.02431134
152	0x3d1bc5c6	0.03803041
153	0x3fa4c9fb	1.287414
154	0xbc881f04	-0.016616352
155	0x3ec9d6e3	0.39421758
156	0x3cdb5d52	0.026777897
157	0x3e929105	0.28626266
158	0x3f5c58cd	0.86073
159	0x3f92dab8	1.1472998
160	0x3dffe79b	0.12495347
161	0xbe3e23bd	-0.1856832
162	0x3f127886	0.57215154
163	0xbe9c61d6	-0.30543393
164	0x3f0fe05b	0.56201714
165	0xbf6d5df3	-0.9272148
166	0x3fcd4f76	1.6039875
167	0xbf4fe689	-0.81211144
168	0x3a49f713	0.00077043584
169	0x3e8befed	0.27331486
170	0x3e8ce33a	0.2751711
171	0x3f6834a9	0.90705353
172	0x3f3200ec	0.69532657
173	0x3f34fccd	0.70698243
174	0xbe450306	-0.19239435
175	0xbf03317b	-0.51247376
176	0xbf000ab7	-0.5001635
177	0xbf225eea	-0.6342608
178	0xbebb8441	-0.3662434
179	0x3f234735	0.6378053
180	0x3f998b04	1.1995549
181	0xbf4a84ac	-0.7910869
182	0x3eb748f6	0.35797852
183	0x3ef4c26c	0.47804582
184	0x3f80e251	1.0069066
185	0x3f17fee4	0.5937331
186	0xbea2a045	-0.317629
187	0xbeb805ea	-0.35942012
188	0x3efea421	0.49734595
189	0xbeab156e	-0.33414787
190	0xbfa8b2a8	-1.3179522
191	0xbfbfcc98	-1.4984312
192	0x3f2d01cf	0.67580885
193	0xbef35b9c	-0.4753083
194	0x3f9d19f3	1.2273544
195	0x3b32543f	0.002721086
196	0xbf1af2b5	-0.6052659
197	0x3f3e4411	0.7432261
198	0x3ea6806c	0.32519853
199	0x3f353a37	0.70791954
200	0x3f2366e5	0.6382888
201	0x3f60fe71	0.87888247
202	0xbf739afb	-0.95158356
203	0x3f374a4c	0.71597743
204	0xbd95af1e	-0.073087916
205	0x3fa39805	1.2780768
206	0x3f83df9e	1.0302618
207	0xbec51523	-0.3849269
208	0xbe52d38f	-0.20588516
209	0x3f65a6e2	0.8970777
210	0x3ee46db3	0.44614944
211	0xbf820392	-1.015734
212	0x3f3ae0e9	0.72999436
213	0xbf8e23e9	-1.1104709
214	0xbe188aec	-0.14896744
215	0xbf1fe8fe	-0.6246489
216	0xbf523d85	-0.8212512
217	0x3f053165	0.52028495
218	0xbf1200ad	-0.5703228
219	0x3e201d01	0.15636064
220	0xbe02fd01	-0.12791826
221	0xbecb26d2	-0.39678055
222	0xbf14ea4c	-0.5817001
223	0xbf1dd633	-0.6165497
224	0x3fc67e78	1.5507345
225	0x3e826895	0.25470415
226	0xbf26e136	-0.65187395
227	0x3ddbbfba	0.10729928
228	0xbebc075c	-0.36724365
229	0xbefa03b2	-0.48830944
230	0x3f477f60	0.77928734
231	0x3ed55fa2	0.41674525
232	0xbfa2271b	-1.2668184
233	0xbef3f3d7	-0.47646973
234	0x3f4c688d	0.7984703
235	0x3e9b9174	0.3038441
236	0x3e1d6479	0.15370359
237	0xbe7e544a	-0.24836841
238	0xbfca1865	-1.5788695
239	0x3d178c84	0.03699924
240	0xbf997242	-1.1987994
241	0xbec6d0f3	-0.3883129
242	0x3e902f7d	0.2816123
243	0xbd200275	-0.039064843
244	0x3f919ee2	1.1376612
245	0x3e0e9ad8	0.13926256
246	0x3fb3df26	1.4052474
247	0x3f387c74	0.720649
248	0x3fb4748c	1.4098067
249	0xbf5bdd85	-0.85884887
250	0x3ca1c61a	0.019747782
251	0x3eff5584	0.4986993
252	0x3e90b66d	0.2826418
253	0x3f1fe274	0.62454915
254	0xbf138e6f	-0.5763921
255	0x3dcc5e2c	0.09978899
