Vogen.Synth/models/g2p/yue-wz.v20210605-000658.onnx (onnx, 12613 bytes, 11 tensors)

al f4 [16, 99]
00000000: afd9 043f 03dc 7cbd 3ebd a6bd d8fe 4abd
00000010: e53c 4f3e 139b cc3e 39c6 3e3f da03 62be
00000020: 2dc7 38bd de88 6ebe 4281 7cbe 5e32 18be
00000030: d929 e8bd 5a26 65be df3c d33e 68fa aabd
00000040: 0d43 99be b993 6e3e 251b b4be 5372 09bf
00000050: ed8b 52be 240c 9c3e a50b 103e abcc 12bd
00000060: 4b5e d03e dc61 a23e 6bea 2abe 6158 f9bc
00000070: 3935 bbbe 421d bebe 550a 383f 09b1 acbe
00000080: 4985 83bf 3a56 203e fdef b7bd b99e c93e
00000090: 8ead c7bd 5ff1 263f 29d5 a3be f50f a6be
000000a0: 6022 4e3f 4b67 7a3f d1ac d5be fa9e 9dbd
000000b0: e89f b4be 0a9b 1ebd 2508 c5be f8c1 0cbe
000000c0: 4eae 763c 9bdf 043f 477e 90bf 6002 3fbf
000000d0: 7ebd 163f 402a dabe e713 79be daca 1d3f
000000e0: 47b3 c1be 72cd acbe 6303 b3be 605e be3d
000000f0: 6482 28bf 3247 0ebe 8586 d2be bafe cebe
00000100: 2449 39bf 7487 81ba 51d6 563e 7658 abbe
00000110: a463 c3be d35e 8c3d b3e9 00bf ebe1 28be
00000120: bcc2 a4be d7e3 aebd d142 7cbe 18cd 91bd
00000130: f0ec 81be 8c2b 09be a784 53be af74 62be
00000140: 515a 7dbe a090 f4bb 0fb5 b7bd 4c83 9fbe
00000150: 0f9a 7abe 4694 bcbe f5df c5bc 0e9d 1dbe
00000160: a77d 80be 8287 46be d6aa 00be 3c3f 67bd
00000170: 3193 98be 15ed 56bd 5b7f babe 921d d3be
00000180: 5c3d 0bbe fb38 b0be e763 7abe d9e9 84bf
00000190: 220c e7be 14de 72be b358 20be 918e 9e3e
000001a0: 0186 27bd 5f93 0ebf 8758 cdbd 4cbd 81be
000001b0: 8105 22be 0383 193f cbbf 50be 118e babd
000001c0: 5c7a 96be e495 69bf 55f2 ffbd 70ba c8be
000001d0: 32aa fabb 1f0e 86be 2af5 073f 25ae 2f3e
000001e0: bd83 9fba 841c a93e b6ea d5be a368 37be
000001f0: c174 07bf 01e5 bfbe b7bf 11bf 8d3f c4be
00000200: 34c3 303b 3b1d 4d3e 2373 d3be f9e2 b93e
00000210: 2c7d f23d 9b8e 71bf 8e87 ce3e b40a 67be
00000220: d09a a3bf 6839 02be 66d0 00bf c41f 2dbe
00000230: da55 07be 10f0 9abe 59b7 69be e1e5 72be
00000240: f2b0 aabe 87b2 04be 8dfd 4dbe 896f 32be
00000250: e7d3 92be 923b 9d3f 07a5 3d3f 223f cfbe
00000260: c43d 193f ec48 9bbe 5d13 fc3c 76b0 06be
00000270: f419 9abd b299 01bf ca6b 413f 95df 43bf
00000280: 0b1f dcbd c4f0 273e 49ff dabe 1a5b 493f
00000290: 7ac7 233f a6f7 41bf db38 a23e 31c1 65be
000002a0: 1cc6 c83e 0b7c 35bf 4cb8 f7be 6eb7 fdbe
000002b0: cf43 ffbe 96f5 96be e52c 87be 1eb2 f2be
000002c0: e47c 45be 25ea 26be 3971 a1be 8444 09bf
000002d0: 80de cabe ba23 ebbd 8a74 83be aea6 06be
000002e0: 9770 9bbe 4fa4 edbd 4c9a 07be 943a 40be
000002f0: 2a54 eabe 13c1 39be 2567 f6be a076 05be
00000300: b1aa a2be 0e5b 4cbe 3781 bdbd 2e33 6cbe
00000310: 0108 99be f9ff 01bf 0d4e 8e3e f39a dfbe
00000320: 99d4 86be 63b9 afbe 6245 ec3d 747d 0a3f
00000330: 99c0 76bf b9fa aabe 57ff acbe 9c43 9bbe
00000340: cde5 27be ea46 a1be b28b bbbe 725c 3cbe
00000350: a1eb 143f a4da bdbe 9991 b3bd a2d1 68bf
00000360: f2cf 45be cf20 79be 9a08 a83d 1f3a 1bbf
00000370: 4317 75bd 7157 b9be 240a 39bf e7b2 76be
00000380: fa9b 7bbe ebbe 0f3f 0124 02be f328 dc3e
00000390: e307 523e cd5b 07bd 8cd7 05bf 93c7 a9be
000003a0: 07bc 1d3f 0ef9 9dbd ea0e 87bd 071d a5be
000003b0: bed1 f7bd 8701 0e3c 83d9 173e b01f d4be
000003c0: 9f07 b3bd 407d 32be cd21 22bd 79bd f2bd
000003d0: deac 58be 5a59 47be 404f bdbe 8f99 003f
000003e0: 7127 7dbf afd6 e23e 04f4 133f 60a2 1cbe
000003f0: 6105 8ebe 7157 8a3e 60da cbbe 40fb ca3e
0.5189466 -0.061733257 -0.08141564 -0.049559444 0.20238073 0.39962062 0.74521214 -0.22071782
-0.045111824 -0.23294398 -0.24658683 -0.14862964 -0.11336107 -0.22377911 0.41257378 -0.083485425
-0.29933968 0.23298539 -0.3517696 -0.5369007 -0.2056119 0.30478013 0.14066942 -0.035839718
0.4069694 0.31715286 -0.16690986 -0.03043765 -0.36564043 -0.37131697 0.71890765 -0.33728817
-1.027505 0.15657893 -0.08981321 0.39378908 -0.097499 0.65212053 -0.31998566 -0.3243405
0.805212 0.9781386 -0.4173341 -0.07696338 -0.3527825 -0.038722076 -0.38482776 -0.13745868
0.015056206 0.51903695 -1.1288537 -0.74613 0.5888289 -0.4261036 -0.24323998 0.6163765
-0.3783209 -0.33750492 -0.3496352 0.09295344 -0.6582396 -0.13894346 -0.41118255 -0.40428716
-0.7237723 -0.0009882287 0.20980193 -0.33465928 -0.38161957 0.06854024 -0.50356597 -0.16492431
-0.3217982 -0.08539551 -0.24634863 -0.07119197 -0.2537608 -0.13395518 -0.20656072 -0.22114824
-0.24741484 -0.0074635297 -0.08970081 -0.3115486 -0.24472831 -0.36831874 -0.024154643 -0.15391943
-0.25095865 -0.1938763 -0.12565169 -0.05645679 -0.29799798 -0.052472193 -0.3642529 -0.41233498
-0.13597625 -0.34418473 -0.24452172 -1.0383865 -0.45126444 -0.23717529 -0.15658836 0.30968145
-0.04089928 -0.5569362 -0.10026651 -0.25339735 -0.15822412 0.59965533 -0.20385663 -0.09109128
-0.29390228 -0.9124434 -0.12497393 -0.3920474 -0.0076496834 -0.2618265 0.53108466 0.17156275
-0.0012169998 0.33029568 -0.41780633 -0.1791101 -0.5291253 -0.37479404 -0.5693316 -0.38329735
0.002697182 0.20030682 -0.4129878 0.3630598 0.11840281 -0.94358224 0.40337795 -0.22562677
-1.278162 -0.12717211 -0.5031799 -0.16906649 -0.13216344 -0.30261278 -0.22823848 -0.23720504
-0.33338124 -0.12958728 -0.20116253 -0.1742536 -0.28677294 1.2283804 0.74079937 -0.40477854
0.5985987 -0.30329072 0.030770952 -0.13153252 -0.075244814 -0.50625145 0.755551 -0.76513034
-0.107481085 0.16400439 -0.42772892 0.78654635 0.6397625 -0.75768507 0.31684002 -0.22436978
0.39213645 -0.708924 -0.48382795 -0.49554008 -0.4985642 -0.29484242 -0.2640144 -0.47401518
-0.19285923 -0.16300257 -0.31531695 -0.5362017 -0.3962288 -0.11481424 -0.2567485 -0.13149521
-0.30359337 -0.11603605 -0.13242453 -0.18772346 -0.45767337 -0.18140058 -0.48125568 -0.13033533
-0.31770852 -0.1995661 -0.092531614 -0.23066399 -0.2988892 -0.5078121 0.27793923 -0.43672904
-0.26334074 -0.34321126 0.11536671 0.54097676 -0.9638763 -0.3339441 -0.3378856 -0.3032502
-0.16396256 -0.31499416 -0.36630017 -0.1839464 0.5817204 -0.37080872 -0.08768005 -0.90944874
-0.19317606 -0.24328922 0.082047656 -0.6063556 -0.059836637 -0.36199525 -0.722811 -0.24091683
-0.24571219 0.5615069 -0.12709047 0.42999992 0.20510821 -0.033046532 -0.52282023 -0.33160076
0.6161503 -0.07713519 -0.065946415 -0.3224871 -0.12100552 0.008667356 0.14829068 -0.41430426
-0.08741688 -0.17430592 -0.039583016 -0.11852545 -0.21159694 -0.19467679 -0.36974525 0.5023431
-0.9888831 0.44304416 0.57794213 -0.15296316 -0.2773848 0.27019837 -0.39815044 0.39644814

w6 f4 [99]
00000000: 23af ce3d 76e3 04be d2cd 7f3d 2903 03be
00000010: b383 2fbd 24b3 473e b609 9c3e 0785 04be
00000020: c293 0fbe 703d fbbd 42f0 c3bd c24c 06be
00000030: e60f 01be fa63 03be 241f 993d da4d 01be
00000040: 2130 ffbd 3268 773e 6499 07be 1fd1 7dbe
00000050: ab7c b0bd 5840 0c3e 65c9 313d 89a7 05be
00000060: 8d6c e13d 08d2 96bd 1786 e6bd 3df2 d2bd
00000070: f34e fcbd d34d 793e aa00 a93e 9741 07be
00000080: 334b 743e 4e13 93bc 7671 44bb c0ea 803e
00000090: 9ae9 05be 62f9 cdbc a4e6 02be 86a2 ffbd
000000a0: 0945 433e d268 2b3e c6ba 06be 990b 03be
000000b0: ebe5 02be 4f27 08be d360 ffbd 3c84 f1bd
000000c0: 6d85 f4bd fe17 8b3b 28da cebd db52 4e3e
000000d0: 51f0 443e 8f24 64bd d031 03be 9bcc de3d
000000e0: ed79 efbd 07c8 3f3e 27e2 fbbd 27e8 c83e
000000f0: 9f62 6ebe 3880 febd 16c5 43bd 88c6 edbd
00000100: 6e11 0ebe 7c79 3d3e 9b29 953e beff 89be
00000110: 4513 02be 841d 97be 2a22 b3bb 9513 e4bd
00000120: d39c 02be 1848 06be cc86 03be a13b 00be
00000130: 4d1e f1bd 2b5e 00be 8d00 09be 1cf6 f6bd
00000140: 0f94 fabd 0fd0 00be c176 03be 98ca 11be
00000150: 1d82 f9bd 7558 09be c803 05be 0c28 0fbe
00000160: 4bdb 04be cc6a fbbd b811 02be 0286 04be
00000170: a476 08be c72e 0cbe e534 03be 3215 f2bd
00000180: 15a6 01be 7633 02be 6e55 febd
0.100919984 -0.12977394 0.062452145 -0.12794174 -0.042850208 0.1950193 0.3047616 -0.12941371
-0.14021209 -0.12267578 -0.0956731 -0.13115218 -0.12603721 -0.12831107 0.07476643 -0.12627354
-0.12460352 0.24160841 -0.13242108 -0.24786805 -0.086175285 0.1369642 0.043404955 -0.13052191
0.110070325 -0.07364279 -0.11256044 -0.103001095 -0.12319746 0.24346094 0.3300832 -0.13208614
0.23856811 -0.017953541 -0.0029974855 0.251791 -0.13077393 -0.025143329 -0.12783295 -0.12482171
0.19069304 0.16739205 -0.13157186 -0.12797393 -0.12783019 -0.13296245 -0.1246964 -0.117928
-0.119395114 0.0042448035 -0.10100204 0.20148794 0.19232298 -0.055698927 -0.1281197 0.10878869
-0.11693177 0.18728648 -0.122989945 0.39239618 -0.23279808 -0.124267995 -0.047795378 -0.116101325
-0.13873836 0.18503374 0.29133305 -0.26952928 -0.12702663 -0.29514706 -0.005466719 -0.111365475
-0.12755136 -0.13113439 -0.1284439 -0.12522747 -0.117733575 -0.12535922 -0.13379116 -0.120586604
-0.12235271 -0.12579368 -0.1283827 -0.1423744 -0.1218302 -0.1341265 -0.12989724 -0.1398012
-0.12974279 -0.12276229 -0.12702072 -0.12941745 -0.13326508 -0.13689719 -0.12813146 -0.11820449
-0.12661012 -0.12714943 -0.12418638

w f4 [16, 16]
00000000: 5a81 0e3f 06c0 3b3f 2af0 4d3f 3f7c 34bf
00000010: 0c56 923f c3fa 473f 30c8 853f c228 b33d
00000020: 2356 9fbe c1a4 e03e d2b3 403f ae62 f2bd
00000030: 3c16 403d 5bca 323f f953 bd3e 593c a2bf
00000040: cb6a 07bf f97f 343e 6691 4dbe 0aac 84be
00000050: e674 fdbe b069 3bbf 1ada 283f ffa3 cd3e
00000060: 9d99 b83e b981 803f 80c6 95be d918 19be
00000070: 5feb 3e3f c60d 453f a71f 903e 6fb1 5f3f
00000080: a179 053f 8ebd e83e 49aa 5fbf 2435 26bf
00000090: 9187 9b3f dbde 5f3f e8a8 76bf 6a8b 343f
000000a0: 1cc6 39bf 966b ce3d 4e59 3bbf 6df5 5a3f
000000b0: e684 973f adec 27bf 65e2 52be 00e6 a63f
000000c0: 77b6 06be 4ab1 a73e 92c0 073f 9bcd f5be
000000d0: ce34 143f 85c4 f83e 6fcf e13e 3d68 743e
000000e0: c7c2 33be 6e50 4b3d 7919 403f 31e8 24bf
000000f0: 351e 7a3e 652f 6b3e e1dc 783e df4a 87be
00000100: 32fe 653f 56f8 70bf d86a 1d3f df4d f2bd
00000110: dad8 453e ecae a23e d107 cd3e be8b 3dbf
00000120: 4947 2e3f ec45 89bf 3784 3fbe 2ce9 4d3f
00000130: 42f7 3a3f 74b9 293e 5bf9 04bf 01ee b0be
00000140: 9c9c 363e 57c1 593f 3f79 e0bc 6f9d 56bf
00000150: a12d 96bd 4e48 5a3f 143c 0d3f 0329 503e
00000160: d438 f93d 6cb8 0e3e 0e7e dbbe f095 2f3f
00000170: c3f9 863f 9df6 063f d796 14bf bfc6 263f
00000180: 2a9b 053f a5a3 82bf 7307 3c3f 13a0 9f3f
00000190: a59b 77be b40b ff3c f0b8 3c3c 46a3 96be
000001a0: da52 b03e ffda 9dbf aeef c93e 4730 2a3f
000001b0: adcd 133e 0f24 76be cb51 6f3e c94a 5f3f
000001c0: 5f76 bf3e 2095 5bbf 46ec fabe 687d 383f
000001d0: ebb4 0bbf ef67 a4bf baae b7be 29e6 2abf
000001e0: d0e7 553f 64d1 abbf 65cc 653f a2c8 393f
000001f0: a0b6 2dbf 968f 8fbe 19c9 7e3f 894c 43bd
00000200: c734 383e 253d 683f fbcd 94be bb78 81bf
00000210: 8da7 3e3f f0c5 553f fed2 6b3f 60f3 873f
00000220: 342b 9abe 8b41 373f 981d 513f 710a 43bf
00000230: 1f12 89bf ce7b e83e 4d55 993f 5b84 e63e
00000240: 921d 703c 30d8 1f3e d37b 103f 8cd4 9ebf
00000250: 375d 6ebf b14a e73e d101 163f 8f0a 4ebf
00000260: 429e 8b3e f466 97be c80d 9b3e bf78 79bf
00000270: 57d3 033f 19c9 833e 3951 7a3d 7757 473f
00000280: 3d56 f83e 7fb7 ec3d 944e fabe 1568 343f
00000290: 1939 7bbe 0d8c efbf 525d 903e 80aa 72bf
000002a0: 0d41 883e bac4 b2bf a11e 453f d43d b43d
000002b0: 3f2b f5be 854e 793f 71cc cf3e db4f 49bf
000002c0: 7ba0 a9be 2085 843f 6544 193f 17b6 e9be
000002d0: c776 ec3e 3c50 d0be fe3c 403e 3fdc fc3e
000002e0: 8f68 b53d 434e 15bf ad0e 86be d514 5e3f
000002f0: ca15 243f 6ba3 833e d4ed c2bd bae8 593f
00000300: 3544 953f 7201 ecbe d7be cd3d 5773 1abf
00000310: 5b1e 2d3f 3dcc 9d3e 5955 18bf c5ac c0bd
00000320: 4652 cf3e 97ca b9bf 2d56 4d3e 8c31 473f
00000330: 636a 84bf 6947 fabe 5892 9a3e 9cf3 aebe
00000340: 8b3b 0ebe 281e 1e3e 775e 3e3f 5409 b9be
00000350: 25d3 1abd bd4d 0a3f e976 f83d 06af 1c3f
00000360: 7bda 91be 681e e43e 4523 1b3f ac6c 213d
00000370: ee89 87be d797 163e f230 b63e 5914 35bd
00000380: b884 373e 1ef9 1f3f 2d83 cd3d d93d 993e
00000390: 4bc4 09bf 44cf d6be 3528 243f 36b7 07bf
000003a0: 6893 bf3e 1d3b 62bf 39b3 cd3d 4392 2bbf
000003b0: be46 c3bd 72a7 6f3f c805 2d3f 6567 ae3e
000003c0: fe47 f6bc 3f9d 6cbf 2c98 a03f a5c2 f63e
000003d0: 3e6f 833f 44d2 10bf e8a6 02bf 85ed fabe
000003e0: dd85 293e 875e a73f 1468 073f 75c8 68bf
000003f0: 3e37 c7be d853 bcbe 88ac 88be ca03 443f
0.55666125 0.7333988 0.80444586 -0.70502084 1.143251 0.78117007 1.0451717 0.08748008
-0.31120405 0.43875697 0.75274384 -0.11835228 0.046896204 0.6984002 0.3697813 -1.2674667
-0.5289733 0.17626943 -0.20074996 -0.25912505 -0.4950325 -0.7320814 0.65957797 0.40164182
0.36054698 1.0039588 -0.29253006 -0.14950885 0.745779 0.7697414 0.2814915 0.8738012
0.52138716 0.4545712 -0.8736921 -0.64924836 1.2150747 0.87449425 -0.9635148 0.7052523
-0.72567916 0.10079114 -0.73183143 0.8553074 1.1837432 -0.65595514 -0.20594175 1.303894
-0.13155542 0.32752448 0.53028214 -0.48008427 0.57893074 0.48587433 0.44103572 0.23867889
-0.1755477 0.04963725 0.7503887 -0.64416796 0.24425586 0.22967298 0.24303009 -0.2642431
0.89840996 -0.9412893 0.61491156 -0.11831259 0.19321004 0.3177408 0.40045026 -0.74041355
0.6807752 -1.0724463 -0.1870278 0.8043392 0.73033535 0.16574651 -0.51942986 -0.34556583
0.17833179 0.8506064 -0.027401565 -0.83833975 -0.07332922 0.8526658 0.55169797 0.20328145
0.12169042 0.13937539 -0.4286961 0.6858816 1.0544971 0.5272005 -0.58042663 0.6514701
0.52189887 -1.020619 0.73448867 1.2470726 -0.24180467 0.03113351 0.011518702 -0.29421443
0.3443821 -1.2332457 0.39440674 0.66479915 0.14433928 -0.24037193 0.23371045 0.8722349
0.37394997 -0.8577442 -0.49008387 0.72066355 -0.54572934 -1.2844218 -0.35875493 -0.66757447
0.8355684 -1.3423276 0.89765006 0.72571766 -0.6785679 -0.28039235 0.995256 -0.04768041
0.17988883 0.907183 -0.290634 -1.0114969 0.7447441 0.83505154 0.92118824 1.0621147
-0.30111086 0.71584386 0.8168578 -0.7618781 -1.0708655 0.45406955 1.1979157 0.45022854
0.014655488 0.15609813 0.5643894 -1.2408614 -0.93110985 0.45174173 0.5859652 -0.8048486
0.2726918 -0.29570735 0.30283952 -0.9744987 0.51494354 0.25739363 0.061112616 0.77867836
0.48503295 0.115584366 -0.48888075 0.70471317 -0.245335 -1.8714615 0.28196198 -0.9479141
0.2661213 -1.3966286 0.7699986 0.08800855 -0.47884557 0.97385436 0.40585664 -0.78637475
-0.3313025 1.0353127 0.59869987 -0.45646736 0.4618437 -0.40686214 0.18773267 0.49386784
0.088578336 -0.5832254 -0.26183072 0.8675054 0.6409575 0.25710616 -0.09518018 0.8512074
1.166144 -0.46094853 0.100461654 -0.60332245 0.67624444 0.30819884 -0.5950523 -0.09407953
0.40492457 -1.451495 0.20052405 0.7780998 -1.0344967 -0.48882607 0.30189776 -0.34170234
-0.13889901 0.15441191 0.7436289 -0.3613993 -0.03779902 0.5402487 0.12132055 0.61204565
-0.28487 0.44554448 0.6060069 0.03941028 -0.2647242 0.1470636 0.35584217 -0.04420886
0.17921722 0.624895 0.100347854 0.2993 -0.53815144 -0.41955006 0.6412385 -0.5301393
0.3741715 -0.8837145 0.1004395 -0.6702005 -0.095349774 0.93614876 0.67586946 0.3406326
-0.030063625 -0.9242744 1.2546439 0.48195377 1.0268323 -0.5657084 -0.5103593 -0.49009338
0.16554971 1.3075722 0.52893186 -0.90930873 -0.38909334 -0.36782718 -0.2669413 0.7656828

pg f4 [16]
00000000: 8535 2e3e 3907 523e f8a8 923d 56bf 633e
00000010: 8dbc 8c3e 99ba 943e 08fd a83d 23bb 593e
00000020: 5056 ef3d fd26 4c3e 8c42 603e 2252 943e
00000030: 1a65 b03b 2144 203e 9c92 8c3e 977b 09be
0.17012604 0.20510568 0.071611345 0.22240958 0.27487603 0.29048613 0.08251387 0.21262793
0.11686385 0.19936748 0.21900386 0.28968912 0.005383146 0.15650989 0.27455604 -0.13426052

sg f4 [6, 4]
00000000: 0b8c 9f3f 9787 07bf bf4c b43e 0aff 553e
00000010: 8ab7 e83d 5c52 df3e e5f1 9b3e bb88 8c3f
00000020: 09ce 98be a3b4 c93e 61ca 63bf 8c2e c53f
00000030: 2d9d 9a3f 48ab 513f 2b32 ecbf a946 b73d
00000040: 98a1 d0bd a744 563e 29cb b23f b454 a63f
00000050: 21c4 853f 4efe 983d f8da 0f3f 884f fd3e
1.2464613 -0.5294127 0.35214803 0.20898071 0.11363132 0.43617523 0.30457988 1.0979227
-0.29844692 0.39395627 -0.8898068 1.540483 1.2079216 0.8190198 -1.845281 0.08949024
-0.101870716 0.20924626 1.396825 1.2994599 1.0450479 0.0747038 0.56193495 0.4947474

24 f4 [4]
00000000: 4fbd 8dbd 5fdb 863e ddd2 cc3e 55d2 843d
-0.069208734 0.26339242 0.40004626 0.0648543

mg f4 [16, 16]
00000000: 6bfe 8dbf 681d 00bf 812f 64bf 474d 97bc
00000010: 7494 803f 3580 003e 456c a33d 7ee1 683f
00000020: a289 7fbf 0c6f 3bbd 3c9a 223f 3650 473d
00000030: 8f4c 113f c6a1 75be bce3 373e 9808 c4bb
00000040: 033b f9be e267 4c3e e2e9 ca3e 63e7 75bf
00000050: 8ec5 533f f500 4f3f 5c82 4a3f b90a 8bbc
00000060: a601 913e ac3d 683f 65e5 f53b a440 7f3f
00000070: e40e 87bf 417a 52bd 7c6c 8ebd c239 893e
00000080: 9391 41bf 8b27 633f b137 0d3f 3ee3 71bf
00000090: f954 8b3e eb52 0b3f cb67 67be 4205 4f3f
000000a0: f51c 783f 1cff 5f3f 637e 733f fc79 50be
000000b0: 53dd df3e 2d3d b0be 9ac2 f83e c889 15bf
000000c0: 0cb8 41bf 7dc9 883e 6068 e23e 3b4e 93bc
000000d0: 3843 533f 4c61 263f 77b4 513f 673d 3dbf
000000e0: 5096 90be e160 603f 4d97 88bf c230 c6bd
000000f0: bd90 aebe 8c2b bdbe 03c3 263f e9cb 663f
00000100: a60e 803f 8644 213f c616 ad3e 6aa7 ebbe
00000110: bb78 1b3f 5e2e b63e 95fe d93e 8882 973e
00000120: cfc4 003f d346 28be eb52 3bbf 0aab 4e3f
00000130: 5989 9bbf 4726 c4be df19 953e 0f6d 0e3f
00000140: 5b8e 32bf 2d3f 6b3f e8e0 1ebe b37f 3bbd
00000150: bf64 d53e 447d ec3e e89a 40be 2881 1abf
00000160: 5c48 bbbe 7033 653f 4236 64bf ce4b 8b3e
00000170: 012e 573e 569d 09bf 7492 043f 2d3a 2c3f
00000180: f7a6 5d3f 6681 5b3f e62a 5c3f c115 d5bf
00000190: 6646 5e3e bbc1 263f 839e 12be e755 e93e
000001a0: 172a 503f 88d8 0fbf b86c 183f 43e2 333f
000001b0: b94f 023e ef28 96be d4df 013f af2a 95bf
000001c0: f064 f63e 6105 703f 44f6 a13f 8ff5 97be
000001d0: b1a0 9d3e aa61 4e3f 2801 b53e 77b5 5bbf
000001e0: ef8c 653f 45a0 a13e f7fb 1fbf 2a71 453f
000001f0: ec25 72bf 456e f33e 4b6f 573e 6473 363f
00000200: 12fb 49be cba5 f93e 4b72 04bf 370a 33bf
00000210: 38a5 96be 808f 443f bff2 943e a56a e53e
00000220: 794a 16bf 5e5a f03e eac7 8a3f 0588 783f
00000230: 8182 52be ca94 adbc ad56 833f 9f38 61bf
00000240: f908 1c3f 0065 523e 3073 953f bcab 7b3d
00000250: 023f 843f c76b 933f a8fb 853d 5535 0abf
00000260: 87f5 39bd edd8 80be 2d7b 02bf 9c35 6b3f
00000270: dede 353f 4f48 3dbe f08a ccbe 700d 033f
00000280: 9bbf 26bf 8fc7 7a3f 531d e3be 6c7e cf3e
00000290: 751c a9be 1952 0dbe b15d 593e e080 363f
000002a0: 8b0a 253e 43a5 603f 48e6 1c3f 5aa9 ca3e
000002b0: f5f3 063e 4fba 2bbf 9f52 073f d31a 843f
000002c0: 527c 8e3f 3dd2 81bd 62c9 31bf 67c6 acbe
000002d0: 7e7d 853e 1fa6 a9be a694 1b3f e0cf 6bbe
000002e0: bfec 563f f0a8 4e3f 5772 46be 341a 233f
000002f0: 0ebb 99be b247 26be e8fb 763e 1631 a23f
00000300: fbc9 42bf 3e6f 903f 556e e43e c5ee 36be
00000310: 2438 c4be 5a94 0f3f 570a 57bd 1621 f53d
00000320: eed4 73bf f881 8f3e f10a 7e3f 9088 543f
00000330: dc3b b63f 9e38 b33f c66d 263f b29a 813f
00000340: 5685 d13e 60f4 133f 148d 0f3f e361 bb3e
00000350: da44 4e3e 5457 923e b2e0 f23e e329 4d3f
00000360: a725 a1bf b1d7 213e cdce 78bf b6c2 a93f
00000370: c29a bd3f fb11 d4be abea dfbe 19d5 98be
00000380: 872c 793f 9a92 623f b60d 433f cdad 673f
00000390: 959c 35bf 8331 59bf 1ae1 053f bdf1 753f
000003a0: 0257 c33f 1600 bbbe 12d2 193d 53cc 2fbc
000003b0: 78c0 05bd d79c 40be 36e9 8d3e adfb 983f
000003c0: f198 0ebf 21a3 6dbf 21cc b0bf 7786 41be
000003d0: 2b23 243f 04e6 19bf 1c0e 043f 506f 6f3f
000003e0: d224 abbf a085 9fbe b839 253f 6270 73bf
000003f0: b56c 873f 1302 0fbf edea cbbc 72ab 473f
-1.1093267 -0.5004487 -0.89134985 -0.018469466 1.0045304 0.12548907 0.07979635 0.90969074
-0.99819386 -0.0457602 0.6351659 0.04866048 0.56757444 -0.23987493 0.17957968 -0.00598247
-0.48677835 0.19961503 0.39631563 -0.96056193 0.8272332 0.80860835 0.7910516 -0.016972886
0.2832157 0.90719104 0.0075041526 0.9970801 -1.0551419 -0.05138612 -0.069542855 0.26801878
-0.75612754 0.8873221 0.55163103 -0.9448737 0.27213266 0.544234 -0.22598188 0.808674
0.96919185 0.8749864 0.95114726 -0.20359033 0.43723544 -0.34421673 0.4858597 -0.5841336
-0.7567146 0.26716223 0.44220257 -0.01798164 0.8252444 0.64992213 0.8191599 -0.7392182
-0.2823968 0.87647825 -1.0671173 -0.096772686 -0.34094802 -0.36947286 0.65141314 0.9015489
1.000447 0.62995183 0.33806437 -0.46026164 0.60731095 0.3558225 0.42577043 0.29591775
0.50300306 -0.16433267 -0.731734 0.80729735 -1.215129 -0.38310453 0.291213 0.5563516
-0.6974847 0.91893274 -0.15515482 -0.04577608 0.41678426 0.4618932 -0.18809092 -0.60353327
-0.36578643 0.8953161 -0.8914529 0.27206272 0.21013643 -0.537557 0.5178597 0.6727627
0.86582893 0.8574432 0.8600296 -1.6647264 0.21706542 0.6513936 -0.1431828 0.4557335
0.81314224 -0.56189775 0.5954089 0.70267123 0.12725724 -0.29328105 0.5073216 -1.1653651
0.48123884 0.9375821 1.2653279 -0.29679534 0.3078666 0.80617774 0.35352445 -0.8582377
0.8966817 0.31567588 -0.6249384 0.771258 -0.94589114 0.47545066 0.21038549 0.7126982
-0.19724682 0.48759302 -0.517369 -0.6993746 -0.29422927 0.76781464 0.2909145 0.44807926
-0.58707386 0.46943945 1.0842259 0.9708255 -0.20557596 -0.021189112 1.0260826 -0.8797702
0.6095119 0.20546341 1.1675777 0.061443076 1.0331728 1.1517266 0.0654214 -0.5398763
-0.04540017 -0.251655 -0.509692 0.91878676 0.71043193 -0.18484615 -0.3994975 0.5119238
-0.65136117 0.9796075 -0.4435831 0.4052614 -0.33029523 -0.13800849 0.21227147 0.712904
0.16117303 0.8775217 0.6128888 0.3958233 0.13179 -0.6708116 0.52860445 1.0320686
1.113169 -0.06338928 -0.6944791 -0.3374512 0.26072305 -0.33134553 0.60773695 -0.23028517
0.83954996 0.8072653 -0.19379555 0.6371186 -0.30025524 -0.16238287 0.24119532 1.267123
-0.7608945 1.1283948 0.44615427 -0.17864521 -0.38324082 0.5608574 -0.052500095 0.11969201
-0.9524678 0.28028846 0.99235445 0.8302088 1.4237018 1.4001653 0.6501125 1.0125334
0.4092204 0.5779476 0.56074643 0.3659812 0.20143452 0.2858225 0.47437054 0.8014204
-1.2589616 0.15804936 -0.9719055 1.3262546 1.4812853 -0.41419968 -0.43733725 -0.2985008
0.9733357 0.88504946 0.76192796 0.90499574 -0.7094205 -0.84841174 0.522966 0.9607199
1.5260928 -0.36523503 0.037553854 -0.010729867 -0.032654256 -0.1880983 0.27716988 1.1951805
-0.5570212 -0.9282704 -1.3812295 -0.1889895 0.6411616 -0.601166 0.5158403 0.93529224
-1.3370612 -0.31156635 0.64541197 -0.9509336 1.058005 -0.5586254 -0.024892295 0.7799598

k f4 [16]
00000000: a4ec 06bf d4bf ab3d 3107 f43e 32fa c9bd
00000010: e0a4 513e bd75 823e 88c9 983e 9d55 f53e
00000020: 28c8 adbe 5423 26bd 69e8 1d3f b4d8 343e
00000030: 6666 113f ce5d 77bd c4c1 023e b950 1c3e
-0.52704835 0.08386198 0.47661737 -0.09862174 0.20473051 0.25480452 0.29841256 0.4791688
-0.3394177 -0.040561035 0.61682755 0.1766079 0.5679687 -0.060392193 0.12769228 0.15265168

54 f4 [8, 6]
00000000: f808 b7bf 5873 303f d36a c9bd b02d 993f
00000010: 9f48 1a3f 5c0a c8bf 692d 1dbe 1086 2b3e
00000020: 9578 9d3f 1c3f 803f 22ac 06be 673c 99be
00000030: 726e 47bc 5978 24bf e4e6 a13f f8b0 2f3e
00000040: cbb9 8dbf e47c e2bc 63e4 f83c 5603 31bf
00000050: 309a 843f fc8b 723e 2fdb a5bf 8648 793b
00000060: dad9 f9be 6d7a 73bf d23f a83e b37e c73e
00000070: dc48 42bf 049b 3e3e cb93 5dbf cbeb 1cbf
00000080: b364 d9bd 5c1e 683e 9c11 97bf 36a8 8cbf
00000090: 9291 e6be f617 5cbf a18a 12bf 3968 7e3f
000000a0: f0de 9bbf 3290 2bbe bc09 8dbc a221 b7be
000000b0: c3ae c8be 5654 833f d966 e6be 2862 82bf
-1.4299612 0.68926 -0.09834828 1.1967068 0.6026706 -1.5628161 -0.15349354 0.1675036
1.2302424 1.001926 -0.13151601 -0.29928896 -0.012172328 -0.64246136 1.2648587 0.17157352
-1.1072325 -0.027647443 0.03038234 -0.69145715 1.0359554 0.23686212 -1.2957515 0.0038037612
-0.4879902 -0.9510868 0.3286119 0.3896385 -0.75892425 0.18613821 -0.8655364 -0.6129729
-0.1061491 0.22667831 -1.1802249 -1.0988834 -0.45032936 -0.8597406 -0.5724278 0.9937778
-1.217741 -0.16754225 -0.017216556 -0.35767847 -0.39195833 1.0260112 -0.45000342 -1.0186205

p f4 [6]
00000000: 58ce 6abe 5700 783e e634 e93e d4eb e23e
00000010: 0d46 023f 78d7 84be
-0.22930276 0.2421888 0.4554817 0.44320548 0.5088814 -0.2594564

0 f4 [37, 16]
00000000: 5299 013f 700c 9abc 6b32 493d 5de1 94be
00000010: 578c 1dbf cba8 91be 4344 3e3e 085f 07bf
00000020: 0456 b8bc 4aa2 2dbf a856 1b3e 127d 1abf
00000030: d09c 273d 26aa 073e fbd1 163e ef08 143f
00000040: 68c1 d7bb 133c c8bc e7fd f8bc 791e 1c3d
00000050: 4685 873c 28c3 4bbc e805 023c e24c ff3c
00000060: 1842 3a3c 04c6 623c 004b c6b9 30df 3dbd
00000070: f425 8abc 4d38 26bd 6add 2bbd 1a96 97bc
00000080: b1b4 01bf dd1f 22bf 9a65 05bf c5f5 823d
00000090: 45f5 44bf 3e45 13bf 66c7 d9be d510 36bf
000000a0: 550f 8cbf f995 82bd 87cd b53e 64ec 3fbe
000000b0: dcc2 4bbf e801 443e 37e4 f43e 8ee4 a23e
000000c0: 9766 043f fa8b 423f e1b8 693f 6a30 6b3f
000000d0: ac97 10bf f66a 603f fb57 4bbf 7262 993e
000000e0: 16ef 2dbc 2cfe d0be 2a32 633f 88d8 9bbe
000000f0: c991 4a3f 4539 0ebf 062a 143f 0e4e 423f
00000100: 6855 f13b e68c 81bc 4e95 c03c 42fa a63c
00000110: 0cfb 93bc 4099 bf3a cd15 17bd da1f 953c
00000120: 6d00 bebc fd4f 093d 2390 353d 0d12 bcbc
00000130: 7390 cdbc 00f8 153b 90f1 12bd f318 c8bc
00000140: 3fc3 813e 3650 39be 7b7a ed3e 9b02 843e
00000150: 2c86 353f 6ecf 1cbe 1bc0 cf3e 43b6 9ebe
00000160: ff33 e33c 2e79 e7be 75b6 d4be 1837 2e3f
00000170: 37b1 b6be eeed 6d3f 0d08 abbd 88fe 34bf
00000180: 3b24 4a3f 04f0 543f 9d14 dd3e 7408 013f
00000190: 1cb7 13bd 0367 b93e 5a85 493e e842 63be
000001a0: a97c 1c3f 81dd eebd 4cc2 153f 2b6a c33e
000001b0: 9326 4c3f 1f05 983f 7c87 e73c 03b0 353f
000001c0: aeb5 54bc 4db2 87be d773 5c3f 2369 453d
000001d0: 6c08 5ebd 54dd c03e b684 053f bb5a 4f3e
000001e0: 1ad0 2abd fe14 aebe 2697 183f 545a a3be
000001f0: 0927 713f de28 fe3e e52f ff3e b827 c6be
00000200: f55d 2d3f 6ca3 373f 9bcb f3be fba6 b5be
00000210: 0087 153f 47d9 d0be 19a9 db3e febe 223f
00000220: 3735 223d 4090 ccbe 9c0b 2fbe bf83 323e
00000230: 3ad0 683e bf11 09bf a0d0 55be e0e9 2f3f
00000240: 367b 18be 81d6 37bc 4307 1fbe 187f 1ebe
00000250: 561a 193e d801 f03e d2f7 82bf 47e5 d73d
00000260: 8f7a 393f 9696 f13e 05ae 5c3f f692 1a3f
00000270: 48fe 823f 98fb 933f 982a 143f 40f0 973c
00000280: 0963 76be 61c0 40bf db53 c9be ea30 fa3e
00000290: 0e35 f2be 3dc0 453f 72f6 96be 4f4e 1cbf
000002a0: 02bb b7be 05ca 8bbf ba21 91be fcdb dabe
000002b0: 91e5 98be 5240 563f 7001 d4be 9005 0fbf
000002c0: 6638 1f3f 5cde 103f f0b5 4d3f d3a7 513e
000002d0: 1992 adbd 95ea e93e 4bf1 2f3f 70e7 433e
000002e0: 6e3f 533f 8b04 3c3e a39f 433e f14b cabe
000002f0: d2f0 4d3e 1ef9 ce3e 5dcb ffbd adf4 8a3e
00000300: c793 473f 8f93 b4bd e4b2 423c ae68 b23e
00000310: 672a 243f 62d3 173e cf96 f93e d294 033f
00000320: 587f 0b3f d96e 353f 4409 2dbe da21 093f
00000330: a044 45be aa4f 2bbe 6b86 c53d a839 483f
00000340: e794 9f3e 5b8c f33c db63 cfbe eb32 8e3e
00000350: 3ac2 2e3f 62b5 e53e 9d71 51bd 17cb e53e
00000360: abcb 83be df4b 68bf c96c e6be 6b02 ad3e
00000370: c4b1 0bbf ac95 5f3f 739e dcbe 5e11 de3e
00000380: aef3 71bf 1247 333f a357 26bf 0e9b cc3e
00000390: 84e1 c93d 0d2d 0d3f 9791 c6be 0b1b 6dbf
000003a0: 71b5 98be dabc 88bf 9d59 f1be 036c 2c3f
000003b0: 59bc b9be f3e4 2a3e 63e1 1cbf 854b 07bf
000003c0: 87e7 c93d 39eb 7fbe 0673 94be 0fe9 113e
000003d0: d668 61bf 6818 183e 80e1 1fbf acc8 1fbf
000003e0: 70a2 68bd 565c 29bf 88c8 1bbe 8162 013e
000003f0: fab1 b33e 626c 1d3f e3dd 21bf 7152 2a3f
0.50624573 -0.018804759 0.049120348 -0.2907819 -0.61542267 -0.2844909 0.18580727 -0.5287938
-0.022501953 -0.6782576 0.15169775 -0.6034709 0.040921032 0.132485 0.14728539 0.5782613
-0.006584335 -0.024442708 -0.030394508 0.038115 0.016543042 -0.012436666 0.0079359785 0.03116459
0.011368297 0.013841156 -0.00037821382 -0.046355426 -0.0168638 -0.040581036 -0.041959204 -0.018504191
-0.5066634 -0.6332987 -0.52108157 0.06394533 -0.7693675 -0.5752753 -0.4253494 -0.71119434
-1.0942179 -0.06376261 0.35508367 -0.1874252 -0.79594207 0.19141352 0.47830364 0.31814998
0.5171904 0.7599484 0.9129773 0.9187075 -0.5648143 0.8766321 -0.7943112 0.2995792
-0.010616085 -0.40818918 0.8874842 -0.30438638 0.791287 -0.55556136 0.5787662 0.7590035
0.0073649175 -0.015814256 0.023508694 0.020383004 -0.018064044 0.0014617816 -0.036886025 0.018203665
-0.023193562 0.03352355 0.044326913 -0.022957826 -0.025093293 0.0022883415 -0.035874903 -0.02442596
0.25344273 -0.18097004 0.46382508 0.25783238 0.70907855 -0.15313503 0.40576252 -0.3099843
0.027734755 -0.4520964 -0.41545454 0.68052816 -0.3568208 0.92941177 -0.08351145 -0.70700884
0.78961533 0.83178735 0.4317979 0.50403523 -0.0360633 0.36211404 0.19679776 -0.22193491
0.61127716 -0.11663342 0.584996 0.38166937 0.7974636 1.1876563 0.028262846 0.709717
-0.012982769 -0.2650322 0.8611426 0.04819597 -0.05420725 0.3766886 0.52155626 0.20249455
-0.041702367 -0.3400039 0.59605634 -0.31904852 0.9420019 0.49640554 0.49841228 -0.38702178
0.6772149 0.71733737 -0.47616276 -0.35478958 0.5840912 -0.4079077 0.4290245 0.6357268
0.03960153 -0.39953804 -0.17094272 0.1743307 0.22735682 -0.53542703 -0.20880365 0.6871624
-0.14890751 -0.011220575 -0.15530114 -0.1547817 0.14951453 0.46876407 -1.0231879 0.10541778
0.72452635 0.471852 0.8620303 0.60380495 1.023385 1.1561155 0.5787749 0.018547177
-0.24061216 -0.75293547 -0.3932179 0.48865443 -0.47306103 0.7724646 -0.29484898 -0.6105699
-0.35884863 -1.0921026 -0.28346044 -0.4274596 -0.29862645 0.83691895 -0.41407347 -0.5586786
0.6219543 0.56589293 0.8035574 0.20474176 -0.084751315 0.45686784 0.6872756 0.19131255
0.8251866 0.18361108 0.19103865 -0.39511064 0.20111397 0.40424436 -0.1248996 0.27139798
0.77959865 -0.08817207 0.011883471 0.3484549 0.641272 0.1482673 0.4874787 0.51398957
0.54491186 0.70872265 -0.16898066 0.5356728 -0.1926446 -0.16729608 0.09644779 0.78212976
0.3116829 0.029730013 -0.4050587 0.27773222 0.68265116 0.44864947 -0.05113374 0.44881508
-0.25741324 -0.9074077 -0.4500487 0.33790907 -0.54568124 0.87337756 -0.43089637 0.43372625
-0.9451245 0.7003032 -0.64977473 0.39962047 0.09857467 0.5514687 -0.3878295 -0.9261939
-0.2982593 -1.0682633 -0.47138682 0.6735231 -0.3627651 0.166889 -0.6128141 -0.5284961
0.098586135 -0.24992074 -0.28994006 0.14249061 -0.8805059 0.1485306 -0.6245346 -0.62415576
-0.056795537 -0.6615652 -0.15213215 0.12635233 0.35096723 0.61493504 -0.632292 0.66532046
