Vogen.Synth/models/g2p/yue.v20210605-000325.g2p.onnx (onnx, 12617 bytes, 11 tensors)

7 f4 [16, 99]
00000000: b6cc 4c3e 40f1 9ebe 06ae aebe 22f9 81be
00000010: c6ba 71bf ffc9 6e3f 5d62 2abf 292f 753e
00000020: df58 9bbe c327 7bbe 46a4 aa3e 10f4 d3bc
00000030: 0c3e 15bd a4bf 50be 8983 8d3e 8d94 b7be
00000040: f0f1 84bd 3227 273f 8f99 663f 8f60 b83c
00000050: d438 e7bd 84ac 92be 5f7d 833e 7ea3 90be
00000060: c2b2 8ebf cd26 083e d668 c5be 4013 09bf
00000070: 5ef8 fdbe 47e0 bc3d 3076 8a3c e239 a8be
00000080: 9875 a6be 630f 92bf b29f 5b3d 5e95 283f
00000090: b4c9 93be 6979 59bf 3393 a9be 0363 97be
000000a0: 3080 06bf dd9b 2bbe bbb3 96bf a802 ce3c
000000b0: 1462 bcbe 3391 acbe b03e e3bd ce45 943f
000000c0: 2063 31be 1bf1 98bf f9b7 833e fcfa a4bd
000000d0: f5a4 b63d ca10 7cbf 4850 c0be 3c2d cebd
000000e0: 099a a7be 0316 a53e 3532 5ebf 978c 773f
000000f0: fefc 56bf cdef 76bf d1ac 25bf c89f b6bf
00000100: e38c 5c3e 47b5 75bc e84c e3bd 3613 d13e
00000110: 1b5d 553f 1d6a 423d 7388 bdbe 4fa0 cebb
00000120: cb82 303d 42df f13c 739d 16be 1a6f 87be
00000130: bb3b 85be d5f7 a2bd 65b4 78be be98 94be
00000140: 5c98 e3bd 12eb 32be 4a3a 73be acd6 bbbe
00000150: c44b 66be 4238 c8be c946 3abe e1d5 49be
00000160: 707e 773b 21b3 f2bc 01a1 89be 8e1b 70be
00000170: e48c a5bc 4187 72bd 85c4 5ebd 31c3 b6bd
00000180: 18eb bfbe 0b48 85be 21f6 24be af10 71be
00000190: c5a2 29be df95 44bd d22a 353d 562b a13f
000001a0: 5757 883f 3293 56bf 7f12 babf 019f 80bc
000001b0: d298 54be 77ab 08c0 448b 5ebe de80 09be
000001c0: 455d 4f3e ec4b adbf 2dc3 1a3d 7f53 d6bc
000001d0: c40e b1bf 01fb dcbf 6662 453e e9d3 273e
000001e0: 74a3 23be 8b92 f03f dcb9 c2bd 5ca2 3ebf
000001f0: 7e12 083e 7364 153d f60d 3c3e b9fe 8bbf
00000200: ba6f cdbe 6aef 423e 1d0b a33d e71c e4bd
00000210: 640a cb3f f099 11c0 40df 96bf c6c3 03be
00000220: d063 71bf 9de9 55be 01ea ecbd cec3 953f
00000230: ac66 ecbd 857c 59bf 44be 5fbe 4477 10be
00000240: d6b8 bcbc 7c71 5abd 1f43 00c0 ff57 9cbc
00000250: 6e41 ad3e 5af9 2e3e 79ac 8fbf f827 a83f
00000260: 49c6 f2bf 2eb2 273c fe67 84bf f529 553e
00000270: 7b61 1240 c028 923f 7cf3 33bd 58d0 8d3f
00000280: 21b4 953f 3d6b 11c0 a1c8 82bf 8464 513e
00000290: 9b8d fcbd ba9d 1140 0a2d 64bf 0d1d 103d
000002a0: ed6d b6bf db29 23c0 a544 493d a673 8fbd
000002b0: 11e2 8b3d 7af8 e9bc 1eff b73d 39e0 73bd
000002c0: 3ef8 af3d c8d0 4e3d 782f ff3d ec5b 253c
000002d0: d6c5 d63d b7a1 213e bf82 92bd 1a18 11be
000002e0: b93c f43d bfd2 213d c03d 313b 08e7 ffbd
000002f0: e52c 4c3d 800c 5a3e 6ae4 413d 1b3e 25be
00000300: aed5 b7bd 930a 63be 7f83 25be 7352 10bc
00000310: 4d8e d93c f65a 5f3d 2125 07bd 5a30 cebd
00000320: 1a59 acbe 56c2 87be 93dc 6f3e 0689 8fbf
00000330: 4593 103f fa6b 023d 4491 23be 2b35 b9be
00000340: 0178 6ebe fbb2 d1bd b3c4 86be e480 9dbe
00000350: 0612 be3d 4760 50be 1f07 1abe e141 9ebf
00000360: f3b2 a3bf f9ce e73d ef66 d2be 4154 a03e
00000370: a136 463e 5fbe a5be 1d90 92be 1332 1f3f
00000380: d8e2 c0be ce71 3b3f b5db c7be 7175 223f
00000390: 0f22 89b9 222e 1dbe ed57 94be 6a20 5f3d
000003a0: 3db4 c83e 29ae 96bf 57a4 33be 7cc5 75be
000003b0: 8d46 89be a709 51be eafe 483f c66f 66be
000003c0: 0ebb 853e 57a0 d73c 3420 b7be 2a89 b7be
000003d0: 8836 2cbd 8868 cdbe d968 f3bd 3c99 ec3e
000003e0: b5d4 dbbe b5a0 8ebf ebba 6abe 63ff 4b3d
000003f0: 1dbb 8fbc e23e 2b3c d4c3 283d a604 07bd
0.19999966 -0.31043434 -0.34117144 -0.25385386 -0.9442562 0.9327697 -0.6655634 0.23943771
-0.3034124 -0.24526887 0.33328456 -0.025873214 -0.036436126 -0.20385605 0.27639416 -0.35855523
-0.064914584 0.6529418 0.9007806 0.02250698 -0.11290136 -0.28647244 0.25681588 -0.28249735
-1.1148303 0.13296051 -0.38556546 -0.53545 -0.49603552 0.09222465 0.01690206 -0.3285666
-0.32511592 -1.1410946 0.053619094 0.65852916 -0.28864825 -0.8495088 -0.33120117 -0.29567727
-0.5253935 -0.16758676 -1.1773599 0.025147751 -0.36793578 -0.33704528 -0.11095941 1.1583803
-0.1732297 -1.194858 0.25726297 -0.08055684 0.08918182 -0.9846312 -0.3756125 -0.100672215
-0.32734707 0.32243356 -0.8679536 0.966989 -0.83979785 -0.96459657 -0.6471682 -1.4267511
0.21538119 -0.014996833 -0.11098653 0.4083497 0.8334519 0.04746448 -0.37018165 -0.0063057314
0.043093484 0.029525403 -0.147085 -0.2645195 -0.26022133 -0.079574265 -0.24287565 -0.29022783
-0.111130446 -0.17472485 -0.23752704 -0.3668722 -0.2248984 -0.3910542 -0.18191065 -0.19710495
0.0037764572 -0.029626431 -0.2688065 -0.23448011 -0.020208783 -0.05921102 -0.054386634 -0.089239486
-0.3748405 -0.26031527 -0.16109516 -0.2354152 -0.16565998 -0.04799449 0.04423029 1.259135
1.0651654 -0.8381835 -1.4536895 -0.015700819 -0.20761421 -2.1354654 -0.21732813 -0.13428065
0.20250423 -1.3538795 0.03778379 -0.02616286 -1.3832631 -1.72641 0.19275817 0.16389431
-0.15980321 1.8794721 -0.09508106 -0.7446649 0.13288304 0.03647275 0.183647 -1.093711
-0.40124303 0.19036642 0.07961104 -0.11138325 1.5862546 -2.2750206 -1.178688 -0.1286765
-0.94292927 -0.20889898 -0.1156807 1.170038 -0.115430206 -0.84955627 -0.21849924 -0.14107996
-0.023037355 -0.053330883 -2.0040967 -0.019084929 0.3383898 0.17087308 -1.122451 1.3137197
-1.8966762 0.010235352 -1.0344236 0.20816787 2.2871997 1.1418686 -0.043933377 1.1079206
1.1695596 -2.2721703 -1.0217477 0.204485 -0.123316966 2.2752519 -0.89131224 0.035183955
-1.4252297 -2.5494297 0.04913773 -0.0700448 0.06830228 -0.028560866 0.089842066 -0.059540007
0.0859227 0.050492078 0.12460226 0.010092717 0.10486953 0.15784346 -0.07153844 -0.1416935
0.119256444 0.039507624 0.0027044863 -0.124952376 0.049847502 0.21293831 0.047336973 -0.16136973
-0.08976303 -0.22172002 -0.16163443 -0.00880872 0.026557112 0.054530106 -0.032994393 -0.10067816
-0.3366173 -0.26515454 0.23423986 -1.1213691 0.56474715 0.031841256 -0.15973383 -0.36173376
-0.23287965 -0.10239216 -0.26321945 -0.30762398 0.092807814 -0.20349227 -0.15041779 -1.2363855
-1.2788986 0.11318774 -0.41094157 0.3131428 0.19356777 -0.32371804 -0.28625575 0.6218578
-0.37673068 0.7322053 -0.3903481 0.6346045 -0.00026156052 -0.1534963 -0.28973332 0.05447427
0.3920001 -1.17719 -0.1754316 -0.24001116 -0.26811638 -0.20413838 0.7851397 -0.22503576
0.26119274 0.026321573 -0.35766757 -0.35846835 -0.042044193 -0.40118814 -0.118852325 0.4621066
-0.4293572 -1.1142794 -0.22922866 0.049804103 -0.017545277 0.010452004 0.04120238 -0.032963417

r f4 [99]
00000000: 1e57 ba3d 561b a1bd 756f a6bd 1e0d a0bd
00000010: 6ad3 99bd ef9b a83c 3af1 b13e e92c 80bd
00000020: 69e2 9cbd 1801 92bd f844 c33d 39c4 9abd
00000030: 7db9 a2bd aedb a0bd c0e1 d43c 0140 9abd
00000040: c77b aebd b1be df3d 626e 96bd 5d99 f33e
00000050: 463a 0ebe 7af7 953e 0450 5a3e 095e a0bd
00000060: f2f2 d33e d1a7 033e 5320 b9bd 4af7 033d
00000070: f7ef 753e 3eb1 0b3e 0756 9cbd a49c a0bd
00000080: 7d7f a1bd 9940 863d f0ef e5bd c206 e23d
00000090: 4e9d 8fbd 2536 933e ad73 9dbd 5790 babd
000000a0: 4edb 833e c8bf a0bd 1103 6d3e 26f9 bcbd
000000b0: 24ef bbbd ec55 92bd 51e3 8abd d53b 9fbd
000000c0: 39eb a9bd 75fb a03e e5c5 903d 1012 163d
000000d0: ffe2 f13d 0dde 66bd 55c7 b5bd 1835 323e
000000e0: 584f c1bd cab4 f53d afee 2d3e d720 a73e
000000f0: 22ce 60be 02ae 0fbe a24f 9abd 90de 953e
00000100: 5da6 583e 7398 afbd 5fa3 6e3e 1202 82be
00000110: 3ea9 df3d 4077 a6be 9b90 fdbd 0575 aebd
00000120: 00f4 b3bd a0c1 cdbd eeb4 a6bd 4940 a5bd
00000130: 6068 93bd d153 afbd 61ad 96bd 751c abbd
00000140: 8415 a3bd 7830 a3bd 605b a1bd ce46 9fbd
00000150: 125e abbd cf3e aebd 8e28 b8bd 320e a8bd
00000160: 42b6 94bd afc6 b3bd 7bda 9abd f61f a5bd
00000170: 369f a8bd 5afc b1bd db28 a7bd c457 bdbd
00000180: 5899 bcbd f858 b3bd 7f77 9bbd
0.090986475 -0.07866542 -0.081267275 -0.07815002 -0.07511027 0.020582167 0.34754354 -0.06258566
-0.07660372 -0.07129115 0.09534639 -0.07556958 -0.07945535 -0.078544006 0.025986552 -0.07531739
-0.085197024 0.109250434 -0.073452726 0.47577944 -0.13889417 0.29290372 0.21319586 -0.07830436
0.4139629 0.12856986 -0.090393685 0.032218255 0.2401732 0.13641831 -0.07633596 -0.07842377
-0.078856446 0.0655529 -0.11227405 0.11036445 -0.07012425 0.28752246 -0.07688079 -0.09109562
0.25753254 -0.07849079 0.23145701 -0.09227209 -0.09176472 -0.071452945 -0.067816384 -0.07775084
-0.08296818 0.31441846 0.070689954 0.03663832 0.11810874 -0.056364108 -0.0887591 0.17403066
-0.09438962 0.119973734 0.16985582 0.32642242 -0.21953633 -0.14031222 -0.0753472 0.29271364
0.21157213 -0.08573999 0.23304509 -0.25392205 0.10920952 -0.32512856 -0.12381097 -0.085184135
-0.08786774 -0.10046697 -0.08139978 -0.08068902 -0.07197642 -0.085609086 -0.07357288 -0.08355037
-0.07963088 -0.07968229 -0.078787565 -0.07777177 -0.08367552 -0.085080735 -0.0899211 -0.082058325
-0.072613254 -0.0877813 -0.07561203 -0.08062737 -0.08233492 -0.0869071 -0.081620894 -0.092452556
-0.092089355 -0.08757204 -0.075911514

sf f4 [16, 16]
00000000: 3bb8 35bf 6774 203f 5b85 3b3f 70ca 90be
00000010: 0023 85bd fa9b 6dbe 9da6 2f3f bf18 603f
00000020: a4be 143f 4508 86be 192d 153c d5d3 633f
00000030: 44ba 573f 239b d5be 8b02 c9be 7dff ea3e
00000040: df04 023f e019 003f 1b88 ed3e 10ab a8be
00000050: eb71 043f 5341 09be 475d 3c3f 5d47 dabd
00000060: 9361 3d3e b629 393e bcc0 92bf 8973 743f
00000070: 6449 7b3f 612e dfbe 5579 1b3f 3791 0d3f
00000080: e643 eebd 62c4 ab3d a642 67bf c168 853e
00000090: c742 42be 1ed4 143f 3e2a 983e ca3b 86bc
000000a0: 0214 313f f01c fdbe 7347 b93f 4583 8d3f
000000b0: 3d54 26bf b181 20bf dbc7 3a3f cfc0 ab3e
000000c0: d773 42bf 0b6b f4be 9d38 1f3f fbda 083f
000000d0: b550 76bf 0a1f 723f e4e4 29bf b11e 043f
000000e0: 4b1a 643f bae6 1a3f 7854 a03e 9ede 27bc
000000f0: 232a 9c3f 7c1f 80bf 9ec3 e9bc 55ac 2bbe
00000100: 9301 e63e 273e 3bbf 9a62 043f 3d76 e13e
00000110: aa15 27be ca4c 8c3e 68b3 543f 4de2 273e
00000120: 8a9f 45bf 69d4 8c3e d0f8 dc3e f1b7 913e
00000130: 6b80 3bbe 7f58 623f 0287 613f 0de5 ac3d
00000140: 81fa 45be 68fe 833f 5dce 943f c58d 083f
00000150: 9206 df3e 5c11 abbe 9171 c13e 6362 5bbe
00000160: c0f8 0fbf 438f 483f 9c2b 86bd d357 1ebf
00000170: 0586 9ebe 30ae 5e3f 8b6e ecbd a822 973e
00000180: c6a2 7c3f 86b2 4ebf a38f c3be c5d6 0f3f
00000190: 7d2a a83e cae3 633e a199 1f3f f535 87bc
000001a0: 1414 2d3f 6c49 203e 1931 f03d 01f3 593c
000001b0: b05e 7ebd b2ea 873e 39f1 583f 63d0 0f3e
000001c0: d02f 803f 406d 4e3e daa4 cebf 3a82 a53f
000001d0: a2dc 183f ec00 6ebf 3695 d43c 540e f93e
000001e0: db02 a33f d942 893f ee66 9abf dcdc 9d3f
000001f0: 48ce 6bbf bbc9 63bd b9bf 4c3e fe45 203f
00000200: f760 4b3e c4fb 64bf 5869 033f 4bee cf3e
00000210: f12f 053f e533 603d 6b69 463f 9ecb 9cbe
00000220: 0798 94bf dc0b 893e 31f1 eb3e 5509 31be
00000230: 4ca2 3e3e ead3 a33e 3521 a33e 4967 123f
00000240: 93ab 4bbf 013b 1abf f998 9b3e c077 d53e
00000250: 5e52 243e 343d e23e d2ac 5fbe 5863 e73d
00000260: 5247 2dbd 825f d5be 57cd 6d3f e499 56bf
00000270: 7c92 4e3e 786e 13bf 4a69 80be b7b0 193f
00000280: f872 373f d8ff 20bf 0bc9 143f 6702 543f
00000290: 07ab 343f 49fc 6b3f 6c97 dd3e 36a8 ca3e
000002a0: 49de b93e 57b8 81bf 2ea5 fd3e d4fe 1fbf
000002b0: 3d54 0a3d 83b5 01bf a726 ebbe 2855 873e
000002c0: 05d4 7c3f 9159 293f 1440 68bf 15be 123f
000002d0: 26a9 243e 01d7 32be 205f 4d3f 231e 31bf
000002e0: 4120 e23e 3eb3 813e 5196 38bf 487e 803f
000002f0: f62e 26bd 8a26 163f a25b d03e 38b8 bd3d
00000300: f0a5 993f 9807 003e 815a 0a3f 7afb 963f
00000310: c7d0 edbe 2412 aa3f a9e7 e33d 8045 883f
00000320: 421b 2ebe 1f1a 153e 60a9 8d3f b286 95bf
00000330: e321 903e ba8a c8bf 7567 e7bd d429 1ebf
00000340: 7634 143f 4558 91be 223e 883f 24ef adbf
00000350: a229 383f 7414 45bf 910e 803e 52c7 ab3f
00000360: 4587 363f 85ee 1bbf 1999 913f f586 ac3f
00000370: 17cb 0e3f 45e4 9cbd 09c5 0bbe b6c2 00bf
00000380: 6bf1 94bd 5699 363f d5c8 9d3f f404 773f
00000390: ca12 243f 76f4 103f 7802 a9be 4d33 b93d
000003a0: 9427 463f 3766 3ebf 4fe8 a6be f031 7b3f
000003b0: c3a4 5dbf 43e2 65bf 5e4a 953a 23b2 3a3e
000003c0: 6a9e b43d d2b4 69bf c846 b83d c6f4 683f
000003d0: 78e9 ab3e b718 03bf 381d dcbe 707c 87be
000003e0: d214 0e3f 13d4 6a3f 451a 623f 5e4a 93be
000003f0: ff57 8abe e488 663f 1342 4c3e 6164 da3e
-0.7098424 0.62677616 0.7325036 -0.28279448 -0.06500816 -0.23204032 0.68613607 0.8753776
0.58103395 -0.26178184 0.00910499 0.88995105 0.84268594 -0.41719922 -0.39259753 0.45898047
0.5078868 0.5003948 0.46392903 -0.3294301 0.51736325 -0.13403825 0.7357983 -0.10658143
0.18494253 0.18082318 -1.1465068 0.9548879 0.9815886 -0.43590072 0.60732013 0.55299705
-0.11634044 0.083870664 -0.9033607 0.26056483 -0.18970786 0.58136165 0.29719728 -0.016385932
0.69171154 -0.4943614 1.447493 1.1055685 -0.6497229 -0.62697893 0.72961205 0.3354554
-0.7595801 -0.47737917 0.6219576 0.5345914 -0.962169 0.9457861 -0.66364884 0.5160933
0.8910262 0.6050831 0.31314445 -0.010245947 1.2200359 -1.0009608 -0.02853566 -0.16764958
0.44923076 -0.7314171 0.51712954 0.4403552 -0.16316858 0.27402335 0.8308625 0.1639492
-0.7719656 0.27505806 0.4315858 0.2846065 -0.18310706 0.88416284 0.8809663 0.084421255
-0.19333841 1.0312014 1.1625477 0.53341323 0.435597 -0.33411682 0.37781957 -0.2142425
-0.5623894 0.783436 -0.065512866 -0.6185276 -0.30961624 0.8698454 -0.11544522 0.29518628
0.9868587 -0.80741155 -0.38195524 0.5618709 0.32844916 0.22254863 0.62343794 -0.01650522
0.6760876 0.15653008 0.11728115 0.013302566 -0.06210202 0.26546246 0.84743077 0.14044337
1.0014591 0.20158863 -1.6144059 1.2930367 0.5971166 -0.92970157 0.025950056 0.48643744
1.2735246 1.0723525 -1.2062662 1.2333026 -0.92111635 -0.055612307 0.19995011 0.626068
0.19861208 -0.89446664 0.51332617 0.4061149 0.5202628 0.05473699 0.77504605 -0.30624098
-1.1608895 0.2676686 0.46082452 -0.17288716 0.18616599 0.31997615 0.31861272 0.5718885
-0.79558676 -0.6024628 0.30390146 0.41692924 0.16047046 0.4418732 -0.2184327 0.11298245
-0.042304344 -0.4167443 0.9289145 -0.8382857 0.20173067 -0.57590437 -0.2508033 0.6003527
0.71659803 -0.62890387 0.5811927 0.82816166 0.70573467 0.9218183 0.43279588 0.3958146
0.36302403 -1.0134381 0.49540085 -0.6249821 0.033771742 -0.5066759 -0.45927927 0.26432157
0.98761016 0.6615229 -0.90722775 0.5732129 0.1608015 -0.1746483 0.80223274 -0.6918661
0.44165233 0.25332063 -0.72104365 1.0038538 -0.04057213 0.58652556 0.4069491 0.092636526
1.2003765 0.12502897 0.5404435 1.1795495 -0.46448347 1.3286786 0.1112817 1.064621
-0.17002586 0.14560746 1.1067314 -1.1681731 0.28150854 -1.5667336 -0.1129903 -0.61782575
0.5789255 -0.28387657 1.0643961 -1.3588605 0.71938527 -0.76984334 0.25011113 1.3420203
0.71300155 -0.60910827 1.1374847 1.3478686 0.5577864 -0.076607265 -0.13649382 -0.50297105
-0.07272609 0.7132772 1.2326914 0.9649193 0.6409117 0.5662302 -0.33009696 0.09042988
0.7740414 -0.7437472 -0.32599112 0.98123074 -0.8657953 -0.89798373 0.0011389961 0.18232016
0.088192776 -0.91291535 0.089978755 0.90998495 0.3357656 -0.51209587 -0.42991042 -0.26462126
0.5550052 0.9172985 0.88321334 -0.28767675 -0.2702026 0.9005263 0.1994708 0.42654708

rk f4 [16]
00000000: eeb5 a23e 5376 173b 25d6 a63e 4de8 b1bd
00000010: 08df 8b3d 4a21 5a3e 3b5d 9f3c 98ff 49bb
00000020: fc41 6ebd afb3 563e a203 8d3e 902a 443e
00000030: 236d 4a3e 7fc3 433e 3d0f ec3d b1db 7a3d
0.31779426 0.0023111298 0.32585254 -0.08686886 0.06829649 0.21301761 0.019453635 -0.0030822512
-0.058168396 0.20966981 0.27541834 0.19156861 0.19768195 0.19117545 0.11526344 0.06124467

6 f4 [6, 4]
00000000: 2ede b53f 9646 07bf d312 4f3e 07e6 253e
00000010: fcb6 bd3f 95b2 0b3f ffc6 823f 657e eb3d
00000020: 2d01 e23e 4782 213f 81e9 803f fc40 a63f
00000030: ee0d c1bf 9b50 963f a9d4 b03f 9391 ca3e
00000040: 6bf8 5d3f 883e 7e3f 1224 7bbf ca82 693f
00000050: ac17 a83e 00d5 4abe 4635 b9bf 4491 e73f
1.4208429 -0.5284208 0.20222025 0.1620103 1.4821467 0.5456937 1.0216979 0.11498717
0.44141522 0.6308941 1.007126 1.2988582 -1.5082376 1.1743349 1.3814899 0.3956419
0.8670718 0.99314165 -0.98101914 0.91215193 0.3283056 -0.19807816 -1.4469383 1.8091207

tc f4 [4]
00000000: 78f0 c63e 8f1c 253e b4c5 173e 3f26 fa3d
0.38855338 0.16124175 0.14821512 0.12214326

s f4 [16, 16]
00000000: a35c 9d3e 8ca5 0e3f 7045 c7bb 31a7 3e3f
00000010: 130e 2d3f 3008 843f 79aa b4bd 0aba 533f
00000020: f734 263f 29c3 03be 1ecf 3abf 575e 9f3f
00000030: 2829 7bbf 79e8 963e 96d4 25be 88c9 1c3f
00000040: b210 523f 3298 953f a1ff f3be 823f bf3e
00000050: 0353 7cbf 2b48 9c3f ea7f 08be 1037 863f
00000060: 2c7b 1bbf b1a8 b3bd b113 f43e cfea 96bf
00000070: d579 8dbf 8bfd 053f 15bd 333f 0fdd b53e
00000080: 9fda 313f 63f0 7d3e 356f 8bbe 8c9f 583f
00000090: 9afa b03d e46e 59be f2c0 133e f79f adbf
000000a0: 0101 9a3d f68d 8e3f a714 593f 5f34 70be
000000b0: f1e8 54be 0cdd 5d3f d9ef 1abf f3bf 90be
000000c0: 0307 073f ec33 5c3f 70f6 913f 8d38 3cbe
000000d0: acef 983e f507 c3be 70a9 543f 204c 903f
000000e0: 7d04 cf3e 6cb4 d7be 3a40 013e 4127 833f
000000f0: fb8e b1be ad0e 493f 7fcf 873f 217b 9e3c
00000100: 7a0d 1ebf 9c4d bc3e f77e a03f f52b a53d
00000110: baa6 293f 0528 b23e 5c8a 483f 4a21 a53e
00000120: 2731 0a3d 954c 523e f2ee 8e3d 823c 193f
00000130: fa3f ab3f 23ac 173f b30e a83e 56f1 333f
00000140: 8e86 9a3f 709d 22be d9b1 3ebe 1db3 803d
00000150: 7de8 c03f 0be8 8b3f dc51 79bf b925 35bf
00000160: 6f1e 493e d933 9fbe e499 86bf 59b8 85bf
00000170: 76df 3d3f c976 e43f 2afb e0be d01b 833f
00000180: e07a 893f ac18 513f 69c4 28be ce82 353f
00000190: 9acb 423f 0ca9 633f 1bea 833f eab6 383e
000001a0: c7c1 3c3f c14d ed3e 426d 893e 6957 a33f
000001b0: dff9 b13f 6cf0 44bf 686f febb 5e38 76bd
000001c0: 71ba 943e d14d 193e 33ed 053e bd27 93bf
000001d0: f9cf 3a3f 813e 8c3f 3fdd b23b 84b3 da3d
000001e0: 1cf8 493f 97c3 a53f 2420 313f ec83 de3d
000001f0: 2a30 f83e 0f0c 933f a0b4 e63d db86 473f
00000200: c812 f9be 3c4d 08be 2c20 07bf a641 363f
00000210: 71f3 33bf 99a3 a63f 83aa 95be fd84 a2be
00000220: 1417 ecbe 5c86 e13e f4ab 5e3f dccb 0abf
00000230: 7422 143f 6337 06bf 6858 623f b246 933e
00000240: e497 5bbf 8eb4 b9bd 2699 6cbe b994 6c3f
00000250: b27d 1f3f 45ea 753f a383 0c3f 18a5 363f
00000260: 1380 fc3e e769 8c3f f4e1 39be 828c 4e3f
00000270: 751e 043f 976f 19bf 2422 c13e 59d6 af3f
00000280: 1b41 dd3d 8f13 1d3e 83f4 8d3f 37db 76be
00000290: bc35 12be 58b5 fbbe 0af4 79bd e45f 8d3f
000002a0: 7678 a6be 9f7d 6b3f ea34 4a3f 55bf 8a3e
000002b0: 3913 6d3f 5f30 f6be a329 863f bc22 703e
000002c0: 11c1 933f 298a 5b3f 41f5 4abe 6994 433f
000002d0: 7788 723d 6cc0 42bf 86da 51bd f3e1 2bbf
000002e0: 6c74 11bf 1cb3 2ebe 9500 063e 8798 043f
000002f0: f778 5d3f d1de b23f 4b1d e7bd def9 b8bf
00000300: eca8 133f 4689 a9be 7c02 443f 79b2 1f3f
00000310: 1be1 5f3f ae67 8b3f 5303 b43e 73f7 e9be
00000320: 11d3 0d3f e158 6a3f ba9a 5a3e 8925 343e
00000330: a797 be3e 14d8 7dbf bc43 403f 228e 643e
00000340: 1183 523f 7e6a dd3e cebd a13f 3fb4 8c3f
00000350: b79e d3be 2db0 98bf e04d 7bbe 4727 9d3f
00000360: 6221 d43d ca24 1f3f 3308 20be 55a8 0fbe
00000370: 6856 37be 1940 a4be 64ee 76be 9057 c23e
00000380: 9d48 963e 76ff 1f3f dbb2 a13d 2458 96be
00000390: 9de1 303f f1aa 593f ae19 323d e5e5 883f
000003a0: f929 2a3f 8ba5 24bf 7d33 353f aeaa e63d
000003b0: 3121 b43f 35d8 d3bd 72e9 373f 9c03 d53e
000003c0: 93ad 573f cd34 adbf c67b 66ba 148c 273f
000003d0: 24f8 57be f14c 503d df66 203e a478 b23f
000003e0: ab46 46be db8e 023f bc31 943e 5d9a 71bf
000003f0: 0025 8e3e dd15 913f 2c1b 4ebf 8a3b 7e3f
0.3073474 0.55721354 -0.0060812756 0.74473864 0.675996 1.0314999 -0.088215776 0.8270575
0.6492457 -0.12867416 -0.72972286 1.2450665 -0.98109674 0.29474238 -0.16194376 0.6124501
0.82056725 1.1687071 -0.47655967 0.3735314 -0.98564166 1.2209524 -0.13330045 1.0485554
-0.6073482 -0.0877241 0.47671273 -1.1790408 -1.1052805 0.5234 0.7021039 0.35520217
0.69474214 0.24798732 -0.27233282 0.8461845 0.086415485 -0.21233708 0.14429072 -1.3564442
0.07519723 1.1137073 0.8479714 -0.23457478 -0.20791985 0.86665416 -0.6052223 -0.28271446
0.52745074 0.86016726 1.1403332 -0.18380947 0.29870355 -0.38092008 0.8307104 1.1273232
0.40433112 -0.42129838 0.12622157 1.0246354 -0.34679398 0.7853802 1.0610198 0.019345822
-0.61739314 0.3677796 1.2538747 0.08065025 0.6627003 0.34796157 0.7833612 0.3225196
0.03373828 0.20537026 0.06979169 0.5985795 1.3378899 0.59247035 0.32823715 0.70290124
1.2072313 -0.1588037 -0.18622531 0.06284163 1.507095 1.0930189 -0.9739053 -0.70760685
0.19640516 -0.31094244 -1.0515714 -1.0446883 0.741691 1.784875 -0.43941623 1.0242863
1.0740623 0.8167827 -0.16481175 0.7090272 0.7609192 0.8892982 1.0305818 0.18038526
0.7373318 0.46348384 0.2684117 1.276105 1.390438 -0.76929355 -0.0077647455 -0.06011235
0.29048494 0.14971091 0.13078766 -1.1496502 0.7297359 1.0956575 0.0054585035 0.10678771
0.7889421 1.2950314 0.6918967 0.10865006 0.48474246 1.1488055 0.1126492 0.7794015
-0.4864714 -0.13310713 -0.52783465 0.7119392 -0.7029334 1.3018676 -0.29231653 -0.31742087
-0.46111357 0.4404782 0.8698113 -0.54217315 0.5786507 -0.52428263 0.8841615 0.28764874
-0.8577864 -0.09067641 -0.23105296 0.9241443 0.6230117 0.9606059 0.5488836 0.71345663
0.49316463 1.0969819 -0.181526 0.8068315 0.51608974 -0.599359 0.3772136 1.3737289
0.108034335 0.15339492 1.1090244 -0.24107061 -0.1427831 -0.49161792 -0.06102375 1.1044888
-0.3251378 0.9198856 0.7898699 0.270991 0.92607456 -0.4808378 1.0481457 0.2345075
1.1543294 0.8575769 -0.1982012 0.7639833 0.059212174 -0.7607486 -0.05123379 -0.67141646
-0.5681827 -0.17060512 0.1308616 0.5179524 0.865127 1.3974248 -0.11284884 -1.4451253
0.5767963 -0.33112544 0.7656629 0.623817 0.8745286 1.0891016 0.35158786 -0.456966
0.55400187 0.9154187 0.21348086 0.17592444 0.37225077 -0.99157834 0.75103354 0.22319844
0.8223124 0.4324531 1.2636049 1.0992507 -0.41332027 -1.1928765 -0.24541426 1.2277611
0.1035793 0.6216551 -0.15628128 -0.14029057 -0.17904055 -0.32080153 -0.24114376 0.3795743
0.29352275 0.6249918 0.07895442 -0.2936412 0.6909426 0.8502646 0.04348152 1.0695158
0.66470295 -0.643151 0.7078169 0.11263023 1.4072629 -0.103439726 0.71840584 0.41604316
0.8424923 -1.3531739 -0.00087922474 0.6544812 -0.21090752 0.050854627 0.15664242 1.3943067
-0.19362895 0.5099923 0.28944194 -0.94376165 0.27762604 1.1334797 -0.8051021 0.993096

y f4 [16]
00000000: f7b8 4e3e 6c1e 823c 9eaa 423e 7e6c dd3e
00000010: 8959 283e d9fc 493d 500c e63d 1306 babe
00000020: 722d 023e d9f9 e43e 0897 3e3e 77e6 d33d
00000030: 357d 063f a431 623f ea9a 443e 94e5 f23d
0.20187746 0.015883647 0.19010398 0.43246835 0.16440405 0.0493134 0.11232817 -0.3633276
0.12712649 0.4472187 0.18612301 0.10346692 0.525348 0.88356996 0.1919972 0.11860195

ef f4 [8, 6]
00000000: 5475 a2bf 67a2 92bf bdc8 a03e db07 b93f
00000010: 1ea0 033f 8c93 c93e 60fd 8ebe e434 293f
00000020: f2f3 5a3e 45f1 823f d03b a23f 1299 483f
00000030: 2396 bc3e ef63 5c3a fff0 c13e dbdf abbd
00000040: 11a9 40be aa5a e23f 28f3 a03e 4e18 e93e
00000050: e439 9bbd 9d59 993e 391b 013f 3d90 ae3f
00000060: 8f3b 903d 41a5 5c3f cfa4 7b3f 8a72 733f
00000070: b115 0f3e a9bb e93e 8833 423f c088 f13e
00000080: 2652 493f a3a8 923f 0016 cb3e fce6 babf
00000090: 58da 803f 22d9 083f 6a52 f23e e7c3 9d3f
000000a0: 956b edbd 37e8 b7bf c885 3f3f db79 b13f
000000b0: 21bb 39bf feca d43e 22f6 69bf 290b c8bf
-1.2692056 -1.1455811 0.3140315 1.4455522 0.51416194 0.39370382 -0.27927685 0.6609633
0.2138212 1.022988 1.2674503 0.78358567 0.36833295 0.0008407225 0.37879178 -0.083923064
-0.18814494 1.7683918 0.31435513 0.45526356 -0.07579401 0.29951182 0.50432163 1.3637768
0.0704261 0.8618966 0.9829835 0.9509665 0.13973118 0.45650986 0.7585988 0.47174644
0.78640974 1.1457714 0.39665222 -1.4601741 1.0066633 0.5345632 0.47328502 1.232541
-0.11592785 -1.4367741 0.7481351 1.3865312 -0.7255116 0.4156112 -0.91391194 -1.5628406

3 f4 [6]
00000000: 662b 193e 2a60 963e c208 b73e e1e2 ff3d
00000010: 6842 b73e 6595 0b3f
0.14957961 0.29370242 0.3574887 0.124944456 0.3579285 0.5452483

g f4 [37, 16]
00000000: 8532 d93e 39f8 58bf b518 c2be 4326 db3e
00000010: 4436 d43e 8b07 f2be 95c4 8e3e c990 933e
00000020: 094d efbe ab35 b93e 7660 2ebf 1387 14bf
00000030: 278f be3e d807 27bf 50be a23e 84a0 febe
00000040: 7a4c 88bc fdb6 2a3d c065 11bd 4db3 14bd
00000050: 5af5 e93c 83cf 053d f375 3a3d a819 54bc
00000060: 9c52 7f3c 0231 833c 00a1 423c ae4c d03c
00000070: c05f e2bc d0cd 133b 42af c73c 58ef 50bc
00000080: 5a01 443f 87f3 aebe 16e3 b0be 9a04 2abf
00000090: 43ed 2bbf 73e8 263d 3238 8cbe 32c1 483f
000000a0: 1035 783e d919 3f3f 5402 42bf d358 24bf
000000b0: 6349 e03e ed44 0ebf cf40 4fbd 71a9 8bbe
000000c0: 4ce3 e5be 7436 a43f 24fb 8d3d a2be f8be
000000d0: 9718 4bbd a697 ccbf 10ca c4be 7c50 f63e
000000e0: 36aa 193f 74f6 c53b b344 debd 9def b23e
000000f0: 96ba a63e 80e1 013f eb96 4cbe 06d1 73be
00000100: 4aa9 31bd 9820 8fbb 029a ac3c 30a2 2cbd
00000110: f1df 273d 8d2b 433d 5919 263d 8016 bb39
00000120: 0d2c f8bc 60ff 20bd da24 b53c 936e 12bd
00000130: 334e cfbc 8332 123d 4036 13bc c098 2b3a
00000140: d85a 333f d842 28bf 8d1c 0d3f a6b9 22bc
00000150: 6cb7 b73e 4093 a7ba 7ed4 413f 01e1 e3be
00000160: e51d 6c3f ab91 553f 6235 91be bd31 ef3e
00000170: 08a0 dcbe 9727 cf3e eba9 01bd 96bd 3abf
00000180: 3cb4 103f c547 ac3f 6600 8bbf 2c10 433f
00000190: 2e57 583f c980 983f b973 753f 4cd7 433f
000001a0: b2e9 323f 8aab fb3e 581c 3f3f e6ae 6e3f
000001b0: 7a29 18be 7bfb 493f 5db0 413e 4933 62bf
000001c0: 6979 bdbd ec7d a2bf 74a6 953d 7a9b 453c
000001d0: edb5 653f 49db 633f 858b ea3e c72a 4cbe
000001e0: 4b08 e4bd a641 05bf aa44 e93e 2beb 15bf
000001f0: 28b7 843e 1ad3 bebe 5b69 6c3e 2156 323f
00000200: 01ff 0f3f c208 a0be 4c20 23be 153f e7bb
00000210: 1e66 6fbc eb6c 09be a273 5ebe 1ed0 1c3f
00000220: 5ad1 563f 56d9 98be 7ad9 563f d744 8f3e
00000230: e4b0 663e b711 91bf f6aa c4be b8a7 1bbf
00000240: 97c1 6dbf f01a a23f 49d3 a7be 75e7 91be
00000250: 2500 1e3f 0408 673f a977 d2be d66e 18be
00000260: dc00 6c3f 5c7c a9be 5a4e a9be 0739 77bf
00000270: 6daa 763e ecd5 04bf 50b1 8b3c 1cb5 953e
00000280: 089b d03c a1e8 6f3e a75b 4e3f 7b08 693e
00000290: 5f41 633f ec78 c33e 45c0 f53e 4cf0 2bbe
000002a0: f3fa eabe 3cf6 093f 0252 7bbe 70dd 7a3f
000002b0: fa96 bc3e 8f67 66be 9863 513f d4ad e3be
000002c0: eea7 b9be 0105 a5bc ea7c 823d 4480 20bf
000002d0: 58ca cebe 3a13 62bf 47d4 95bd ba15 233f
000002e0: 0f4c 1abe e95a 5dbd 9359 803f 7cd6 e53e
000002f0: a95d 093e f082 603f 46fa fb3e 4d8f 8abe
00000300: 6a84 a53e 1553 ed3d adc0 803f f265 9c3e
00000310: b2d1 e33e 84a1 b9bd 9708 623f 7af5 d33e
00000320: 1047 74bd a952 d33b cfd0 183f 5444 3ebf
00000330: d11d b83e d5db c13e a6a4 643f 0bd7 bb3e
00000340: 8114 ac3c ab0e 983e dc48 163f c46d 433f
00000350: 5d71 763f c1f2 083f 9c3b 523e b1a7 033f
00000360: 508e a23d a6ca 6f3f 5df1 f7bd b8be 433f
00000370: 32a7 103f b3f5 b23e 8aab 4d3f bbba bc3e
00000380: 1e70 4e3f 4ecc dbbe 8648 0d3f 6348 523f
00000390: 6100 ad3e dd19 b9bc 5cb9 c2bd 98a8 d0be
000003a0: d545 9e3e f846 f83e 7d40 1ebe 8369 ad3e
000003b0: 75fb 033f c94c 34be b68b 913e 1fec ef3d
000003c0: 0b1b e53d 2e16 e9bd 9e81 043f a407 c43e
000003d0: 6232 913d cadd 12bf 8e63 843f 9ef0 cf3e
000003e0: 7096 033f 2b83 0bbf e1b7 e43d 39c0 68bf
000003f0: bc15 2ebe 410c ea3d 971e b23e 24a9 443f
0.42421356 -0.8475376 -0.37909475 0.4280263 0.4144765 -0.4727138 0.27884355 0.288214
-0.4673846 0.36173758 -0.6811594 -0.58018607 0.37218592 -0.65246344 0.31785822 -0.4973184
-0.01663803 0.041678417 -0.035497427 -0.036303807 0.028559376 0.0326686 0.04552264 -0.01294557
0.01558366 0.01601458 0.011879206 0.025427189 -0.027633548 0.0022553094 0.024375562 -0.0127523765
0.7656456 -0.34170172 -0.34548253 -0.6641327 -0.6715891 0.040749025 -0.27386624 0.7841979
0.24238992 0.74648815 -0.757848 -0.64198035 0.4380599 -0.5557392 -0.050598916 -0.2727771
-0.44899976 1.2829118 0.06932667 -0.4858294 -0.049583998 -1.598378 -0.3843541 0.4810828
0.60025346 0.0060413424 -0.10852947 0.34948435 0.3256423 0.5073471 -0.19979446 -0.23810205
-0.043374337 -0.004367899 0.02106953 -0.04214686 0.04098505 0.047648955 0.040551517 0.00035684183
-0.030294443 -0.039306045 0.022112299 -0.035749983 -0.025305843 0.035692703 -0.008985102 0.0006545894
0.7006049 -0.65726995 0.5512169 -0.009931957 0.35882127 -0.0012784973 0.7571486 -0.44507602
0.92233115 0.83425397 -0.2836104 0.46717635 -0.43090844 0.40459892 -0.031656187 -0.72945535
0.56525016 1.3459402 -1.0859497 0.7619655 0.84508026 1.1914302 0.95879704 0.7650039
0.6988784 0.4915431 0.74652624 0.93235624 -0.14859572 0.78899354 0.18914934 -0.88359505
-0.09251673 -1.2694678 0.07307139 0.012060994 0.8973072 0.8900648 0.4580957 -0.19938193
-0.11134394 -0.52053297 0.455602 -0.5856196 0.25920987 -0.37270433 0.23087065 0.6966267
0.5624848 -0.31256682 -0.15930289 -0.0070570805 -0.014611749 -0.13420455 -0.21723798 0.6125506
0.83913195 -0.29853314 0.8392559 0.27982208 0.22528416 -1.1333531 -0.38411683 -0.60802794
-0.9287352 1.2664471 -0.32778385 -0.284969 0.6171897 0.90246606 -0.41106918 -0.1488603
0.9218881 -0.3310269 -0.3306759 -0.9657139 0.2408845 -0.5188892 0.017052323 0.29239738
0.02546455 0.23428585 0.806086 0.22757141 0.88771623 0.38178194 0.47998253 -0.16790885
-0.45894584 0.5389135 -0.24543002 0.97994137 0.36833936 -0.22500442 0.81792593 -0.44468558
-0.36260933 -0.020143988 0.06371482 -0.6269572 -0.4038875 -0.8831059 -0.07315879 0.6370503
-0.15068077 -0.054041777 1.0027336 0.448902 0.13414635 0.87699795 0.4921438 -0.27062455
0.32327586 0.11588112 1.00588 0.30546528 0.44495922 -0.0906401 0.8829436 0.4139822
-0.059638083 0.006449063 0.59693617 -0.7432301 0.35960248 0.3786303 0.89313734 0.36687502
0.02100587 0.2969869 0.58704925 0.76339364 0.9626673 0.53495413 0.20530552 0.5142775
0.079373 0.9366859 -0.12106583 0.7646289 0.5650512 0.3495308 0.8033987 0.36861214
0.8063983 -0.4292931 0.55188787 0.82141703 0.33789352 -0.02259534 -0.09508011 -0.40753627
0.30912653 0.48491645 -0.15454288 0.33869562 0.5155557 -0.17607416 0.28426903 0.117149584
0.11186799 -0.113811836 0.5176028 0.3828708 0.07089688 -0.57369673 1.0342882 0.40613264
0.51401424 -0.5449702 0.111678846 -0.9091831 -0.17000479 0.114281185 0.34788963 0.7682059
