Vogen.Synth/models/f0/man.v20210620-044257.f0.onnx (onnx, 34751 bytes, 17 tensors)

a f4 [24]
000000 00 00 00 c2 00 00 f0 c1 00 00 e0 c1 00 00 d0 c1
       -32.0 -30.0 -28.0 -26.0
000010 00 00 c0 c1 00 00 b0 c1 00 00 a0 c1 00 00 90 c1
       -24.0 -22.0 -20.0 -18.0
000020 00 00 80 c1 00 00 60 c1 00 00 40 c1 00 00 20 c1
       -16.0 -14.0 -12.0 -10.0
000030 00 00 00 c1 00 00 c0 c0 00 00 80 c0 00 00 00 c0
       -8.0 -6.0 -4.0 -2.0
000040 00 00 00 00 00 00 00 40 00 00 80 40 00 00 c0 40
       0.0 2.0 4.0 6.0
000050 00 00 00 41 00 00 20 41 00 00 40 41 00 00 60 41
       8.0 10.0 12.0 14.0

z f4 [8]
000000 00 00 80 c0 00 00 40 c0 00 00 00 c0 00 00 80 bf
       -4.0 -3.0 -2.0 -1.0
000010 00 00 00 00 00 00 80 3f 00 00 00 40 00 00 40 40
       0.0 1.0 2.0 3.0

5 f4 [202, 14]
000000 94 13 d9 3e ea 99 88 3e 7b f1 bc 3e a1 e3 cb 3d
       0.4239775 0.26679927 0.36902985 0.09955526
000010 e9 24 e8 be ed 2a 00 bf c6 60 95 3f d3 7a 00 bf
       -0.4534066 -0.500655 1.1670158 -0.50187415
000020 3d d9 f5 3e 60 2e 13 bf c7 24 a0 bd 61 00 e0 3e
       0.48017302 -0.5749264 -0.07819515 0.4375029
000030 f9 9d 44 3f 8e a8 a8 be 32 99 08 3f 2c 28 5f 3e
       0.7680355 -0.32941097 0.5335876 0.21792668
000040 05 07 a6 3e 2c 6c 3b 3e db 8b 20 3e 8e 62 50 bf
       0.3242723 0.18302983 0.1567835 -0.8140038
000050 6a 1a c1 3e d3 07 b1 be 57 b9 c4 3e 1f 85 57 bf
       0.37715465 -0.34576282 0.38422653 -0.841875
000060 cb 7d 8f 3d 2c 7d ac 3d 65 b4 99 3f f5 c7 a7 bd
       0.07006415 0.08422312 1.2008177 -0.08192436
000070 7f 5a 8d 3e 43 eb a0 3e b0 5b 63 3f a0 ea 92 bb
       0.27608106 0.3142949 0.8881178 -0.004483536
000080 59 df 03 bf d0 97 83 3f b0 c5 e6 bf c9 ed ca bf
       -0.51512676 1.0280704 -1.802908 -1.5853816
000090 c5 00 8a 3f 0b a6 07 3f c9 da f5 be 22 4f c5 3e
       1.0781485 0.52987736 -0.48018482 0.38536936
0000a0 e8 c0 e7 be 2a 39 f6 3e ae 71 ab bf cf 8b 9b 3e
       -0.45264363 0.48090488 -1.3394067 0.30380103
0000b0 ca d6 2b be c1 61 12 3e 42 96 0b 3f 39 7b 07 3f
       -0.16781154 0.14295103 0.5452615 0.529224
0000c0 6a be 88 bf 11 04 a0 3e fe 8a 9a bc f2 65 44 3f
       -1.068311 0.31253102 -0.018865105 0.76718056
0000d0 c6 4d 0b 3f 02 ba 9c 3e b3 2a 1b 3e 35 37 57 3d
       0.5441555 0.30610663 0.15153007 0.052542884
0000e0 c9 0b b6 bf 40 51 ef be 74 55 d2 3d c8 ab c1 3d
       -1.4222347 -0.46741676 0.10270205 0.09456593
0000f0 c0 d5 46 3e 4f 56 b6 3e 83 8a c3 3e a9 c6 08 3f
       0.19417477 0.35612723 0.38191614 0.5342813
000100 76 fa cf be c1 09 c9 3e 89 af 13 3f f2 32 c5 3c
       -0.40620774 0.39265254 0.5768972 0.024072144
000110 51 4c b1 3d c3 ba 96 3e f3 68 c2 be e8 03 91 3e
       0.08657134 0.29439363 -0.37970695 0.28323293
000120 87 6e 83 3e 73 bf 72 be 34 f1 b1 3c 44 50 da bc
       0.25670263 -0.23705845 0.02172146 -0.026649602
000130 1f d7 d0 be 51 70 7a 3e d2 d8 0b bd 1f a1 ad 3e
       -0.40789124 0.24456908 -0.034142323 0.33911988
000140 31 ce 32 3e 0d 80 23 3d ab 32 e8 3d d8 58 1b 3e
       0.17461468 0.03991704 0.11337789 0.1517061
000150 36 cb 1b bf fc 03 37 3e a0 b4 d0 3e 32 2d a7 bd
       -0.6085695 0.17872614 0.40762806 -0.08162917
000160 8e a2 a7 3e b2 f6 36 3e d3 c2 c1 be 31 e0 93 b9
       0.32741207 0.17867544 -0.37843952 -0.0002820506
000170 93 17 a6 3d ca 45 5f be c6 31 65 3e 21 8a 09 be
       0.08109965 -0.21803966 0.22382268 -0.13431598
000180 41 0d 58 3f 29 89 d6 3e 86 c7 91 bf ce e3 2a 3e
       0.84395224 0.4190152 -1.1389015 0.16688463
000190 b4 b6 c1 bc 09 bf 2f be 49 68 19 3e 40 7a 75 3e
       -0.02364669 -0.17162718 0.14981188 0.23972416
0001a0 71 16 6b bf de 89 12 3f 2e f8 db be 72 a6 ce 3e
       -0.9183112 0.5724162 -0.42962784 0.40361363
0001b0 a7 45 b7 3e 59 a6 06 ba 3b 40 c1 3e df 3e 2a 3f
       0.35795328 -0.0005136482 0.37744316 0.66502184
0001c0 49 9c b5 bf ea 57 f7 bc 33 16 66 be b0 9c 8d bd
       -1.418832 -0.030193288 -0.22469406 -0.069146514
0001d0 c2 55 0c 3f c6 e2 1a 3f 37 74 62 bf e0 6c c9 3e
       0.54818356 0.6050228 -0.8845858 0.39340878
0001e0 8d 32 28 bf 3b b0 67 3e 28 f7 f6 3e df 4f 9b be
       -0.65702134 0.2262582 0.4823544 -0.30334374
0001f0 84 45 49 3f 6f 5a 63 3f 5e 77 44 bf 86 3e a9 3e
       0.786217 0.88809866 -0.7674464 0.33055514
000200 19 1c 98 3e ce 82 89 be d3 df bf be 99 83 a4 bd
       0.29708937 -0.2685761 -0.37475452 -0.08032913
000210 30 fa 9f be 5e 03 b1 3e 9e e7 c0 bd 25 af cb 3e
       -0.31245565 0.3457288 -0.094191775 0.39782062
000220 09 0b 76 3e f2 26 83 3c 0f 52 9d 3d ea 09 0b 3f
       0.24027647 0.016009782 0.07681667 0.54312
000230 d3 2f e3 3e 85 2e 84 3e 5e bf 88 3f 4c 40 66 3e
       0.44372424 0.25816742 1.0683401 0.22485465
000240 e6 71 76 be 08 8d 69 bf 47 10 1d 3f 8c 97 6b bf
       -0.24066886 -0.9123082 0.6135296 -0.9202812
000250 3a af 49 3f 7d 7a e9 bf 6e 16 85 be 24 e2 19 be
       0.78783 -1.8240505 -0.25993675 -0.15027672
000260 8a 7e 0d 40 f7 23 51 3f 07 87 f5 be 62 74 81 3e
       2.2108483 0.81695503 -0.4795458 0.25284106
000270 9a 83 15 3f bc 9d 1d bf b6 71 ae bc 37 22 22 3e
       0.58403933 -0.6156881 -0.021294456 0.15833364
000280 e9 99 4d be 85 39 ce 3e 0d b0 6d be 67 e8 c5 3e
       -0.20078243 0.4027826 -0.2321169 0.3865387
000290 84 46 a7 3d 2f c2 86 be 5c c7 88 3d 7e 47 be 3e
       0.08167747 -0.26320025 0.0667865 0.3716392
0002a0 e1 04 38 3d 49 fd 31 3e b8 c2 f6 3d cd 4f 84 bc
       0.044926528 0.17381777 0.120488584 -0.016151333
0002b0 00 89 f3 3e 02 54 03 3e 46 f2 62 bf 56 e1 23 3c
       0.4756546 0.12825015 -0.8865093 0.010002455
0002c0 9c af a3 3d dd c1 87 3e 38 90 73 3d 9c c1 06 3d
       0.07992479 0.26515093 0.05946371 0.032899484
0002d0 0e 31 7d 3d 38 82 d6 bd 3b aa 88 3e 07 fc 7f 3d
       0.06181436 -0.10474056 0.26692376 0.06249621
0002e0 d6 0a ad 3e 2a fc 84 3d e2 93 70 3e 3e ed 5a bf
       0.3379733 0.06493409 0.23493913 -0.8551825
0002f0 65 86 49 3f 8d 09 96 bb 94 85 8a 3d 1b cc 6d bf
       0.78720695 -0.0045787753 0.06763759 -0.92889565
000300 4e 0f 31 3e 90 94 0c be e9 1f ab 3f bf 3d 7d 3d
       0.17290995 -0.13728547 1.3369113 0.061826464
000310 d2 41 5b 3f 44 df ec 3e 35 ef b3 3f d9 1f 29 be
       0.8564731 0.46264088 1.4057375 -0.16516055
000320 e2 ae df be 53 97 29 bf ce 73 cd 3e be 2a 67 bf
       -0.43688112 -0.6624653 0.40127414 -0.90299594
000330 0b fd 70 3f c2 81 84 bf 23 01 df be 2e c2 8f be
       0.9413611 -1.0352099 -0.43555555 -0.28077835
000340 58 84 82 3f 37 b2 00 3f fb a4 95 3f 2b 42 2c 3e
       1.0196638 0.50271934 1.1690973 0.16822116
000350 10 5f c7 3e 99 4c 42 3f 76 73 93 bb 27 4e 79 bf
       0.38939714 0.7589813 -0.004499848 -0.97384876
000360 4a 65 8e be 0d fd d2 bf 34 70 66 3f 44 3a 13 c0
       -0.27811652 -1.6483475 0.9001496 -2.3004313
000370 86 02 bc be 80 d4 80 3d 8c 45 2f 40 4a f1 56 3f
       -0.36720675 0.06290531 2.7386198 0.8396193
000380 58 41 41 40 84 11 23 3f e0 e2 c3 3f 89 20 01 3f
       3.0196133 0.636986 1.5303612 0.5044027
000390 5e 99 1f bf 7a dc 99 bf 75 0d 9a be fa 6c 41 c0
       -0.62343395 -1.2020409 -0.30088392 -3.0222764
0003a0 6a db 02 40 cf 67 2d c0 e6 8a 96 bf c4 40 1c be
       2.044642 -2.709461 -1.1761138 -0.15259081
0003b0 94 dd 19 40 b8 05 42 3f 5e 18 9d bf 13 a9 ef bd
       2.404149 0.75789976 -1.2273061 -0.1170217
0003c0 b9 3e 22 bf d9 8e 41 be 1f 9c 15 3f cd b4 82 3e
       -0.6337696 -0.18902148 0.58441347 0.25528565
0003d0 46 c5 17 bf 1f 7c 97 3f e0 4b 7e bf 94 d3 56 3f
       -0.5928539 1.1834754 -0.99334526 0.8391659
0003e0 14 fc 26 3f b7 0f e6 bc 6f cc 9b bd 2b 4a c0 3d
       0.6522839 -0.028083665 -0.07607352 0.093891464
0003f0 55 7e 1f 3e 20 47 bb 3e 1f c3 49 3f 60 1a d5 be
       0.15575536 0.36577702 0.78813356 -0.41621685

9h f4 [16, 1]
000000 02 75 2b bf 06 0d ad 3e 31 98 75 3f b8 81 6e 3f
       -0.66975415 0.33799 0.9593535 0.93166685
000010 4c 96 11 3f f9 5a 08 bf 52 f6 17 bf c9 30 92 be
       0.5686996 -0.53263813 -0.5936023 -0.28552845
000020 9c 26 0a 3e a6 43 16 3e 41 dc b5 3f 65 d5 f8 3d
       0.13491291 0.14674243 1.4207841 0.12150077
000030 5e 2a bd 3e 37 01 11 3f 0b 23 73 bf 28 cb 88 bf
       0.36946386 0.5664248 -0.94975346 -1.0686998

hs f4 [4]
000000 b9 eb eb 3d 6f 41 5c 3d cd 37 f9 bc 76 a3 44 3e
       0.1151957 0.05377334 -0.030422116 0.1920298

co f4 [16]
000000 e2 86 02 3e 0a ef d2 3d 6b b5 e1 3d b8 e7 5d be
       0.12746766 0.10299499 0.11020931 -0.21670425
000010 7b cc 5c 3d 2f 8a 63 bd d8 99 4b bd 12 0f 3a 3d
       0.053905945 -0.055551704 -0.049707264 0.04542453
000020 00 00 00 00 00 00 00 00 00 00 00 00 00 00 00 00
       0.0 0.0 0.0 0.0
000030 00 00 00 00 00 00 00 00 00 00 00 00 00 00 00 00
       0.0 0.0 0.0 0.0

6n f4 [24, 4]
000000 0e 26 b6 be 1a 50 4c be 73 2c 80 3e 94 24 de be
       -0.35575908 -0.19952431 0.25033912 -0.43387282
000010 02 8d 02 be 16 7e 00 3e f7 67 11 bd ef 69 78 3d
       -0.12749103 0.12548098 -0.03549954 0.0606479
000020 00 77 e7 bd 9a 26 04 3e 35 06 3d 3e 0c 2f 1b be
       -0.11301994 0.1290535 0.18459399 -0.15154666
000030 ed 70 a8 be d6 b0 d4 3e 03 15 f2 bc 3a 20 e1 be
       -0.32898656 0.41541165 -0.029551035 -0.439699
000040 9f 77 33 be 08 22 dd 3e 67 87 ac 3e dc f2 07 bf
       -0.175261 0.43190026 0.33697054 -0.5310495
000050 e5 c4 cd bd 41 c6 81 3a 47 0e cb 3d 8f 36 6a 3c
       -0.1004732 0.0009901003 0.099148326 0.014295234
000060 7d 78 41 3e 52 4b aa 3e a2 33 99 bd ff ec ca be
       0.18893619 0.3326059 -0.07480551 -0.3963394
000070 7a a1 84 3e 5a cf 8e 3e 10 c1 76 3e 83 41 16 bf
       0.25904447 0.27892572 0.24097085 -0.5869371
000080 7f d4 37 3e 64 af fb 3e f2 ac 57 3e 78 6a ff bd
       0.17952155 0.4915725 0.21062067 -0.12471479
000090 df 86 96 3e 75 b5 22 be 7a 75 f5 3e 91 84 f9 bd
       0.29399773 -0.15889533 0.4794119 -0.12183488
0000a0 34 fb 26 bd 95 0e 2f be 3d 6e 79 3d 98 f1 2c 3c
       -0.04076691 -0.17095406 0.060896147 0.010555647
0000b0 40 83 c9 3d c2 cb df 3e 57 45 80 be 36 eb 10 bf
       0.09839487 0.43710142 -0.25052902 -0.56608903
0000c0 29 85 04 3f 13 a8 5d be 1b ae 05 3f d2 79 fa be
       0.51765686 -0.21646146 0.5221879 -0.48921067
0000d0 4a 0e 89 3e 51 d3 17 3e 1c 0d 4c be 98 b7 f2 be
       0.26768714 0.14826705 -0.19926876 -0.47405696
0000e0 d8 ee 16 3f c1 83 24 3e 8f 32 15 3e 2f a9 7d be
       0.58958197 0.16065885 0.14570068 -0.2477157
0000f0 a2 f7 8b bd 7b 4a 1d be b2 fe 61 3e 6d d0 f0 3b
       -0.068343416 -0.15360443 0.22069815 0.007349065
000100 66 39 e7 3e 04 76 9b be ba cd 53 3e eb b2 dd 3e
       0.4516098 -0.30363476 0.20683947 0.43300566
000110 e1 5b 2c 3e 14 80 92 3d 5f e6 93 3e b4 88 46 be
       0.16831924 0.07153335 0.28886697 -0.19388086
000120 53 98 f9 3e 3b 79 f5 be f9 57 fa 3e f1 3b 05 3f
       0.48749027 -0.47944054 0.48895243 0.5204459
000130 45 45 fc 3e 11 f7 9a 3e c6 79 9a 3e 7f ca f9 bd
       0.49271598 0.30266622 0.3017103 -0.12196826
000140 9c bb 3a 3e 78 e3 e0 be e3 10 a9 3e 6c 35 ff 3e
       0.1823563 -0.43923545 0.33020696 0.49845445
000150 3c 6a 59 be 02 89 45 3e 41 a1 b6 3e 6c 54 e0 3e
       -0.21231931 0.19290546 0.35669902 0.4381441
000160 bc 67 b8 3e 5e 59 ed be 13 f1 11 3d 47 ac 0a bd
       0.36016643 -0.46357244 0.035630297 -0.033855703
000170 8f a9 de 3e 4b fd b4 3d f1 18 62 3e 49 55 6c be
       0.43488738 0.08837374 0.22079827 -0.23079409

rk f4 [16, 1]
000000 0b ac 22 3f a0 93 f2 be d0 00 c4 be 7f ca c6 3e
       0.63543767 -0.47378254 -0.3828187 0.38826367
000010 4f de bc be 49 12 16 3f 10 26 e1 bd 43 6a 4d 3d
       -0.36888358 0.5862165 -0.10993588 0.050150167
000020 b8 d2 43 be 26 0d 15 3f 1c 43 af 3e 05 9e 47 3e
       -0.19123352 0.5822319 0.34230888 0.19493873
000030 8c f7 94 3e cd 44 95 3e de 15 8c be bc e7 e8 be
       0.29095113 0.29154053 -0.27360433 -0.454893

h8 f4 [8]
000000 9d 74 6b 3d f6 98 cf 3b 17 4c 64 3e 4b 12 57 bc
       0.057484258 0.006335373 0.22294651 -0.01312692
000010 7e a3 ea 3d 20 15 60 bd b6 f3 f5 bd 22 31 a2 3d
       0.11456965 -0.054707646 -0.12009375 0.079195276

kq f4 [15, 8]
000000 2e 51 0f bf 95 69 eb 3e 7f 88 ac 3c 6f 98 82 be
       -0.55983245 0.4597899 0.02106118 -0.25506923
000010 6e c8 8e 3e be 16 57 3e 5a 17 19 3d da 69 cd 3e
       0.2788729 0.21004769 0.037375785 0.4011982
000020 c9 21 ff 3d 72 f1 d2 bd ed 95 a7 bd cd dc dc 3d
       0.12457616 -0.10299958 -0.08182893 0.10784302
000030 d9 45 2b bf 35 8c 82 be 51 cf d9 bd be 34 44 3d
       -0.66903454 -0.25497594 -0.106352456 0.04790186
000040 91 ce fe bd f1 36 95 be 91 a2 e8 be 18 bb cf 3e
       -0.12441743 -0.2914348 -0.45436528 0.4057243
000050 ec fa 4a bf bd 29 34 3f a6 23 7a 3e 87 c3 26 bf
       -0.79289126 0.7037619 0.24427661 -0.651421
000060 45 a9 d5 3e 76 c3 f2 3d bb bb 42 3f 97 a0 27 3e
       0.41730705 0.118536875 0.76067704 0.16369854
000070 ae 5d a4 bf 80 0a 82 3e 80 06 11 3f d8 b6 f7 bd
       -1.2841089 0.25398636 0.56650543 -0.120954216
000080 bb 3b 83 3d 6c 3d 8e be 5c ff d1 3e 36 b5 4d 3e
       0.06407877 -0.27781236 0.41015136 0.20088658
000090 2b 32 21 be e3 c1 83 3e 9f 51 34 bf b9 27 fb be
       -0.15741794 0.2573386 -0.70437044 -0.49053743
0000a0 99 1f d3 3e 7b 20 df 3e 8b 77 4d 3f 62 0e 7e 3e
       0.41235045 0.43579468 0.80260533 0.24810174
0000b0 ab a5 22 3f 22 74 20 3d 74 e1 73 bf 08 29 55 3e
       0.6353404 0.039173253 -0.9526589 0.20816433
0000c0 e9 5b 68 be 54 f2 b8 be a9 b2 13 3f 65 93 14 3e
       -0.22691311 -0.36122382 0.5769449 0.14509352
0000d0 82 99 68 3d e7 c7 0f bf 27 f6 44 3e e7 45 a1 3d
       0.05678702 -0.561644 0.19234525 0.07874661
0000e0 99 b0 79 3e 85 49 f6 bd 9c 13 03 3f bf 22 54 3e
       0.24383773 -0.120257415 0.51201797 0.2071638
0000f0 9e 92 f9 3e 0e a7 e6 3d 2b 9f 23 3f e1 39 d8 be
       0.48744673 0.11262332 0.63914746 -0.42231658
000100 eb 10 d6 be 4c 45 3f bf e9 36 3d 3f a4 29 b7 be
       -0.41809782 -0.74715114 0.7391191 -0.35773957
000110 a4 94 bb be c0 a5 f8 be 32 b8 d0 be 37 a0 c1 bd
       -0.3663684 -0.48563957 -0.4076553 -0.09454387
000120 b4 9b 25 be 22 af ad 3e 84 20 bd be 69 e8 d7 be
       -0.16172677 0.33922678 -0.3693887 -0.42169502
000130 5c db 71 3e 7a 83 9e be 3b a5 52 be 4d de f7 3e
       0.23618835 -0.30959684 -0.20570843 0.4841179
000140 07 04 9f 3e 21 42 02 3f cc f0 1c 3f 18 d9 a1 3e
       0.3105776 0.50882155 0.61304927 0.31610942
000150 22 be 0a 3e 24 fd 94 be 8f b6 59 be ad 03 92 3e
       0.13549092 -0.2909938 -0.21261047 0.2851843
000160 30 82 34 bf 7d e6 72 3e ff f8 24 be 53 d3 26 bd
       -0.7051115 0.23720737 -0.1611061 -0.04072888
000170 f8 de 8b be fe a3 9b be 60 9b 46 bd 1f 10 e8 bc
       -0.2731855 -0.30398554 -0.04848802 -0.028328
000180 8d 55 c5 3e 5b 7a b3 be ba ab 98 be 6e 7c 5a be
       0.38541833 -0.35054287 -0.29818517 -0.21336529
000190 73 76 3d 3f 46 6d 60 be f7 2b 07 3e 02 47 b6 bd
       0.74008864 -0.21916685 0.13200365 -0.089002624
0001a0 6e b5 87 3f fc bb 5a bf 45 ef aa bd 95 8a 11 3f
       1.0602243 -0.8544309 -0.08346418 0.56852084
0001b0 4c 35 26 3f 65 38 94 bc 24 05 cf be 95 49 17 3e
       0.64925075 -0.018093297 -0.4043361 0.14774163
0001c0 ee d9 3c 3e da b0 5f 3e 4b 11 a1 be 30 bb fe bd
       0.18442509 0.21844807 -0.31458506 -0.12438047
0001d0 59 b5 e9 3e 46 4d a7 3d de ed 86 3e 5e 64 2f bf
       0.4564617 0.081690356 0.26353353 -0.68512523

p5 f4 [24]
000000 00 00 00 00 00 00 00 00 00 00 00 00 00 00 00 00
       0.0 0.0 0.0 0.0
000010 00 00 00 00 00 00 00 00 00 00 00 00 00 00 00 00
       0.0 0.0 0.0 0.0
000020 00 00 00 00 00 00 00 00 00 00 00 00 00 00 00 00
       0.0 0.0 0.0 0.0
000030 00 00 00 00 00 00 00 00 00 00 00 00 00 00 00 00
       0.0 0.0 0.0 0.0
000040 00 00 80 3f 00 00 80 3f 00 00 80 3f 00 00 80 3f
       1.0 1.0 1.0 1.0
000050 00 00 80 3f 00 00 80 3f 00 00 80 3f 00 00 80 3f
       1.0 1.0 1.0 1.0

1q f4 [14, 8]
000000 2d 46 a7 3f 32 c2 a9 3f 9f 7b 80 3f 33 0b 8f 3f
       1.3068291 1.3262389 1.0037726 1.1175293
000010 04 0f ed 3e 57 71 3e be f7 c0 03 3f af b0 f4 3f
       0.4630052 -0.18597923 0.51466316 1.911642
000020 87 60 34 bf 2f c2 c6 3c c1 bd bf 3f 0d 41 3a 40
       -0.7045979 0.024262516 1.4979783 2.9102204
000030 25 6f 13 40 8e 22 2f 3e 83 ba 00 bf 18 9f e2 bd
       2.3036587 0.17103025 -0.50284594 -0.11065501
000040 68 9f a2 3f 41 f4 83 bf c3 b1 aa 3f ac 22 d2 be
       1.2704897 -1.0308915 1.3335499 -0.41042078
000050 77 30 ac 3f 3b d6 1f bf c3 22 1b 3f 19 21 95 3f
       1.345229 -0.62436265 0.6059992 1.1650726
000060 38 b5 50 3f ad d7 13 bf cf 76 5a 40 a9 26 a1 3e
       0.8152652 -0.5775097 3.4135015 0.31474808
000070 1b c3 1d 3f 3c 49 5d 3e 09 84 24 3f 08 9a 40 3e
       0.6162583 0.21609968 0.6426397 0.18808758
000080 09 b9 12 3f 99 a4 c1 3f 7f 3b d0 bf 91 07 9c 3f
       0.5731359 1.5128356 -1.6268157 1.2189809
000090 6b 27 e8 3f b4 4b c8 3f e8 75 c3 be ac fd 60 3f
       1.813703 1.5648103 -0.38175893 0.8788707
0000a0 db d3 53 bd 5a 18 5e 3f f7 76 11 40 d4 a9 9d 3f
       -0.051715713 0.8675591 2.272886 1.2317452
0000b0 3e c9 0d bd b6 8b 1e 3f ac 7e 55 40 ab bc de be
       -0.034615748 0.6193193 3.3358564 -0.43503317
0000c0 5b 3b d8 be 29 4c a1 3f e4 cb ca 3e 65 bd 38 3e
       -0.42232785 1.2601367 0.3960868 0.18040998
0000d0 b4 e7 43 bf c9 65 be 3f 28 ae 1a 3f 52 e7 a3 3d
       -0.76525426 1.4874812 0.6042199 0.08003105
0000e0 1c 28 d2 3f f4 d8 86 3f b1 aa 6d 3f 61 e0 d8 3f
       1.641849 1.0534959 0.9283858 1.6943475
0000f0 58 b0 1d 40 76 fd bf bf 73 24 e7 3e e5 31 12 3f
       2.4638882 -1.4999225 0.45144996 0.57107383
000100 c8 b8 d1 3f 9c 4d e2 3f 8c f9 03 c0 34 63 00 40
       1.6384516 1.7679935 -2.0621061 2.0060549
000110 9f 55 1e 3f 5c 0a 83 3f f7 35 80 3f 18 d4 da be
       0.618494 1.0237536 1.0016469 -0.4273994
000120 64 c4 57 40 b9 f6 20 3f 1f 12 1b 3f 7c 50 15 3f
       3.3713617 0.6287647 0.60574526 0.58325934
000130 85 77 21 3f ed 3d 0d 40 2f df a5 be e2 28 53 3f
       0.63073 2.2069046 -0.32396838 0.8248426
000140 8a d2 8e 3f bb 5a ee 3c b5 4a cc be b7 31 0a 40
       1.1158001 0.029095998 -0.39900747 2.1592844
000150 16 b7 a1 be 34 77 44 3e 29 60 16 40 ba 36 0d 40
       -0.31584996 0.19186097 2.3496192 2.2064652
000160 4d af 04 3e 94 a2 e9 3f e6 dd 7b be aa 2d 42 bf
       0.12957497 1.825274 -0.24596366 -0.7585093
000170 b6 ad cc 3f 82 5a ed 3c cf 14 91 3f de e3 c9 3f
       1.5990512 0.028973822 1.1334475 1.5772665
000180 65 60 3f 40 22 48 57 be 81 04 90 3f bb 4a 90 3f
       2.9902585 -0.2102361 1.1251374 1.1272806
000190 5b ef e6 3f ae 71 51 3f df fe 84 3f 10 ef 97 be
       1.8041795 0.81814086 1.039028 -0.29674578
0001a0 3c c3 b4 3f 23 37 2d 40 b4 eb 78 bf 5e b2 d4 3f
       1.4122081 2.7064903 -0.97234654 1.6616933
0001b0 ad 75 e5 3f a2 d3 b8 3f b6 99 ae 3e 30 c2 fc 3f
       1.7926537 1.4439585 0.34101647 1.9746761

xq f4 [32, 16]
000000 0a f6 06 bd a0 7d dc 3e b2 8f 03 be b0 6c aa be
       -0.032949485 0.43064594 -0.12847784 -0.33286047
000010 c2 f6 d8 be 56 d1 3e bd 7e c5 19 3f da b7 8f 3e
       -0.4237576 -0.046586357 0.60066974 0.28069955
000020 69 23 a9 3e 26 42 5d 3e a6 66 65 3e 4e 64 b4 be
       0.33034828 0.21607265 0.22402439 -0.35232776
000030 fa ab 59 3e 29 4a 2c be 10 0d 81 3c fe d3 15 3e
       0.2125701 -0.16825165 0.015753299 0.1463165
000040 af 85 60 be 90 52 2e be 64 3e 5f be 1b cf 34 3e
       -0.21925996 -0.17023683 -0.21801144 0.1765713
000050 5b 48 06 3f 6c 33 e9 3d 9d d6 66 bc a0 76 a8 3d
       0.52454156 0.11386761 -0.014089254 0.08225751
000060 06 94 47 be 6b b4 b3 3e cb bf 88 3e e6 71 87 be
       -0.1949006 0.35098585 0.26708826 -0.26454085
000070 67 62 8c 3e 07 b7 a9 be f1 c4 80 3e 50 5e 9e bd
       0.27418825 -0.3314745 0.25150254 -0.077328324
000080 6b d7 8a 3e 47 22 af 3d 60 81 ef 3e c6 ef bc be
       0.27117476 0.0855146 0.46778393 -0.36901683
000090 8c 28 70 bd 6d 8f 61 be 09 4c 49 3e 8c ec ec 3e
       -0.05863242 -0.22027369 0.19657911 0.4627422
0000a0 5e 8e 50 3e fe 7a 63 3e 7a 5e 84 be 99 a4 53 be
       0.20366809 0.22214887 -0.2585333 -0.20668258
0000b0 b4 ff 64 be c2 a6 08 be db c0 82 3e 2e 46 5e 3e
       -0.22363168 -0.13344863 0.25537762 0.21706459
0000c0 23 ac 01 bf 79 df 97 be f9 a0 89 be 67 7f 15 3e
       -0.50653285 -0.29662684 -0.26880625 0.14599381
0000d0 29 0e aa be 30 11 d6 3d 50 0e 12 bf a9 f6 f3 be
       -0.33213928 0.10452497 -0.5705309 -0.47649124
0000e0 7e 80 4a 3e 78 06 b1 bd 58 b3 55 bd 00 bd dc ba
       0.19775578 -0.08643812 -0.05217299 -0.0016840994
0000f0 e1 e0 9c be c4 ad 93 bd d8 26 33 3d 80 bc a9 3d
       -0.3064032 -0.072108775 0.043738216 0.08287907
000100 14 82 28 3e 1a 1a 26 3d f4 6d c2 3e 00 20 f7 3e
       0.16455871 0.040552236 0.37974513 0.48266602
000110 75 00 7d be bd c2 a8 3e 59 1f b2 3e ed 71 4f 3e
       -0.24707206 0.32961074 0.3478954 0.20258303
000120 68 85 41 bd 40 a7 c6 3d 1c 0f 47 be ea 78 1d 3e
       -0.047246367 0.09699869 -0.19439358 0.15378156
000130 2b 2b 86 3e 6b cd 2c be b8 a8 5c bd 3a e8 3c be
       0.2620481 -0.16875236 -0.05387184 -0.18447962
000140 40 e3 4a 3d 99 2b 02 3e 4f d5 56 3e da af 1f 3e
       0.04953313 0.12711944 0.20979808 0.15594426
000150 26 cb a0 3e 17 7e 19 3e 02 fd a3 be 85 e8 ee 3d
       0.3140499 0.14989506 -0.32028967 0.11665443
000160 20 00 97 bc ea f0 a6 be c0 18 ac be b9 d0 8c be
       -0.018432677 -0.32605678 -0.33612633 -0.27502993
000170 f8 38 0e 3e 4d d8 99 be 38 18 04 3d 4f 02 8b 3e
       0.1388892 -0.30047837 0.03224966 0.271502
000180 64 05 27 be 31 25 b7 be 84 38 21 3e fe d4 ef 3d
       -0.1631065 -0.35770562 0.15744215 0.11710547
000190 f4 71 ee bd 5d 5c 57 be 06 d3 6d 3e 20 49 82 bd
       -0.116428286 -0.21031328 0.2322503 -0.06361604
0001a0 1d 31 9b be 44 bf c4 bd 13 3b a9 3e d0 0b 5d 3d
       -0.30310908 -0.096067935 0.33052883 0.053966343
0001b0 d9 5a 8a 3e bc b7 70 be e0 f6 b7 3c 1a 53 e8 bd
       0.27022436 -0.23507589 0.022456586 -0.11343975
0001c0 92 cc dd 3e 6a a8 92 3e 26 ae 39 bf ae 3b 96 be
       0.43320137 0.28644115 -0.72531354 -0.29342407
0001d0 2a b2 10 bf 5b f9 69 bd 1f b3 32 3f dd 53 79 be
       -0.56521857 -0.05712257 0.6980457 -0.24348398
0001e0 bf c5 39 be 76 e8 f4 bd 0c da a5 bd 0b 6a a0 be
       -0.1814184 -0.11958401 -0.0809823 -0.31330904
0001f0 a2 99 aa be 20 d0 5f 3c 10 5c e7 3d 88 d6 86 be
       -0.33320338 0.013660461 0.112968564 -0.2633555
000200 24 ef 33 3f 48 ea 72 3f 86 ab 04 3f cf d5 2d bf
       0.70286775 0.94888735 0.51824224 -0.6790437
000210 cc e5 35 3d b8 35 99 3d bf 44 e8 3d 45 d7 ed 3c
       0.044408605 0.07480949 0.11341237 0.029033313
000220 c0 42 46 bc 0e 9a b4 be 09 2e 83 be 83 56 ae be
       -0.012100875 -0.35273784 -0.2562106 -0.34050378
000230 a3 2e 2a be 3c 69 7f be ee b3 2e be c9 a8 85 be
       -0.16619353 -0.24942487 -0.17060825 -0.26105335
000240 f8 e3 d4 3e 64 b4 7b 3e 3e fd 60 be 2e 34 20 bf
       0.41580176 0.24580532 -0.21971604 -0.6257962
000250 9d b7 ae bd ad d2 05 be 99 57 99 bd 9a f8 cc 3a
       -0.08531115 -0.13068648 -0.07487411 0.0015638054
000260 45 8e 09 be c4 f6 bc 3d ea d5 6c 3e 50 2f 1f be
       -0.13433178 0.09226754 0.23128477 -0.15545392
000270 24 3f 1a be 26 18 5c 3e f0 ff 0f 3d ee d3 8e be
       -0.15063149 0.21493587 0.03515619 -0.27896065
000280 a4 18 ff 3e bd 61 df 3e 3d 25 b2 bd b7 d0 a7 be
       0.49823487 0.43629256 -0.08698509 -0.32776424
000290 28 2b 2b 3d 43 01 0e bd 6d 22 99 bc bd e5 83 bc
       0.041789204 -0.034669172 -0.018693173 -0.016100759
0002a0 d1 28 6b be 26 9d e9 bd e4 b9 b0 3d ea 16 63 be
       -0.22964789 -0.11406927 0.08629206 -0.2217671
0002b0 e8 2a 9f be f4 23 a4 bd d0 95 d4 3d 78 ce 55 bd
       -0.31087422 -0.0801467 0.10380137 -0.052198857
0002c0 86 54 a9 be 6b d1 73 3e 10 f1 03 bd 3f 48 1f be
       -0.330723 0.23810355 -0.032212317 -0.15554903
0002d0 bb e5 19 bf 40 f3 16 3e 11 36 cc bd 1f 9c e1 be
       -0.60116166 0.1474123 -0.0997125 -0.44064423
0002e0 2d 29 89 3e a0 5c 9b bc 78 e0 1c bd 08 97 2d be
       0.26789227 -0.018965065 -0.038300008 -0.16952145
0002f0 a0 38 03 bd 1f 05 3e be 50 16 57 3d 7e be 54 be
       -0.032036424 -0.18556641 0.052511513 -0.20775792
000300 ae 09 82 3e 93 9d 93 3e 16 e8 09 bf 1b 58 97 be
       0.2539801 0.28831157 -0.5386976 -0.29559407
000310 74 d9 b0 bd b2 24 c9 3e 84 46 44 be bc cb 34 bd
       -0.08635226 0.3928581 -0.19167525 -0.04413961
000320 78 b1 a4 3d 9f 20 a3 3e e7 b7 8d 3e d8 31 0e bd
       0.08041662 0.31860825 0.2767937 -0.034715503
000330 08 b9 ae be 5e 29 31 3e 70 f5 26 bd b8 d1 4d 3d
       -0.34125543 0.17300937 -0.04076141 0.05024883
000340 3f 47 55 3d 7b a7 3a 3e 5a 24 9d bd 31 e4 f8 bc
       0.0520699 0.18227951 -0.07672949 -0.030382248
000350 9f e1 3f be 95 62 78 3e 39 35 b9 be c3 2b a4 3e
       -0.18738411 0.24256356 -0.36173418 0.32064638
000360 0c 96 01 be 69 ed 9c 3e be 1a 55 3e c0 73 06 3e
       -0.12654895 0.3064988 0.20810983 0.13130093
000370 c0 ae 18 3c f0 c2 3a bd 08 4e e9 3d 03 fd 81 3e
       0.009319007 -0.045596063 0.113918364 0.25388345
000380 a8 55 ec bd 42 68 29 bd 3a 08 6e bd 76 38 ec bd
       -0.11539775 -0.041359194 -0.058113314 -0.115342066
000390 9f 33 50 bd 31 2a 09 3e 95 6b be 3e 2d 2b 9b 3e
       -0.05083048 0.13395001 0.37191454 0.30306378
0003a0 69 79 a5 3e 95 24 5d be 4d 46 1a be d6 94 76 be
       0.3231919 -0.21595986 -0.1506588 -0.24080214
0003b0 2c c2 0e be f6 11 24 3e 0c 2d c8 3d b0 3d 00 3e
       -0.13941258 0.16022477 0.09774217 0.12523532
0003c0 5e bc 01 bf 75 76 c1 be 62 97 b4 3e 0d 49 15 3e
       -0.5067805 -0.37785688 0.35271746 0.14578648
0003d0 27 4f e3 be 0a 9a 05 3e 7e 6a b5 3a 2b 11 a6 bc
       -0.44396326 0.13047042 0.0013840941 -0.020271858
0003e0 b8 67 10 bd 34 32 57 be 68 4d 22 3d 2f f3 98 3e
       -0.035255164 -0.21015245 0.0396246 0.29873034
0003f0 cb 0f 36 be ed b2 a3 3e 36 d0 86 be ec 65 d5 3d
       -0.17779462 0.31972447 -0.26330727 0.10419831

e1 f4 [2]
000000 93 bd 8a 3d f0 fe fa 3d
       0.0677444 0.12255657

5o f4 [32, 2]
000000 37 3e 30 3e 41 77 95 bb 90 a9 c2 be 3c ae c3 be
       0.17211233 -0.0045613353 -0.3801999 -0.38218868
000010 73 8a a8 bc 8f 12 0e 3e be c9 e5 bd 98 c3 a9 3d
       -0.02057383 0.13874267 -0.1122012 0.0828926
000020 9f f3 1b bd 49 52 c4 3e 96 82 cc be 9f b9 04 3f
       -0.038074132 0.3834403 -0.3994338 0.51845735
000030 e8 26 8a 3b f1 d7 e0 3e 07 07 ca bd 69 2e 67 be
       0.004216064 0.4391475 -0.098646216 -0.22576298
000040 19 55 9f bd a1 74 64 bd 82 7a b5 3d 58 b5 04 3f
       -0.07779903 -0.05577529 0.08861257 0.5183921
000050 cc 85 ed 3d ce 4e 61 3d c1 73 60 3e eb 8e 78 3e
       0.11597785 0.055006795 0.21919157 0.24273269
000060 6a 02 cd 3d d0 ed d4 3e f9 64 5c be 53 9f 66 be
       0.10010226 0.41587687 -0.21522893 -0.22521715
000070 e1 26 5e 3e 7f 3d c7 3e 7e 50 80 be 53 87 0c bd
       0.21694519 0.38914105 -0.2506141 -0.034308743
000080 40 87 26 bc e0 dc 8d be 27 3a 1f be c6 cc 98 3d
       -0.010164082 -0.27707577 -0.15549527 0.074609324
000090 e3 ec 9e 3e 12 6a b8 3e 2f db ad be dc 9d 66 3e
       0.31040105 0.36018425 -0.33956286 0.22521156
0000a0 0f 10 67 3e ea f9 03 3f 10 46 68 be 19 82 d1 be
       0.2256472 0.51553214 -0.22682977 -0.4091957
0000b0 48 ed 59 be 6c 67 5a 3e 94 84 12 3e ed 4d e3 3e
       -0.21281922 0.21328515 0.14308387 0.4439539
0000c0 4e 76 24 be 26 d7 34 3e 66 a3 be 3e c5 d5 a5 3e
       -0.16060755 0.17660198 0.37234038 0.32389656
0000d0 5d a7 96 3d 75 3b 8f 3e 19 d7 80 3e 3f ca cf be
       0.07356141 0.2797505 0.25164106 -0.4058399
0000e0 24 7e 17 be 4f c2 85 3e dd 27 4e 3e 18 2b ee 3e
       -0.14794213 0.26124808 0.20132394 0.46517253
0000f0 b0 85 45 3d 68 42 6b bd 24 50 f6 bd 9b d7 8f be
       0.048223197 -0.057436377 -0.12027004 -0.2809418

zo f4 [8, 1]
000000 1b 07 84 3f af c0 ef bd be 61 61 3c 3b 95 19 3f
       1.0314668 -0.11706673 0.013756214 0.5999333
000010 f9 00 23 3f 65 80 5c bf 68 e8 96 bf 3b 2c 0f 3f
       0.6367336 -0.86133415 -1.1789675 0.55926865

sm f4 [24]
000000 00 00 00 c2 00 00 f0 c1 00 00 e0 c1 00 00 d0 c1
       -32.0 -30.0 -28.0 -26.0
000010 00 00 c0 c1 00 00 b0 c1 00 00 a0 c1 00 00 90 c1
       -24.0 -22.0 -20.0 -18.0
000020 00 00 80 c1 00 00 60 c1 00 00 40 c1 00 00 20 c1
       -16.0 -14.0 -12.0 -10.0
000030 00 00 00 c1 00 00 c0 c0 00 00 80 c0 00 00 00 c0
       -8.0 -6.0 -4.0 -2.0
000040 00 00 00 00 00 00 00 40 00 00 80 40 00 00 c0 40
       0.0 2.0 4.0 6.0
000050 00 00 00 41 00 00 20 41 00 00 40 41 00 00 60 41
       8.0 10.0 12.0 14.0
